notebooks/outputs/yaskawa/model/model.tflite (tflite, 241664 bytes, 8 tensors)

sequential_2/conv1d_4/BiasAdd/ReadVariableOp f4 [56]
0	0xbd0e064e	-0.03467398
1	0xbcdff03c	-0.027336232
2	0xbd9ba4c8	-0.07599789
3	0xbcc46454	-0.023973621
4	0xbbad7159	-0.005293053
5	0x3bcd90ac	0.0062733497
6	0xbce3f63e	-0.027827378
7	0x3cec1565	0.028818795
8	0xbdc34198	-0.095339954
9	0x3bae2454	0.0053143892
10	0x3d46415a	0.048402168
11	0xbb5c46c8	-0.0033611525
12	0x3d1937e3	0.037406813
13	0xbd2c7000	-0.042099
14	0xbc71300f	-0.014720931
15	0xbd8b607a	-0.06805511
16	0xbcf746e7	-0.030185176
17	0xbbf8cf9b	-0.007593108
18	0xbc57f2ca	-0.013180444
19	0xbdb09708	-0.08622557
20	0x3dd4a54c	0.103830904
21	0xbd23f1b5	-0.04002543
22	0xbd3df016	-0.046371542
23	0x3ba19c65	0.0049319738
24	0x3ccdae55	0.025107542
25	0xbb79c415	-0.0038111259
26	0xbd818c72	-0.06325616
27	0xbc40e95e	-0.011774389
28	0xbcd2f893	-0.025753295
29	0xbc97b95d	-0.018521005
30	0xbd86432e	-0.06555782
31	0x3cd2d8dd	0.025738174
32	0xbc6f676b	-0.014612059
33	0xbd4137a3	-0.0471722
34	0x3bcb579a	0.0062055113
35	0x3b2a9b44	0.0026032487
36	0x3c9152a4	0.017739601
37	0xbaff5f30	-0.0019483324
38	0xbd8aaa10	-0.06770718
39	0x3bae4b6e	0.0053190505
40	0xbdbf98ac	-0.09355292
41	0xbdfb5b2b	-0.12273248
42	0xbd78c270	-0.060732305
43	0xbd1f6649	-0.038915906
44	0xbcd203fa	-0.025636662
45	0xbca6f64c	-0.020381115
46	0x3b2442c0	0.00250642
47	0xbce789f9	-0.028264033
48	0x3b5e44b8	0.0033915471
49	0x3cd17832	0.025570009
50	0xbd9bb15e	-0.076021895
51	0xbc05a17a	-0.008156175
52	0x3c3e9d5a	0.011634195
53	0xbd3ad66c	-0.045614645
54	0xbc9cbf25	-0.019134114
55	0xbcf03135	-0.029320339

sequential_2/conv1d_5/BiasAdd/ReadVariableOp f4 [56]
0	0xbc0fd710	-0.008779302
1	0x3b7904aa	0.0037997165
2	0xbd76dc50	-0.0602687
3	0xbccec7c0	-0.025241733
4	0x3ba76475	0.005108411
5	0xbd71e905	-0.059060115
6	0xbd0cd2f6	-0.034380876
7	0xbce41bba	-0.027845252
8	0xbcdbba04	-0.026822098
9	0xbd694ff7	-0.056961026
10	0xbcb7bf6c	-0.022430144
11	0xbd1e19f8	-0.038598984
12	0x3d6023c7	0.05472162
13	0xbc5d36bb	-0.013501818
14	0x3c0322a7	0.008003867
15	0x3c7057fa	0.014669413
16	0xb98aa778	-0.00026446185
17	0xbc9c8aa5	-0.01910908
18	0xbba9e810	-0.0051851347
19	0xbd02800f	-0.031860407
20	0xbd0ca409	-0.034336124
21	0xbc4ca7e6	-0.012491202
22	0xbc878800	-0.016544342
23	0xbcf46892	-0.02983502
24	0xbcc2477e	-0.02371573
25	0xbc0a6310	-0.00844647
26	0xbc9e73c1	-0.019342305
27	0xbc5e2f44	-0.013561074
28	0xbcdb3194	-0.02675704
29	0xbc9f0a33	-0.019414043
30	0xbd1d9dfc	-0.038480744
31	0x3d820869	0.0634926
32	0xbb3e3880	-0.0029025376
33	0xbcff4a47	-0.031163348
34	0x3c0a4167	0.008438445
35	0xbcae7126	-0.021294188
36	0xbce3a1c4	-0.027787097
37	0x3d21b7ad	0.039481808
38	0xbd1d340a	-0.038379706
39	0xbc64ed4d	-0.013972593
40	0x3c39ad16	0.011332771
41	0xbd8c18af	-0.068406455
42	0xbcd40fd6	-0.025886457
43	0xbc78b1b9	-0.015179091
44	0xbb157fe2	-0.002281182
45	0xbc8a5835	-0.016887764
46	0xbcc6e1d3	-0.024277603
47	0xbcb4cdf7	-0.022070868
48	0xbc63abcb	-0.013895939
49	0xbcd47417	-0.025934262
50	0xbd115a64	-0.035486594
51	0xbc3707f5	-0.011171331
52	0x3d2ec0eb	0.04266445
53	0xbd130fe8	-0.03590384
54	0xba1abe66	-0.00059030054
55	0xbbe30ec0	-0.0069292486

sequential_2/conv1d_4/Conv1D f4 [56, 1, 3, 10]
0	0xbdff9a7d	-0.12480638
1	0xbd37c3cc	-0.04486446
2	0x3e419f25	0.18908365
3	0xbd095c8b	-0.03353552
4	0x3d343a9c	0.044001207
5	0xbe4989ff	-0.19681548
6	0xbdf98532	-0.12183608
7	0x3def92d8	0.1169793
8	0xbe02ec58	-0.1278547
9	0xbc0e4caf	-0.008685275
10	0xbe0248bb	-0.12723057
11	0x3d55235c	0.052035674
12	0x3dc6313c	0.096773595
13	0x3d6e18ac	0.058128998
14	0x3d0b021a	0.03393755
15	0x3d5f12d3	0.05446131
16	0x3d67ef40	0.05662465
17	0xbdada45d	-0.084786154
18	0x3e4a8ebc	0.19781011
19	0xbdb2b2dc	-0.08725521
20	0xbe181ad7	-0.14853989
21	0x3dd8c95c	0.10585281
22	0x3e20e3b0	0.15711856
23	0xbdca502c	-0.09878573
24	0x3e8dd779	0.27703455
25	0x3e2c5f84	0.16833311
26	0x3df94e26	0.12173109
27	0xbdf505e0	-0.11964011
28	0x3e4e4073	0.20141773
29	0x3df90104	0.12158397
30	0xbe85fb84	-0.26168454
31	0xbd904423	-0.07044246
32	0xbe1d9ea6	-0.15392551
33	0x3dcca3a6	0.09992151
34	0x3e0c7a81	0.13718607
35	0xbd4ae052	-0.049530335
36	0x3e45b2ec	0.19306535
37	0x3d6ba297	0.057528105
38	0xbd02f7f5	-0.03197475
39	0xbd289405	-0.041156787
40	0xbcbd20fb	-0.023087015
41	0x3d87a6cb	0.0662361
42	0x3d9a62df	0.075383894
43	0x3d5fc0a5	0.05462708
44	0xbdd8a821	-0.10578943
45	0x3d4decfe	0.05027484
46	0x3c9abd22	0.018889014
47	0x3bf1ccda	0.0073791565
48	0x3be045f8	0.0068442784
49	0xbe535007	-0.20635997
50	0xbe18949e	-0.14900443
51	0xbc1eccc4	-0.009692375
52	0x3dc3a350	0.09552634
53	0xba592d9c	-0.00082846894
54	0x3d856335	0.06513063
55	0x3e4142a3	0.18873076
56	0xbe2c73b9	-0.1684102
57	0x3df01e57	0.11724537
58	0x3dd7a7af	0.1053003
59	0x3d84a3d9	0.06476564
60	0x3d943e8d	0.07238493
61	0x3b9f424e	0.004860199
62	0x3e7679ca	0.24069896
63	0x3c9c6f47	0.01909603
64	0x3df14d0f	0.11782276
65	0x3d5a2147	0.053254392
66	0xbe241286	-0.16022691
67	0xbd96f7d3	-0.073714875
68	0x3c607b3c	0.013701256
69	0x3e51ebbe	0.20500085
70	0x3b0a4770	0.002109971
71	0x3e812c9d	0.2522935
72	0x3e4eb8d9	0.20187701
73	0xbe258953	-0.16165666
74	0xbe19df70	-0.15026641
75	0xbc8d6026	-0.017257761
76	0xbe1e3623	-0.15450339
77	0xbe192756	-0.14956412
78	0x3b4cab4b	0.0031230028
79	0x3e0dd8eb	0.13852279
80	0x3d2a2559	0.041539524
81	0xbdabed19	-0.08394832
82	0x3d0e6c6e	0.034771375
83	0xbdd21720	-0.10258317
84	0xbdf21e29	-0.11822159
85	0x3e346957	0.17618309
86	0xbe0ecf79	-0.13946332
87	0xbe4536a5	-0.19259126
88	0xbe01e0d2	-0.12683418
89	0xbe57e2f7	-0.21082674
90	0xbe143abd	-0.14475532
91	0x3c15ff63	0.009155127
92	0xbdb0eb92	-0.086386815
93	0x3c95da80	0.018292665
94	0xbe1303d7	-0.14356934
95	0x3d2251dc	0.03962885
96	0x3e093f07	0.1340295
97	0x3ca95ebe	0.02067506
98	0x3db79a53	0.08964982
99	0xbe0b92c0	-0.136302
100	0x3db61918	0.08891505
101	0xbd3d3b3d	-0.046199072
102	0xbde4075a	-0.11134215
103	0xbeca5863	-0.3952056
104	0x3e32fcbf	0.17479227
105	0x3e5f3ba0	0.21800089
106	0x3e74f79e	0.23922583
107	0xbc0aab78	-0.008463733
108	0x3e3d312a	0.18475786
109	0x3d4ee467	0.05051079
110	0xbe2a275a	-0.16616574
111	0xbd9c1715	-0.0762159
112	0xbded5589	-0.1158858
113	0xbcebab8e	-0.028768327
114	0xbd52506d	-0.05134623
115	0xbd559168	-0.052140623
116	0xbbded97d	-0.006800829
117	0xbe4f81e0	-0.20264387
118	0x3e49a5d2	0.19692162
119	0x3e1882aa	0.14893594
120	0xbe214b42	-0.15751365
121	0x3da1dda8	0.07903606
122	0xbe0c08fc	-0.13675302
123	0xbda0e983	-0.07857039
124	0x3dc96298	0.098332584
125	0xbdc8d51a	-0.09806271
126	0xbe3301fd	-0.17481227
127	0xbd5c6200	-0.053804398
128	0xbda7cb43	-0.08193066
129	0xbdd28e85	-0.1028109
130	0xbdbcb725	-0.092146195
131	0xbe12aa1a	-0.14322701
132	0xbd7cc160	-0.061707854
133	0x3d27239e	0.04080545
134	0x3d5c5044	0.053787485
135	0x3e1974f2	0.14986017
136	0x3d477095	0.04869135
137	0xbabdcbfd	-0.0014480349
138	0xbe28648f	-0.1644461
139	0xbd0b6659	-0.034033153
140	0xbe22400a	-0.15844741
141	0xbe168267	-0.14698182
142	0xbe0bf219	-0.13666572
143	0xbd801c74	-0.06255427
144	0x3d2d8f05	0.042372722
145	0x3e210ff8	0.15728748
146	0x3d1e1a0c	0.03859906
147	0xbe00a008	-0.12561047
148	0xbe312a81	-0.1730137
149	0x3d59dea0	0.053190827
150	0xbdebf471	-0.11521233
151	0x3db54326	0.08850698
152	0xbca122c8	-0.019669905
153	0xbdb468c9	-0.08809049
154	0xbddb853d	-0.107187726
155	0xbd457f67	-0.048217203
156	0x3e45a32e	0.1930053
157	0x3e1620e9	0.14660992
158	0xbe49c2c9	-0.19703211
159	0xbe00e95f	-0.12589024
160	0x3d614778	0.0549998
161	0x3d8c937b	0.06864067
162	0x3de79995	0.1130859
163	0x3cecbd3e	0.028898831
164	0xbe20d907	-0.1570779
165	0x3dc40af9	0.09572405
166	0xbe4831e7	-0.19550286
167	0x3d764cf0	0.060131967
168	0xbe31a82b	-0.17349307
169	0x3dbf6d51	0.09347022
170	0xbe168401	-0.14698793
171	0xbddacc5f	-0.10683512
172	0x3bcb522c	0.006204864
173	0xbddd2452	-0.10797943
174	0x3df72085	0.120667495
175	0x3e422dd4	0.18962795
176	0x3e4f4159	0.20239772
177	0xbdc86f75	-0.09786884
178	0xbd454cd8	-0.048168987
179	0xbe007452	-0.12544373
180	0x3d737012	0.05943305
181	0xbe04adf9	-0.1295699
182	0xbd0160e9	-0.03158656
183	0xbe3ee6c7	-0.18642722
184	0x3d3ca8ae	0.046059303
185	0xbdc6cd6a	-0.097071484
186	0xbc9226e9	-0.01784082
187	0xbe1e83bb	-0.15479939
188	0xbe0abf02	-0.13549426
189	0x3d771afb	0.060328465
190	0xbdf744a4	-0.12073639
191	0x3b033505	0.0020020616
192	0xbe275147	-0.16339599
193	0x3d82ee8b	0.06393155
194	0x3c5b03f3	0.013367641
195	0x3ca4a8c2	0.020100001
196	0x3d30641f	0.043064233
197	0xbd9edcef	-0.077569835
198	0xbe13c1f7	-0.1442946
199	0x3d83b8b3	0.06431713
200	0x3ca9e36e	0.02073833
201	0x3dd4e1a3	0.10394599
202	0xb97ff585	-0.00024410158
203	0x3d1c40d7	0.038147774
204	0x3daa4675	0.0831422
205	0xbdfcc791	-0.12342752
206	0xbd28c4f1	-0.041203443
207	0xbdd616f5	-0.104535975
208	0xbe4263de	-0.18983409
209	0x3d514624	0.051092282
210	0x3e4ffa8d	0.20310421
211	0xbda0780f	-0.07835399
212	0x3cc05ce8	0.023481801
213	0x3d704f82	0.058669575
214	0x3d398027	0.04528823
215	0xbe007742	-0.12545493
216	0x3e0b4c65	0.13603361
217	0x3d8befe2	0.068328634
218	0xbcc57b47	-0.024106635
219	0x3c8830fa	0.016624916
220	0xbe6f469c	-0.23366779
221	0x3cfee0db	0.031113079
222	0x3d7bbdef	0.06146043
223	0xbe686f8c	-0.22698802
224	0x3e49d54a	0.1971027
225	0x3d8f6fa6	0.07003717
226	0xbbef6899	-0.00730617
227	0xbe04491a	-0.12918511
228	0x3d871632	0.0659603
229	0xbe0cd2fb	-0.13752358
230	0xbe1a6819	-0.15078773
231	0xbde49cf6	-0.111627504
232	0xbd0c158f	-0.034200247
233	0x3e96b0a6	0.29431647
234	0x3e1765e8	0.14784968
235	0xbd2667f4	-0.04062648
236	0xbddbf770	-0.10740554
237	0xbec3257a	-0.3811453
238	0xbda9b264	-0.082859784
239	0x3e53f4eb	0.20698898
240	0xbd080314	-0.03320606
241	0x3e0d8b85	0.13822754
242	0xbeb478e9	-0.35248497
243	0xbd7c56b6	-0.06160613
244	0x3d847259	0.064671226
245	0x3e0e380c	0.13888568
246	0x3bbec393	0.005821654
247	0x3dc85ff6	0.09783928
248	0x3e13d4f2	0.14436701
249	0xbe9c43b8	-0.30520415
250	0x3e18e052	0.14929321
251	0x3e137bc8	0.14402688
252	0x3ec981ca	0.39356834
253	0xbd9e163c	-0.077190846
254	0x3e3c52a3	0.18390898
255	0x3e12574b	0.14291112

sequential_2/conv1d_5/Conv1D f4 [56, 1, 3, 56]
0	0xbc4fe1aa	-0.01268808
1	0x3ca89230	0.02057752
2	0x3dc557bb	0.09635874
3	0xbb69161e	-0.0035566161
4	0xbcf5c28f	-0.03
5	0xbdf7f847	-0.12107902
6	0x3d6a8bf4	0.057262376
7	0xbdd46854	-0.103714615
8	0xbd043001	-0.032272343
9	0xbe346672	-0.17617205
10	0xbd639dea	-0.05557052
11	0xbd9c8b57	-0.076437645
12	0xbcf8b4c8	-0.03035964
13	0x3d1618ab	0.03664462
14	0x3dbb685b	0.091507636
15	0x3d4b027d	0.04956292
16	0xbd82db0d	-0.06389437
17	0xbcf54aed	-0.029942954
18	0x3dc33f58	0.09533566
19	0x3e12c76b	0.14333884
20	0x3e591f39	0.21203317
21	0x3dee8d69	0.116480656
22	0x3ddd87f1	0.108169444
23	0x3ce5f2b7	0.028069837
24	0xbda3ef53	-0.08004632
25	0x3dd9d74a	0.10636766
26	0x3d286dba	0.04112027
27	0xbd03542d	-0.0320627
28	0xbdcc5cce	-0.099786386
29	0xbda46f98	-0.08029097
30	0x3da59105	0.08084301
31	0x3c53d28f	0.012928619
32	0xbd6290ba	-0.055313803
33	0xbc6d5fdc	-0.014488187
34	0xbdd4f16c	-0.1039761
35	0xbd95f49d	-0.07322047
36	0xbdafbe69	-0.0858124
37	0xbd62062f	-0.05518168
38	0xbe075f00	-0.13219833
39	0xbda46168	-0.08026391
40	0x3d765c36	0.060146533
41	0x3c55e695	0.013055463
42	0xbde7bec6	-0.11315684
43	0x3de939e3	0.11387994
44	0xbdd4311e	-0.10360931
45	0xbe098307	-0.13428889
46	0xbded3922	-0.11583163
47	0x3de39321	0.11112047
48	0x3d6a54a5	0.05720963
49	0x3c54ebb2	0.012995647
50	0xbcd0907c	-0.02545952
51	0x3da1edb4	0.079066664
52	0xbc929e82	-0.017897848
53	0x3d0320fe	0.032013886
54	0x3c74af17	0.014934323
55	0xbdbe2e48	-0.09286171
56	0xbd72d82c	-0.05928819
57	0xbdacf11c	-0.084444255
58	0x3c204c45	0.009783809
59	0xbdce555a	-0.10074873
60	0xbd838fdc	-0.064239234
61	0x3e0e857e	0.1391811
62	0x3cc283fa	0.023744572
63	0xbe161169	-0.14655079
64	0xbc4795fb	-0.012181754
65	0xbdf21b15	-0.11821572
66	0xbe5d46e5	-0.21609075
67	0xb9419bed	-0.00018464001
68	0x3daffbaa	0.08592923
69	0xbe16c869	-0.14724888
70	0xbd3cb850	-0.04607421
71	0xbcc8044c	-0.024416111
72	0x3b3f8cf1	0.0029228295
73	0xbd003882	-0.03130389
74	0xbd98e28b	-0.07465085
75	0x3daefb53	0.0854403
76	0xbde09480	-0.10965824
77	0xbd5b43a4	-0.053531304
78	0x3c27f164	0.010250423
79	0xbc46bb19	-0.0121295685
80	0x3da45ece	0.08025895
81	0x3d77b813	0.06047828
82	0x3debc201	0.11511613
83	0xbdb3d398	-0.08780593
84	0x3b8d864d	0.0043189884
85	0xbd4cb754	-0.049979523
86	0x3dbb9e20	0.09161019
87	0xbe15e2f4	-0.14637357
88	0x3ccc9ef1	0.024978133
89	0xbd5ae261	-0.053438548
90	0x3d0978f0	0.0335626
91	0x3da2b5e4	0.07944849
92	0x3e0824b0	0.13295245
93	0xbe10c44c	-0.14137381
94	0xbd394bc7	-0.045238283
95	0xbda4244e	-0.08014737
96	0xbd5c9065	-0.053848643
97	0xbdaadaf5	-0.08342544
98	0x3c3117bc	0.010808881
99	0x3acfc6cc	0.0015852093
100	0x3dfe5b56	0.12419765
101	0x3d77007c	0.060303196
102	0xbce5a1d7	-0.028031273
103	0x3d57cb69	0.05268422
104	0xbb6d297a	-0.0036188052
105	0x3c44af24	0.012004647
106	0xbe0fd1aa	-0.14044824
107	0x3d6b48e4	0.05744256
108	0x3c9449b7	0.018101556
109	0xbe10c9e9	-0.14139523
110	0xbd5b7576	-0.053578816
111	0xbcd1c85f	-0.02560824
112	0xbded55e6	-0.115886495
113	0x3d23bfbb	0.03997777
114	0xbdfa2d54	-0.12215677
115	0xbc3a57af	-0.011373444
116	0x3dec0cd2	0.11525883
117	0xbddfd8c0	-0.10930014
118	0xbcb2ff6b	-0.021850308
119	0x3e82707b	0.2547644
120	0xbda3297c	-0.07966897
121	0xbe0545a6	-0.1301485
122	0x3dd1980d	0.102340795
123	0x3dc40984	0.095721275
124	0x3d669362	0.0562929
125	0x3da5558e	0.08072959
126	0x3c986249	0.018601554
127	0xbd2cf5b4	-0.04222651
128	0xbe138b92	-0.1440871
129	0x3d9c109a	0.07620354
130	0x3d88ac77	0.0667352
131	0xbdc36079	-0.09539885
132	0x3e0c1683	0.13680463
133	0xbe083424	-0.1330114
134	0x3de70f43	0.11282208
135	0xbe23ea87	-0.16007434
136	0xbbbea224	-0.0058176685
137	0x3c0bcee5	0.008533214
138	0xbd7aab9a	-0.06119881
139	0xbe1563e9	-0.14588894
140	0xbdc07b2f	-0.093984954
141	0x3e3f83b8	0.1870259
142	0xbde249e6	-0.11049251
143	0xbe4b3ab6	-0.19846615
144	0xbd5e79ff	-0.054315563
145	0xbe037882	-0.12838939
146	0x3d69b28c	0.05705504
147	0xbd99f19a	-0.07516785
148	0xbd407b84	-0.046992794
149	0xbdb8c5c0	-0.09022093
150	0x3d266866	0.040626906
151	0xbdd91425	-0.105995454
152	0xbe2b619c	-0.16736454
153	0xbe072670	-0.13198256
154	0xbd896c0b	-0.06710061
155	0xbe1f25e9	-0.15541805
156	0xbcbf7ba7	-0.023374392
157	0xbd92c8a3	-0.07167175
158	0x3aa75143	0.0012765307
159	0xbd8479c5	-0.06468538
160	0xbd4fc9e0	-0.050729632
161	0xbe2496fa	-0.16073218
162	0x3db6f90f	0.08934223
163	0xbccb59bd	-0.024823064
164	0x3e19e4f1	0.1502874
165	0xbdbae026	-0.09124784
166	0x3d2df143	0.042466413
167	0x3d0ce06e	0.03439372
168	0xbddb1830	-0.10697973
169	0x3d581cd0	0.052761853
170	0x3ab69af0	0.0013931673
171	0x3ca1678c	0.019702695
172	0xbe012df0	-0.1261518
173	0x3cc97ae4	0.024594732
174	0x3d74a306	0.059725784
175	0xbd02aa46	-0.031900667
176	0xbd411176	-0.047135793
177	0xbe161e93	-0.146601
178	0xbe9eaf12	-0.30992943
179	0xbe23bc05	-0.15989693
180	0x3d3d34a4	0.04619278
181	0xbe03b98b	-0.12863748
182	0xbb8c8696	-0.004288505
183	0xbe774236	-0.24146351
184	0x3e0ce557	0.13759361
185	0xba7a1394	-0.00095396605
186	0x3d224d31	0.039624397
187	0xbd62eef9	-0.055403683
188	0x3d8c8ef4	0.06863204
189	0x3d91b754	0.07115045
190	0xbb18ae80	-0.002329737
191	0x3dc9dafc	0.09856221
192	0x3ce88f6f	0.028388707
193	0xbce040e4	-0.027374692
194	0xbdaf5641	-0.085613735
195	0x3cb9e230	0.022690862
196	0xbcbbcff9	-0.022926318
197	0x3d28c4a8	0.04120317
198	0xbd23667b	-0.039892655
199	0x3d93b6ab	0.072125755
200	0xbcb957d0	-0.02262488
201	0xbe922ccb	-0.285498
202	0x3dd0ab3b	0.101889096
203	0x3dec28ce	0.115312204
204	0xbc9eaf07	-0.019370569
205	0xbdc98077	-0.09838956
206	0xbc24dadc	-0.010061946
207	0xbec35a7d	-0.38154975
208	0xbe3cf1f6	-0.18451676
209	0xbe1a3335	-0.15058596
210	0xbe48cd99	-0.1960968
211	0x3c2d8973	0.0105918525
212	0xbcf69c1b	-0.030103734
213	0x3c297d4b	0.010344814
214	0x3e41dc75	0.18931754
215	0x3e39d022	0.18145803
216	0x3d83d9a1	0.06437994
217	0x3d48898c	0.0489593
218	0xbe6a8058	-0.22900522
219	0x3dc87f19	0.09789867
220	0xbd385bc7	-0.0450094
221	0xbd67f572	-0.05663056
222	0x3e424106	0.18970117
223	0xbb8b005c	-0.004241986
224	0xbd7a0955	-0.061044056
225	0xbc2fc179	-0.01072728
226	0xbd394cc1	-0.045239214
227	0xbda3a26d	-0.07989965
228	0xbd8f0fa2	-0.069854036
229	0xbd74e1cb	-0.059785645
230	0x3cbfafff	0.023399351
231	0xbd8dbc76	-0.06920712
232	0x3e38d926	0.18051586
233	0x3ce37caa	0.027769405
234	0x3d780e74	0.06056066
235	0xbd3140fc	-0.043274865
236	0x3e0d8af8	0.13822544
237	0x3dd5b31f	0.10434555
238	0x3d93493f	0.07191705
239	0x3de1e26d	0.110295154
240	0xbdb669b7	-0.08906882
241	0x3e5741b7	0.21021162
242	0x3e397c87	0.1811391
243	0x3d33bc27	0.043880608
244	0xbdeed09f	-0.11660885
245	0xbe1a5fb9	-0.15075578
246	0x3e1b9dcd	0.15196915
247	0xbda9f99f	-0.082995646
248	0x3db33776	0.08750813
249	0xbd9ce679	-0.07661147
250	0xbddb2f69	-0.10702402
251	0x3dc1e9f1	0.09468449
252	0x3d527763	0.051383387
253	0x3dd436a9	0.10361988
254	0x3e28da35	0.1648949
255	0x3dcf969c	0.10136148

sequential_2/dense_5/BiasAdd/ReadVariableOp f4 [4]
0	0xbca0e2bc	-0.019639365
1	0xbda392e3	-0.07987001
2	0x3d742eaa	0.059614815
3	0x3b4cf828	0.0031275842

sequential_2/dense_4/BiasAdd/ReadVariableOp f4 [784]
0	0xbd26744d	-0.040638257
1	0xbc6df8f8	-0.014524691
2	0xbd07cdfd	-0.03315543
3	0xbcfbd8f2	-0.030743096
4	0xba43bbd9	-0.0007466651
5	0xbba783d7	-0.005112152
6	0x3d0b1648	0.033956796
7	0xbd245b2e	-0.04012602
8	0xbd888618	-0.06666201
9	0xbd481e1f	-0.04885685
10	0xbcfd5864	-0.030925937
11	0xbdf6f7e9	-0.12059004
12	0xbc397f31	-0.011321829
13	0xbc14c310	-0.00907971
14	0xbc87d052	-0.016578827
15	0xbb66195f	-0.0035110337
16	0x3cb5075d	0.022098238
17	0xbcdfe460	-0.027330577
18	0xbc2ebaac	-0.010664623
19	0xbcbbf31c	-0.022943072
20	0xbc6fd7f6	-0.014638891
21	0xbcf004f8	-0.029299244
22	0x3cbf83d4	0.02337829
23	0xbd15f21e	-0.036607854
24	0xbcf1673b	-0.02946817
25	0x3d276cbf	0.040875193
26	0xbd393d73	-0.04522462
27	0xbc852947	-0.016255034
28	0xbda8b4c1	-0.08237601
29	0x3e4835ea	0.19551817
30	0xbb89ccf9	-0.004205343
31	0xbce610fe	-0.028084274
32	0xbcc42591	-0.023943694
33	0xbcfbb808	-0.030727401
34	0xbcf78705	-0.03021575
35	0xbcc12c6c	-0.023580752
36	0xbc7a988b	-0.015295158
37	0xbd49f064	-0.04930152
38	0xbc228f47	-0.009921855
39	0xbcb50507	-0.022097124
40	0xbd833f29	-0.06408531
41	0x3b61c877	0.0034451762
42	0xbd03056a	-0.031987585
43	0xbc85939f	-0.016305743
44	0xbce329e6	-0.02772994
45	0xbcd359fb	-0.025799742
46	0x3d02396d	0.031793047
47	0x3dd2bffc	0.10290524
48	0x3c5b2b84	0.013377074
49	0xbcc201f7	-0.023682578
50	0xbc38b8c2	-0.011274518
51	0xbd285b70	-0.041102827
52	0x3daa7c7a	0.08324523
53	0x3c4dabab	0.012553136
54	0xbd013aa5	-0.03155007
55	0xbcecc629	-0.028903084
56	0xbd051cc6	-0.032498144
57	0x3cbfb734	0.023402788
58	0xbd0bbed5	-0.03411754
59	0xbcae78d2	-0.021297846
60	0xbd23281d	-0.039833177
61	0xbd78d086	-0.06074574
62	0xbced23af	-0.02894768
63	0xbcae3f4d	-0.021270419
64	0x3d5e8e3c	0.054334864
65	0xbd1f47c5	-0.038886804
66	0xbd15a2b4	-0.03653212
67	0xbcb7e645	-0.022448668
68	0xbc2209f1	-0.0098900655
69	0xbd0930ec	-0.03349392
70	0xbcb5f70c	-0.022212528
71	0xbdc9efb0	-0.0986017
72	0xbd363371	-0.044482652
73	0xbc3306a5	-0.010926877
74	0xbcea03ff	-0.028566359
75	0xbd5efe3d	-0.05444168
76	0xbccf13f8	-0.025278077
77	0x3d0b473f	0.034003492
78	0xbdc3ae19	-0.09554691
79	0x3af520bf	0.0018701776
80	0xbdd2fd83	-0.1030226
81	0xbbde21b0	-0.006778918
82	0x39e8f4c2	0.00044432847
83	0xbd388da4	-0.045056954
84	0x3d82b2c7	0.06381755
85	0xbd2069cd	-0.0391634
86	0xbcdff4d0	-0.027338415
87	0x3db0407a	0.08606048
88	0xbce627d8	-0.02809517
89	0xbc7d5742	-0.015462698
90	0xbd10ace6	-0.03532114
91	0x3d93d103	0.072176
92	0xbc9842ef	-0.018586604
93	0xbceda3d2	-0.02900878
94	0xbc8ecba6	-0.017431092
95	0xbc2e4c0a	-0.010638246
96	0xbca4972c	-0.020091616
97	0xbdb9d403	-0.09073641
98	0x3cadcdec	0.021216355
99	0xbb49ed3c	-0.0030811569
100	0xbcbfc4b3	-0.023409223
101	0xbd1bee02	-0.03806878
102	0xbd02a6bf	-0.031897303
103	0xbc8b36fb	-0.01699399
104	0x3c9f383b	0.019435992
105	0xbc709d85	-0.014685993
106	0x3d158686	0.036505245
107	0xbcbd22d0	-0.023087889
108	0xbd147a04	-0.036249176
109	0xbcd072ae	-0.025445309
110	0xbcd4bea8	-0.025969818
111	0x39da244b	0.0004160724
112	0xbb820562	-0.003967927
113	0x3d294af8	0.04133126
114	0xbbbdf00f	-0.0057964395
115	0x3d8b6fdd	0.068084456
116	0xbd0a889d	-0.03382169
117	0x3d70da14	0.058801726
118	0x3c1824d5	0.009286125
119	0xbb2c7f69	-0.002632106
120	0xbd06461a	-0.032781698
121	0x3c2b9322	0.010472091
122	0x3d3b8a0f	0.04578596
123	0xbca7201e	-0.020401057
124	0xbcb2e91d	-0.021839673
125	0x3ce72c08	0.028219238
126	0x3d225797	0.039634313
127	0xbd3521b5	-0.0442216
128	0xbcacf21e	-0.021111544
129	0xbd8788e8	-0.0661791
130	0xbc831072	-0.015999053
131	0xbd020f69	-0.031752978
132	0xbcd9f041	-0.02660382
133	0xbdc51f1a	-0.09625073
134	0xbb0fb1aa	-0.0021925964
135	0xbcb364b4	-0.021898605
136	0xbc5d167e	-0.013494132
137	0x3d2b57dd	0.04183184
138	0xbda10b50	-0.07863486
139	0xbd4792e4	-0.04872407
140	0xbd1a4ee3	-0.03767289
141	0x3c2de7c1	0.0106143365
142	0x3c8f22e8	0.0174727
143	0xbd1748d6	-0.036934696
144	0xbd2d02c2	-0.04223896
145	0xbca31755	-0.019908587
146	0x3d09145d	0.033466686
147	0xbc9b1db1	-0.018935056
148	0xbdba2d4d	-0.09090672
149	0x3b5ff4d1	0.0034173022
150	0xbdea4e62	-0.114407316
151	0xbcb93752	-0.022609387
152	0xbc8f4de8	-0.017493203
153	0xbd1653f9	-0.036701176
154	0xbc58f284	-0.013241414
155	0xbce15ed2	-0.027511034
156	0xbc8dffee	-0.01733395
157	0x3cd7624f	0.026291994
158	0x3bb044a0	0.0053792745
159	0xbc5ae094	-0.013359208
160	0xbbf4760b	-0.007460361
161	0xbd3791f6	-0.044816934
162	0xbcd8a2d0	-0.026444823
163	0xbd1cfff9	-0.038330052
164	0xbcb1a5f6	-0.021685582
165	0x3db24297	0.08704107
166	0xbc20f06b	-0.009822945
167	0xbcef07aa	-0.02917846
168	0xbd74886c	-0.059700415
169	0x3b0e22c4	0.0021688202
170	0xbd47b373	-0.04875512
171	0xbd622830	-0.055214107
172	0xbd2c57ff	-0.042076107
173	0x3d1d125b	0.038347583
174	0xbd0dd60b	-0.034627955
175	0xbd2b74fc	-0.041859612
176	0xbd00d49b	-0.031452756
177	0x3c129ba1	0.008948238
178	0x3dc55249	0.09634835
179	0xbd4984d2	-0.049198933
180	0x3d044cb3	0.03229971
181	0xbd533d75	-0.051572282
182	0x3c2ef8c1	0.010679425
183	0xbcf47dc9	-0.029845135
184	0xbd30870a	-0.043097533
185	0x3b7bb8cf	0.0038409715
186	0x3beb92ae	0.0071891164
187	0xbbb5cbb3	-0.0055479645
188	0xbcf1db4e	-0.029523518
189	0x3d1888d9	0.037239883
190	0xbcbd3e15	-0.023100892
191	0xbc341aba	-0.0109927
192	0xbca5b061	-0.020225706
193	0xbd44258f	-0.04788738
194	0xbd0cb703	-0.03435422
195	0xbc8b211c	-0.016983561
196	0xbd364f6b	-0.044509333
197	0xbd2dbfb1	-0.04241914
198	0x3c8d3fd4	0.01724235
199	0xbc9e3045	-0.019310126
200	0xbde21d14	-0.110407025
201	0xbc4cdad8	-0.012503348
202	0xbd0af077	-0.03392073
203	0xbd7ac58a	-0.061223544
204	0xbc9416ba	-0.018077243
205	0xbd9cf38b	-0.0766364
206	0xbd193fc7	-0.03741434
207	0xbb5c857a	-0.0033648894
208	0xbd598fdb	-0.053115707
209	0xbb6c4bca	-0.0036055916
210	0xbdaf72a5	-0.085667886
211	0xbd88c462	-0.06678082
212	0xbc7aaa17	-0.015299342
213	0xbc9dd090	-0.01926449
214	0xbc83d6ad	-0.016093576
215	0xbca4c8f8	-0.02011536
216	0xbcf23d8c	-0.029570363
217	0x3cd216cf	0.025645642
218	0x3d06df24	0.032927647
219	0xbccab4cd	-0.024744416
220	0x3da01d97	0.07818144
221	0xbd031749	-0.03200463
222	0xbcaf932b	-0.02143248
223	0xbdd89b60	-0.105765104
224	0xbc90f402	-0.017694477
225	0x3db2bd35	0.087274946
226	0xbd5c83b3	-0.053836536
227	0xbc9de44c	-0.0192739
228	0xbc17be4d	-0.00926168
229	0xbda17d9e	-0.07885288
230	0xbce9b9b1	-0.028530927
231	0xbcb8f2dd	-0.022576744
232	0xbddc35dd	-0.10752461
233	0x3daa35a4	0.083110124
234	0xbcc72c5b	-0.024313143
235	0xbcea2eb9	-0.028586732
236	0xbc37fe02	-0.011229994
237	0xbbef1c50	-0.0072970763
238	0xbd1a8242	-0.03772188
239	0xbc477a35	-0.0121751325
240	0x3d26010b	0.04052834
241	0xbce4127e	-0.027840849
242	0xbd2111fc	-0.03932379
243	0xbc05ae08	-0.008159168
244	0xbcb15d07	-0.021650804
245	0x3d8cf6a9	0.06882984
246	0xbd0720e1	-0.03299034
247	0xbc0ef64c	-0.008725714
248	0xbd1437a0	-0.03618586
249	0xbcfaecc7	-0.030630482
250	0xbbb746c5	-0.005593153
251	0xbdda087c	-0.106461495
252	0xbd3a977a	-0.045554616
253	0xbd2609cc	-0.040536687
254	0xbca83759	-0.020534204
255	0x3d3ef67a	0.046621777

sequential_2/dense_4/MatMul f4 [784, 56]
0	0xbd9014c3	-0.0703521
1	0xbd8e45ae	-0.06946884
2	0x3dcefb31	0.10106505
3	0x3cdb4182	0.026764635
4	0x3d275cdf	0.040860053
5	0xbd24234b	-0.04007272
6	0xbd403895	-0.04692896
7	0xbd18cb3d	-0.037303198
8	0xbd33205a	-0.043732025
9	0x3ca65f16	0.020309012
10	0x3ce70633	0.028201198
11	0x3c4f4dfa	0.012652868
12	0xbd8ec4bb	-0.06971117
13	0xbd3476b0	-0.0440585
14	0x3cda0e03	0.02661801
15	0xbd2e9aae	-0.042627983
16	0xbd0187ba	-0.03162358
17	0x3d333751	0.043753926
18	0x3d414b5f	0.04719102
19	0xbdc10f32	-0.094267264
20	0xbda61908	-0.08110243
21	0xbd667d65	-0.05627193
22	0x3d248df8	0.040174454
23	0xbd87e81d	-0.06636069
24	0xbd9ae7b2	-0.075637236
25	0xbcf17530	-0.029474825
26	0x3d1cc79a	0.038276292
27	0xbd3b4741	-0.04572225
28	0x3ce73ec0	0.028228164
29	0x3d3103c0	0.043216467
30	0xbce69689	-0.028147953
31	0xbc0f8eba	-0.008762056
32	0x3ccf2381	0.025285484
33	0x3d823dcc	0.06359443
34	0x3c0a782d	0.008451504
35	0xbcd15630	-0.025553793
36	0xbdb8c09b	-0.090211116
37	0x3d53bef0	0.051695764
38	0xbd69e779	-0.057105515
39	0xbb09e0b8	-0.0021038484
40	0x3c30657e	0.010766385
41	0x3d0770b0	0.03306645
42	0x3c025f8f	0.007957353
43	0x3c9d8694	0.01922921
44	0x3d51b029	0.05119339
45	0x3d93c1ba	0.07214685
46	0xbd875734	-0.066084296
47	0xbda9f855	-0.08299319
48	0xbc334d11	-0.010943667
49	0x3d6bed7e	0.057599537
50	0x3cb212c1	0.021737458
51	0x3d4b7a4e	0.049677186
52	0xbc811120	-0.015755236
53	0x3d343c24	0.044002667
54	0xbd561ddb	-0.052274566
55	0x3cfc39e5	0.030789325
56	0x3da077ff	0.078353874
57	0xbc93839f	-0.018007098
58	0xbc4dfa07	-0.012571818
59	0x3d0dae2b	0.034589928
60	0x3d9012ac	0.070348114
61	0xbd14f1a1	-0.036363248
62	0x3ccbe671	0.024890156
63	0xbd53f3f4	-0.051746324
64	0xbd87dbfb	-0.06633755
65	0xbbd07e3a	-0.0063627036
66	0xbd2ed541	-0.042683844
67	0x3d2f8a72	0.04285664
68	0xbdb84df6	-0.08999245
69	0xbdc1db89	-0.09465701
70	0xbd7e18fd	-0.06203555
71	0xbcd13490	-0.025537759
72	0x3d1e4c65	0.038647074
73	0x3d801565	0.06254081
74	0x3d844265	0.06457976
75	0xbdad9e0d	-0.084774114
76	0x3d0a5bda	0.033779003
77	0xbd8cedbc	-0.06881282
78	0x3d7b44b3	0.061344814
79	0x3b970c87	0.0046096477
80	0xbcdd4428	-0.027010038
81	0xbc499829	-0.012304344
82	0xbd6e893d	-0.05823635
83	0x3cb7a797	0.02241878
84	0xbc42beb8	-0.011886291
85	0x3da12542	0.078684345
86	0x3d457322	0.048205502
87	0xbb650a24	-0.0034948671
88	0x3cb6f5c7	0.022333993
89	0x3d75ef17	0.060042467
90	0xbd10bac9	-0.035334382
91	0xbd8bc59c	-0.068248
92	0x3d6662d7	0.056246605
93	0x3d7ec8a0	0.06220305
94	0xbdaf0876	-0.08546536
95	0xbd99732d	-0.07492671
96	0xbd0a8f25	-0.03382792
97	0x3c4724c2	0.01215476
98	0x3d6d20d3	0.05789263
99	0xbd198298	-0.03747806
100	0xbdb742b0	-0.089482665
101	0xbd026f33	-0.03184433
102	0x3d15d4e6	0.03657999
103	0xbd263161	-0.040574435
104	0x3da5e56a	0.08100398
105	0xbd6ad19e	-0.057328813
106	0xbd194bb3	-0.037425708
107	0x3d0ed42b	0.034870308
108	0x3d242880	0.040077686
109	0x3cf050bb	0.02933537
110	0x3d452b66	0.04813709
111	0xbda9c316	-0.08289163
112	0x3c580421	0.013184578
113	0xbc205a4f	-0.009787156
114	0x3dc2597b	0.09489723
115	0xbd699d24	-0.057034627
116	0x3dec704a	0.11544855
117	0x3db18487	0.08667856
118	0xbdae99e9	-0.0852545
119	0xbce0140f	-0.027353315
120	0xbd89b13d	-0.06723259
121	0x3cc33f30	0.023833841
122	0xbb109aab	-0.0022064846
123	0xbca7dfb4	-0.020492412
124	0xbd9abd27	-0.07555609
125	0x3aaee4f7	0.0013343383
126	0x3ce646cb	0.028109929
127	0x3d10c723	0.03534616
128	0x39f16de3	0.00046048974
129	0x3d93a057	0.07208317
130	0x3d21d87e	0.039513104
131	0xbd298111	-0.041382853
132	0xbda0df38	-0.078550756
133	0xbc6fc97c	-0.01463544
134	0xbc415536	-0.011800101
135	0x3bd0d4e1	0.0063730334
136	0x3d5bffb0	0.05371064
137	0x3da0d0f1	0.078523524
138	0x3bcf53fd	0.006327151
139	0xbd3cd309	-0.046099696
140	0xbcc7ba1b	-0.024380734
141	0xbd607567	-0.054799464
142	0xbd220493	-0.039555144
143	0xbd11c431	-0.035587493
144	0x3da5e993	0.08101191
145	0xbd926b62	-0.07149388
146	0x3c58edab	0.013240258
147	0x3d8f6c74	0.07003108
148	0x3d9ac2ce	0.07556687
149	0x3df7199e	0.12065433
150	0x3c597f76	0.013275018
151	0x3c1ca315	0.009560366
152	0x3d670bd7	0.056407776
153	0x3dc18d03	0.09450724
154	0xbc806663	-0.015673822
155	0x3d04de8a	0.032438792
156	0x3d39e995	0.045388777
157	0x3d94ffa1	0.0727532
158	0xbd6ef110	-0.058335364
159	0x3dd178ad	0.10228095
160	0xbdb9bfe3	-0.090698026
161	0x3d4e7528	0.050404698
162	0x3d1b739d	0.037952054
163	0x3ce2132b	0.02759703
164	0x3d95475b	0.072890006
165	0x3d72bb79	0.05926082
166	0x3be3a7eb	0.0069475076
167	0x3c744ba1	0.014910609
168	0x3ba65172	0.005075627
169	0xbdd08688	-0.1018191
170	0x3c93e5b2	0.018053863
171	0x3cb7fdcb	0.022459885
172	0xbd309173	-0.04310746
173	0x3d7373d2	0.059436627
174	0x3d044868	0.032295614
175	0xbd0fd1e1	-0.035112265
176	0xbcf8fe0f	-0.030394582
177	0xbd9c0b9d	-0.076194026
178	0xbc3d02ae	-0.011536283
179	0xba0f6ef4	-0.00054715504
180	0x3ca99b3d	0.020703906
181	0x3d6fc705	0.05853941
182	0xbd2870a3	-0.041123044
183	0xbd62b193	-0.05534513
184	0xbde73a28	-0.11290389
185	0xbd3444f6	-0.04401108
186	0xbd9907f9	-0.07472224
187	0x3d97cd33	0.074121855
188	0xbcc697d9	-0.024242328
189	0xbd9dd719	-0.07707042
190	0xbcab4cf6	-0.020910721
191	0xbcd240a3	-0.025665587
192	0xbcb02213	-0.021500623
193	0xbae034fc	-0.0017105634
194	0x3b70b918	0.0036731418
195	0x3be146d6	0.0068748994
196	0xbdad84e6	-0.08472614
197	0xbd97a6b0	-0.0740484
198	0xbd528faa	-0.05140654
199	0x3d1bb154	0.03801091
200	0x3d3273a7	0.043567326
201	0x3d8109a6	0.063006684
202	0xbbbdf00c	-0.005796438
203	0xbb8c63bc	-0.00428435
204	0x3c79120e	0.0152020585
205	0x3bb13e4f	0.005409039
206	0x3c9c91ac	0.01911243
207	0x3be917ff	0.0071134563
208	0xbdaa2f60	-0.08309817
209	0x3d9b32d9	0.07578058
210	0x3dc501b7	0.09619468
211	0x3d900101	0.070314415
212	0xbd5caab8	-0.053873748
213	0xbca33e40	-0.019927144
214	0x3d5f1f4a	0.0544732
215	0xbc4b8800	-0.012422562
216	0xbaebb934	-0.0017984272
217	0xbd6cf9bc	-0.057855353
218	0x389e52d0	7.549452e-05
219	0x3d0b8d1a	0.03407011
220	0xbd2268b5	-0.039650638
221	0xba4f052c	-0.0007897194
222	0xbc4bbe6b	-0.012435536
223	0x3d32bb43	0.043635618
224	0x3d924547	0.0714212
225	0xbd947309	-0.07248504
226	0x3d1c7770	0.038199842
227	0x3d0a4815	0.03376015
228	0x3de23bb9	0.110465474
229	0xbc6fc208	-0.014633663
230	0xbd592ccf	-0.05302125
231	0xbb8a009f	-0.0042115
232	0x3d684938	0.05671045
233	0x3d9e8873	0.077408694
234	0x3d84f8f9	0.064928
235	0xbc1ea22c	-0.0096822195
236	0xbbbf5f23	-0.0058401986
237	0x3d917331	0.07102049
238	0x3cb9c4bf	0.022676824
239	0xbd8c3edf	-0.06847929
240	0xbbbae53f	-0.005703598
241	0x3d15f8ae	0.036614113
242	0xbcfffb6a	-0.031247813
243	0x3cf9bc0c	0.030485176
244	0xbcb10e78	-0.021613345
245	0x3cc5b895	0.024135867
246	0x3c6101bb	0.013733323
247	0x3c211ec0	0.0098339915
248	0x3b38f117	0.0028219873
249	0x3cb99296	0.022652905
250	0x3d000203	0.03125192
251	0xbd68bc38	-0.056820124
252	0x3d0550f2	0.0325479
253	0xbb728bc0	-0.0037009567
254	0xbc9ef6df	-0.019404827
255	0x3d55be99	0.05218372

sequential_2/dense_5/MatMul f4 [4, 784]
0	0xbd6a1846	-0.057152055
1	0x3cb22240	0.021744847
2	0xbc9b9011	-0.018989595
3	0xbd55df86	-0.05221512
4	0x3d26c9b6	0.04071971
5	0xbde6c594	-0.11268154
6	0x3e0e3ee9	0.13891186
7	0x3d57f785	0.052726287
8	0xbe6b3081	-0.22967722
9	0xbd29d5c0	-0.041463614
10	0xbcbf7af2	-0.023374055
11	0xb9a27c6b	-0.00030991746
12	0xbd8ae613	-0.067821644
13	0x3d8fe880	0.07026768
14	0x3d6c569a	0.057699777
15	0x3e0de0ba	0.13855258
16	0x3e27d50f	0.16389869
17	0xbd32c2f6	-0.04364296
18	0x3b3cc87d	0.0028806024
19	0xbd3c8313	-0.04602344
20	0x3e2424a9	0.1602961
21	0x3d58fbca	0.0529745
22	0x3d9045b6	0.07044546
23	0x3d011f08	0.031523734
24	0xbe18d924	-0.14926583
25	0x3e6cc6b5	0.23122676
26	0xbe06083c	-0.13089079
27	0xbc1c6cf7	-0.009547464
28	0x3cc8aa1a	0.024495173
29	0xbe89b466	-0.26895446
30	0x3da1d477	0.079018526
31	0x3cc13687	0.023585571
32	0xbd312483	-0.04324771
33	0xbd1b5c4f	-0.03792983
34	0x3d553ee5	0.052061934
35	0xbc9da2cd	-0.019242669
36	0x3b0c800f	0.0021438634
37	0x3d0c82b8	0.03430435
38	0x3be575b0	0.007002555
39	0xbd86c7be	-0.065810665
40	0xbca1e814	-0.019763984
41	0xbdd78354	-0.10523096
42	0x3d359dcd	0.044339944
43	0xbc5ca49c	-0.01346698
44	0xbd479352	-0.04872448
45	0xbb9b6880	-0.004742682
46	0xbe99c459	-0.30032614
47	0xbe600683	-0.21877484
48	0xbda66b5b	-0.08125945
49	0x3d1945b9	0.03742001
50	0xbcd8f8d6	-0.026485842
51	0xbde8649e	-0.11347316
52	0xbe4c6e03	-0.19963841
53	0xbe9652b0	-0.2935996
54	0x3e06276a	0.13100973
55	0xbba20672	-0.004944616
56	0xbd8af157	-0.06784313
57	0xbdd52a4f	-0.1040846
58	0xbca370d2	-0.019951258
59	0xbb33a71d	-0.002741284
60	0xbd4b427c	-0.04962395
61	0x3c854ed4	0.01627294
62	0x3d08f9a4	0.0334412
63	0xbd5452ec	-0.051836893
64	0xbe8cf12c	-0.2752775
65	0xbd977148	-0.073946536
66	0xbc46baef	-0.012129529
67	0x3dcb2b05	0.09920315
68	0x3db92451	0.0904013
69	0xbd85d206	-0.065341994
70	0xbb2b737c	-0.0026161363
71	0xbe063108	-0.13104641
72	0x3cc78ab4	0.024358131
73	0x3e1c0f86	0.15240297
74	0xbe55feae	-0.20897934
75	0xbdd03736	-0.10166781
76	0xbc4034a9	-0.011731305
77	0x3e3c5f50	0.18395734
78	0xbd498ca8	-0.049206406
79	0x3daea736	0.08527987
80	0xbc3fc574	-0.011704791
81	0xbbefc6c6	-0.007317397
82	0x3d46bebe	0.04852175
83	0x3cd78873	0.026310181
84	0x3d3ca4df	0.04605567
85	0xbd2108d0	-0.039315045
86	0x3cc4ce96	0.02402429
87	0xbefc2596	-0.49247426
88	0xbca82308	-0.020524517
89	0xbcb923ad	-0.02260002
90	0xbdc3e6f5	-0.09565536
91	0x3e0b2e79	0.13591947
92	0x3d0a9a77	0.033838715
93	0xbe83ddff	-0.25755307
94	0xbaecc232	-0.0018063246
95	0xbc17e9b8	-0.0092720315
96	0xbdae05c8	-0.084971964
97	0x3bb9c70f	0.0056694816
98	0x3d6920f8	0.056916207
99	0x3d9fc297	0.07800787
100	0x3d4848dd	0.048897613
101	0x3d91527a	0.07095809
102	0xbd44d536	-0.048054896
103	0x3d82988e	0.06376754
104	0xbbcf68cc	-0.0063296314
105	0xbd92dd80	-0.07171154
106	0x3dac5c33	0.08416023
107	0x3d7558e1	0.059899215
108	0xbda7f2c5	-0.082006015
109	0x3d96da87	0.073658995
110	0xbd300341	-0.042971853
111	0xbe0be959	-0.13663234
112	0xbcfdc1b3	-0.030976152
113	0x3df989ea	0.12184508
114	0xbdc914f8	-0.098184526
115	0x3db4ba04	0.08824542
116	0xbd7c3db8	-0.061582297
117	0x3da95978	0.08269018
118	0xbe886328	-0.2663815
119	0x3b856edb	0.004072053
120	0x3d271631	0.040792648
121	0xba54104d	-0.0008089587
122	0x3d953589	0.07285602
123	0x3daca266	0.084294125
124	0xbd4b9800	-0.049705505
125	0x3d2d86e2	0.042364962
126	0x3d5394b4	0.051655486
127	0x3cbd2b72	0.023092005
128	0xbd5fd175	-0.054643113
129	0xbdc8040e	-0.09766398
130	0xbd814261	-0.06311489
131	0x3c98cee4	0.01865334
132	0x3da19575	0.07889835
133	0xbe54d22d	-0.207833
134	0x3dc80986	0.097674415
135	0xbe5075a7	-0.20357381
136	0x3bd2b54a	0.0064303027
137	0xbe9fcfb3	-0.3121315
138	0xbdef5b4d	-0.11687336
139	0x3d8539cf	0.06505167
140	0xbdb892b6	-0.09012358
141	0x3d2e28dd	0.04251944
142	0x3d057f82	0.032592304
143	0x3cbb46db	0.022860935
144	0xbd1ba51b	-0.037999254
145	0x3d58b758	0.052909225
146	0xbeb700bd	-0.3574275
147	0xbd1edf97	-0.03878745
148	0x3d04f829	0.032463226
149	0xbe4c5da7	-0.199576
150	0xbd85938d	-0.06522284
151	0xbd17009b	-0.03686581
152	0x3da6e876	0.08149807
153	0xbd5da553	-0.054112744
154	0x3d3fe856	0.046852432
155	0xbd16baf1	-0.036799375
156	0xbd345e1f	-0.044035073
157	0x3dfdc41d	0.12390921
158	0x3d90d48d	0.07071791
159	0xbe181de3	-0.14855151
160	0x3c82a18a	0.015946168
161	0xbc73e381	-0.014885784
162	0xbd93bf61	-0.07214237
163	0xbd078337	-0.03308412
164	0x3d8579da	0.06517382
165	0xbe59a56e	-0.21254513
166	0x3d8db05e	0.06918405
167	0x3d71c2e1	0.05902374
168	0x3cb91db1	0.022597166
169	0xbebe1b76	-0.37130326
170	0x3d67d964	0.056603804
171	0x3d8e4fce	0.06948815
172	0x3d8c8d88	0.068629324
173	0xbe334bfc	-0.17509454
174	0x3cd7069d	0.02624827
175	0xbdcdc612	-0.100475445
176	0xbd84e18c	-0.06488332
177	0x3ca5a159	0.020218538
178	0xbc7040a4	-0.014663849
179	0xbc185136	-0.009296706
180	0xbe03abc5	-0.12858494
181	0x3e684cf9	0.22685613
182	0x3e2fda83	0.171732
183	0xbd4c22e3	-0.049837958
184	0xbd52912e	-0.051407985
185	0xbd04ee8c	-0.03245406
186	0x3b759edb	0.0037478718
187	0x3c039f30	0.008033559
188	0x3d2ab6e1	0.041678313
189	0xbec2ed47	-0.38071653
190	0xbb7f9289	-0.0038997254
191	0x3cb84728	0.022494867
192	0x3d80ed29	0.06295235
193	0xbc2a5539	-0.010396295
194	0xbe078c46	-0.13237104
195	0xbddf180f	-0.10893261
196	0xbd59e716	-0.053198896
197	0xbc8c8319	-0.017152356
198	0xbe4cbb4d	-0.19993325
199	0xbd9e589a	-0.07731743
200	0xbddc3108	-0.107515395
201	0xbe0947c7	-0.13406287
202	0xbd45afaf	-0.048263248
203	0xbe4dd327	-0.2010008
204	0xbdce3d8e	-0.100703344
205	0xbd9430a9	-0.07235844
206	0xbd236a05	-0.03989603
207	0xbe475e29	-0.19469513
208	0xbd4602cf	-0.048342522
209	0x3ccd2c03	0.0250454
210	0xbdb563c1	-0.08856917
211	0x3d25f2fb	0.040514927
212	0xbdbb7404	-0.091529876
213	0x3db0f9f1	0.086414225
214	0xbdbb8192	-0.09155573
215	0xbd134bfa	-0.03596113
216	0x3cc14cda	0.023596216
217	0x3d5669d4	0.05234702
218	0xbda5c25c	-0.08093712
219	0xbddc045f	-0.10743021
220	0xbdb9dbe5	-0.09075145
221	0x3d759e58	0.05996546
222	0x3d179e49	0.037016187
223	0xbdc9f253	-0.09860673
224	0x3c14150c	0.009038221
225	0xbe919203	-0.2843171
226	0x3c270b5e	0.010195581
227	0x3c820113	0.015869653
228	0xbdab33b9	-0.08359475
229	0xbcd45cf9	-0.025923239
230	0x3d1e42c9	0.03863791
231	0xbde21032	-0.11038245
232	0x3e0faa2c	0.14029759
233	0xbec75eb5	-0.38939443
234	0x3c37d972	0.011221277
235	0xbdc67efe	-0.096921906
236	0x3d860903	0.065446876
237	0xbcf00e4e	-0.029303696
238	0xbd6ba999	-0.057534788
239	0x3d809023	0.06277492
240	0xbe886320	-0.26638126
241	0x3c20f5ac	0.009824198
242	0xbd0d499c	-0.034494027
243	0xbd8dc2f2	-0.069219485
244	0x3d77d812	0.060508795
245	0xbd5bcfc5	-0.05366494
246	0xbbfba6c3	-0.0076797917
247	0xbdba9dee	-0.09112154
248	0xbd3e3e9a	-0.04644642
249	0xbd8a0d2a	-0.06740792
250	0xbcc4a4ca	-0.024004359
251	0x3ce752a8	0.028237656
252	0x3d6a2e0d	0.057172824
253	0x3d207810	0.039177
254	0xbd77b189	-0.060472045
255	0x3e1db820	0.1540227
