notebooks/outputs/yaskawa/model/model_quantized.tflite (tflite, 68792 bytes, 8 tensors)

sequential_2/dense_4/BiasAdd/ReadVariableOp f4 [784]
-0.040638257 -0.014524691 -0.03315543 -0.030743096 -0.0007466651 -0.005112152 0.033956796 -0.04012602
-0.06666201 -0.04885685 -0.030925937 -0.12059004 -0.011321829 -0.00907971 -0.016578827 -0.0035110337
0.022098238 -0.027330577 -0.010664623 -0.022943072 -0.014638891 -0.029299244 0.02337829 -0.036607854
-0.02946817 0.040875193 -0.04522462 -0.016255034 -0.08237601 0.19551817 -0.004205343 -0.028084274
-0.023943694 -0.030727401 -0.03021575 -0.023580752 -0.015295158 -0.04930152 -0.009921855 -0.022097124
-0.06408531 0.0034451762 -0.031987585 -0.016305743 -0.02772994 -0.025799742 0.031793047 0.10290524
0.013377074 -0.023682578 -0.011274518 -0.041102827 0.08324523 0.012553136 -0.03155007 -0.028903084
-0.032498144 0.023402788 -0.03411754 -0.021297846 -0.039833177 -0.06074574 -0.02894768 -0.021270419
0.054334864 -0.038886804 -0.03653212 -0.022448668 -0.0098900655 -0.03349392 -0.022212528 -0.0986017
-0.044482652 -0.010926877 -0.028566359 -0.05444168 -0.025278077 0.034003492 -0.09554691 0.0018701776
-0.1030226 -0.006778918 0.00044432847 -0.045056954 0.06381755 -0.0391634 -0.027338415 0.08606048
-0.02809517 -0.015462698 -0.03532114 0.072176 -0.018586604 -0.02900878 -0.017431092 -0.010638246
-0.020091616 -0.09073641 0.021216355 -0.0030811569 -0.023409223 -0.03806878 -0.031897303 -0.01699399
0.019435992 -0.014685993 0.036505245 -0.023087889 -0.036249176 -0.025445309 -0.025969818 0.0004160724
-0.003967927 0.04133126 -0.0057964395 0.068084456 -0.03382169 0.058801726 0.009286125 -0.002632106
-0.032781698 0.010472091 0.04578596 -0.020401057 -0.021839673 0.028219238 0.039634313 -0.0442216
-0.021111544 -0.0661791 -0.015999053 -0.031752978 -0.02660382 -0.09625073 -0.0021925964 -0.021898605
-0.013494132 0.04183184 -0.07863486 -0.04872407 -0.03767289 0.0106143365 0.0174727 -0.036934696
-0.04223896 -0.019908587 0.033466686 -0.018935056 -0.09090672 0.0034173022 -0.114407316 -0.022609387
-0.017493203 -0.036701176 -0.013241414 -0.027511034 -0.01733395 0.026291994 0.0053792745 -0.013359208
-0.007460361 -0.044816934 -0.026444823 -0.038330052 -0.021685582 0.08704107 -0.009822945 -0.02917846
-0.059700415 0.0021688202 -0.04875512 -0.055214107 -0.042076107 0.038347583 -0.034627955 -0.041859612
-0.031452756 0.008948238 0.09634835 -0.049198933 0.03229971 -0.051572282 0.010679425 -0.029845135
-0.043097533 0.0038409715 0.0071891164 -0.0055479645 -0.029523518 0.037239883 -0.023100892 -0.0109927
-0.020225706 -0.04788738 -0.03435422 -0.016983561 -0.044509333 -0.04241914 0.01724235 -0.019310126
-0.110407025 -0.012503348 -0.03392073 -0.061223544 -0.018077243 -0.0766364 -0.03741434 -0.0033648894
-0.053115707 -0.0036055916 -0.085667886 -0.06678082 -0.015299342 -0.01926449 -0.016093576 -0.02011536
-0.029570363 0.025645642 0.032927647 -0.024744416 0.07818144 -0.03200463 -0.02143248 -0.105765104
-0.017694477 0.087274946 -0.053836536 -0.0192739 -0.00926168 -0.07885288 -0.028530927 -0.022576744
-0.10752461 0.083110124 -0.024313143 -0.028586732 -0.011229994 -0.0072970763 -0.03772188 -0.0121751325
0.04052834 -0.027840849 -0.03932379 -0.008159168 -0.021650804 0.06882984 -0.03299034 -0.008725714
-0.03618586 -0.030630482 -0.005593153 -0.106461495 -0.045554616 -0.040536687 -0.020534204 0.046621777
00000000: 4d74 26bd f8f8 6dbc fdcd 07bd f2d8 fbbc
00000010: d9bb 43ba d783 a7bb 4816 0b3d 2e5b 24bd
00000020: 1886 88bd 1f1e 48bd 6458 fdbc e9f7 f6bd
00000030: 317f 39bc 10c3 14bc 52d0 87bc 5f19 66bb
00000040: 5d07 b53c 60e4 dfbc acba 2ebc 1cf3 bbbc
00000050: f6d7 6fbc f804 f0bc d483 bf3c 1ef2 15bd
00000060: 3b67 f1bc bf6c 273d 733d 39bd 4729 85bc
00000070: c1b4 a8bd ea35 483e f9cc 89bb fe10 e6bc
00000080: 9125 c4bc 08b8 fbbc 0587 f7bc 6c2c c1bc
00000090: 8b98 7abc 64f0 49bd 478f 22bc 0705 b5bc
000000a0: 293f 83bd 77c8 613b 6a05 03bd 9f93 85bc
000000b0: e629 e3bc fb59 d3bc 6d39 023d fcbf d23d
000000c0: 842b 5b3c f701 c2bc c2b8 38bc 705b 28bd
000000d0: 7a7c aa3d abab 4d3c a53a 01bd 29c6 ecbc
000000e0: c61c 05bd 34b7 bf3c d5be 0bbd d278 aebc
000000f0: 1d28 23bd 86d0 78bd af23 edbc 4d3f aebc
00000100: 3c8e 5e3d c547 1fbd b4a2 15bd 45e6 b7bc
00000110: f109 22bc ec30 09bd 0cf7 b5bc b0ef c9bd
00000120: 7133 36bd a506 33bc ff03 eabc 3dfe 5ebd
00000130: f813 cfbc 3f47 0b3d 19ae c3bd bf20 f53a
00000140: 83fd d2bd b021 debb c2f4 e839 a48d 38bd
00000150: c7b2 823d cd69 20bd d0f4 dfbc 7a40 b03d
00000160: d827 e6bc 4257 7dbc e6ac 10bd 03d1 933d
00000170: ef42 98bc d2a3 edbc a6cb 8ebc 0a4c 2ebc
00000180: 2c97 a4bc 03d4 b9bd eccd ad3c 3ced 49bb
00000190: b3c4 bfbc 02ee 1bbd bfa6 02bd fb36 8bbc
000001a0: 3b38 9f3c 859d 70bc 8686 153d d022 bdbc
000001b0: 047a 14bd ae72 d0bc a8be d4bc 4b24 da39
000001c0: 6205 82bb f84a 293d 0ff0 bdbb dd6f 8b3d
000001d0: 9d88 0abd 14da 703d d524 183c 697f 2cbb
000001e0: 1a46 06bd 2293 2b3c 0f8a 3b3d 1e20 a7bc
000001f0: 1de9 b2bc 082c e73c 9757 223d b521 35bd
00000200: 1ef2 acbc e888 87bd 7210 83bc 690f 02bd
00000210: 41f0 d9bc 1a1f c5bd aab1 0fbb b464 b3bc
00000220: 7e16 5dbc dd57 2b3d 500b a1bd e492 47bd
00000230: e34e 1abd c1e7 2d3c e822 8f3c d648 17bd
00000240: c202 2dbd 5517 a3bc 5d14 093d b11d 9bbc
00000250: 4d2d babd d1f4 5f3b 624e eabd 5237 b9bc
00000260: e84d 8fbc f953 16bd 84f2 58bc d25e e1bc
00000270: eeff 8dbc 4f62 d73c a044 b03b 94e0 5abc
00000280: 0b76 f4bb f691 37bd d0a2 d8bc f9ff 1cbd
00000290: f6a5 b1bc 9742 b23d 6bf0 20bc aa07 efbc
000002a0: 6c88 74bd c422 0e3b 73b3 47bd 3028 62bd
000002b0: ff57 2cbd 5b12 1d3d 0bd6 0dbd fc74 2bbd
000002c0: 9bd4 00bd a19b 123c 4952 c53d d284 49bd
000002d0: b34c 043d 753d 53bd c1f8 2e3c c97d f4bc
000002e0: 0a87 30bd cfb8 7b3b ae92 eb3b b3cb b5bb
000002f0: 4edb f1bc d988 183d 153e bdbc ba1a 34bc
00000300: 61b0 a5bc 8f25 44bd 03b7 0cbd 1c21 8bbc
00000310: 6b4f 36bd b1bf 2dbd d43f 8d3c 4530 9ebc
00000320: 141d e2bd d8da 4cbc 77f0 0abd 8ac5 7abd
00000330: ba16 94bc 8bf3 9cbd c73f 19bd 7a85 5cbb
00000340: db8f 59bd ca4b 6cbb a572 afbd 62c4 88bd
00000350: 17aa 7abc 90d0 9dbc add6 83bc f8c8 a4bc
00000360: 8c3d f2bc cf16 d23c 24df 063d cdb4 cabc
00000370: 971d a03d 4917 03bd 2b93 afbc 609b d8bd
00000380: 02f4 90bc 35bd b23d b383 5cbd 4ce4 9dbc
00000390: 4dbe 17bc 9e7d a1bd b1b9 e9bc ddf2 b8bc
000003a0: dd35 dcbd a435 aa3d 5b2c c7bc b92e eabc
000003b0: 02fe 37bc 501c efbb 4282 1abd 357a 47bc
000003c0: 0b01 263d 7e12 e4bc fc11 21bd 08ae 05bc
000003d0: 075d b1bc a9f6 8c3d e120 07bd 4cf6 0ebc
000003e0: a037 14bd c7ec fabc c546 b7bb 7c08 dabd
000003f0: 7a97 3abd cc09 26bd 5937 a8bc 7af6 3e3d

sequential_2/dense_5/BiasAdd/ReadVariableOp f4 [4]
-0.019639365 -0.07987001 0.059614815 0.0031275842
00000000: bce2 a0bc e392 a3bd aa2e 743d 28f8 4c3b

sequential_2/conv1d_4/BiasAdd/ReadVariableOp f4 [56]
-0.03467398 -0.027336232 -0.07599789 -0.023973621 -0.005293053 0.0062733497 -0.027827378 0.028818795
-0.095339954 0.0053143892 0.048402168 -0.0033611525 0.037406813 -0.042099 -0.014720931 -0.06805511
-0.030185176 -0.007593108 -0.013180444 -0.08622557 0.103830904 -0.04002543 -0.046371542 0.0049319738
0.025107542 -0.0038111259 -0.06325616 -0.011774389 -0.025753295 -0.018521005 -0.06555782 0.025738174
-0.014612059 -0.0471722 0.0062055113 0.0026032487 0.017739601 -0.0019483324 -0.06770718 0.0053190505
-0.09355292 -0.12273248 -0.060732305 -0.038915906 -0.025636662 -0.020381115 0.00250642 -0.028264033
0.0033915471 0.025570009 -0.076021895 -0.008156175 0.011634195 -0.045614645 -0.019134114 -0.029320339
00000000: 4e06 0ebd 3cf0 dfbc c8a4 9bbd 5464 c4bc
00000010: 5971 adbb ac90 cd3b 3ef6 e3bc 6515 ec3c
00000020: 9841 c3bd 5424 ae3b 5a41 463d c846 5cbb
00000030: e337 193d 0070 2cbd 0f30 71bc 7a60 8bbd
00000040: e746 f7bc 9bcf f8bb caf2 57bc 0897 b0bd
00000050: 4ca5 d43d b5f1 23bd 16f0 3dbd 659c a13b
00000060: 55ae cd3c 15c4 79bb 728c 81bd 5ee9 40bc
00000070: 93f8 d2bc 5db9 97bc 2e43 86bd ddd8 d23c
00000080: 6b67 6fbc a337 41bd 9a57 cb3b 449b 2a3b
00000090: a452 913c 305f ffba 10aa 8abd 6e4b ae3b
000000a0: ac98 bfbd 2b5b fbbd 70c2 78bd 4966 1fbd
000000b0: fa03 d2bc 4cf6 a6bc c042 243b f989 e7bc
000000c0: b844 5e3b 3278 d13c 5eb1 9bbd 7aa1 05bc
000000d0: 5a9d 3e3c 6cd6 3abd 25bf 9cbc 3531 f0bc

sequential_2/conv1d_5/BiasAdd/ReadVariableOp f4 [56]
-0.008779302 0.0037997165 -0.0602687 -0.025241733 0.005108411 -0.059060115 -0.034380876 -0.027845252
-0.026822098 -0.056961026 -0.022430144 -0.038598984 0.05472162 -0.013501818 0.008003867 0.014669413
-0.00026446185 -0.01910908 -0.0051851347 -0.031860407 -0.034336124 -0.012491202 -0.016544342 -0.02983502
-0.02371573 -0.00844647 -0.019342305 -0.013561074 -0.02675704 -0.019414043 -0.038480744 0.0634926
-0.0029025376 -0.031163348 0.008438445 -0.021294188 -0.027787097 0.039481808 -0.038379706 -0.013972593
0.011332771 -0.068406455 -0.025886457 -0.015179091 -0.002281182 -0.016887764 -0.024277603 -0.022070868
-0.013895939 -0.025934262 -0.035486594 -0.011171331 0.04266445 -0.03590384 -0.00059030054 -0.0069292486
00000000: 10d7 0fbc aa04 793b 50dc 76bd c0c7 cebc
00000010: 7564 a73b 05e9 71bd f6d2 0cbd ba1b e4bc
00000020: 04ba dbbc f74f 69bd 6cbf b7bc f819 1ebd
00000030: c723 603d bb36 5dbc a722 033c fa57 703c
00000040: 78a7 8ab9 a58a 9cbc 10e8 a9bb 0f80 02bd
00000050: 09a4 0cbd e6a7 4cbc 0088 87bc 9268 f4bc
00000060: 7e47 c2bc 1063 0abc c173 9ebc 442f 5ebc
00000070: 9431 dbbc 330a 9fbc fc9d 1dbd 6908 823d
00000080: 8038 3ebb 474a ffbc 6741 0a3c 2671 aebc
00000090: c4a1 e3bc adb7 213d 0a34 1dbd 4ded 64bc
000000a0: 16ad 393c af18 8cbd d60f d4bc b9b1 78bc
000000b0: e27f 15bb 3558 8abc d3e1 c6bc f7cd b4bc
000000c0: cbab 63bc 1774 d4bc 645a 11bd f507 37bc
000000d0: ebc0 2e3d e80f 13bd 66be 1aba c00e e3bb

sequential_2/conv1d_4/Conv1D i1 [56, 1, 3, 10]
-57 -21 87 -15 20 -90 -56 54
-59 -4 -58 24 44 27 16 25
26 -39 91 -40 -68 49 72 -45
127 77 56 -55 92 56 -127 -34
-75 48 67 -24 94 28 -16 -20
-11 32 37 27 -51 24 9 4
3 -100 -72 -5 46 0 32 92
-82 57 51 31 36 2 121 10
59 27 -81 -37 7 103 1 127
102 -81 -76 -9 -78 -75 2 70
21 -42 18 -52 -60 89 -70 -97
-64 -106 -47 3 -28 6 -46 13
43 7 29 -44 29 -15 -36 -127
56 70 77 -3 59 16 -53 -24
-37 -9 -17 -17 -2 -65 63 48
-114 57 -99 -57 71 -71 -127 -39
-60 -75 -67 -104 -45 30 39 109
35 -1 -119 -25 -115 -107 -99 -45
31 114 28 -91 -126 39 -72 56
-12 -55 -67 -30 121 92 -124 -79
35 43 71 18 -99 60 -123 38
-109 59 -92 -67 4 -68 76 119
127 -61 -30 -79 40 -87 -21 -125
31 -65 -12 -104 -91 40 -81 1
-109 43 9 13 29 -52 -97 43
14 70 0 26 56 -83 -28 -70
-127 34 68 -26 8 20 15 -42
45 23 -8 6 -78 10 20 -76
66 23 -2 -43 22 -46 -50 -37
-11 98 49 -14 -36 -127 -28 69
-11 45 -114 -20 21 45 2 32
47 -98 48 46 127 -25 59 46
00000000: c7eb 57f1 14a6 c836 c5fc c618 2c1b 1019
00000010: 1ad9 5bd8 bc31 48d3 7f4d 38c9 5c38 81de
00000020: b530 43e8 5e1c f0ec f520 251b cd18 0904
00000030: 039c b8fb 2e00 205c ae39 331f 2402 790a
00000040: 3b1b afdb 0767 017f 66af b4f7 b2b5 0246
00000050: 15d6 12cc c459 ba9f c096 d103 e406 d20d
00000060: 2b07 1dd4 1df1 dc81 3846 4dfd 3b10 cbe8
00000070: dbf7 efef febf 3f30 8e39 9dc7 47b9 81d9
00000080: c4b5 bd98 d31e 276d 23ff 89e7 8d95 9dd3
00000090: 1f72 1ca5 8227 b838 f4c9 bde2 795c 84b1
000000a0: 232b 4712 9d3c 8526 933b a4bd 04bc 4c77
000000b0: 7fc3 e2b1 28a9 eb83 1fbf f498 a528 af01
000000c0: 932b 090d 1dcc 9f2b 0e46 001a 38ad e4ba
000000d0: 8122 44e6 0814 0fd6 2d17 f806 b20a 14b4
000000e0: 4217 fed5 16d2 cedb f562 31f2 dc81 e445
000000f0: f52d 8eec 152d 0220 2f9e 302e 7fe7 3b2e

sequential_2/conv1d_5/Conv1D i1 [56, 1, 3, 56]
-6 10 48 -2 -15 -60 29 -52
-16 -88 -28 -38 -15 18 46 25
-32 -15 48 71 106 58 54 14
-40 53 20 -16 -50 -40 40 6
-28 -7 -52 -37 -43 -28 -66 -40
30 7 -56 57 -52 -67 -58 55
29 6 -13 39 -9 16 7 -46
-30 -42 5 -50 -32 69 12 -73
-6 -59 -108 0 43 -73 -23 -12
1 -16 -37 43 -55 -27 5 -6
40 30 57 -44 2 -25 46 -73
12 -27 17 40 66 -70 -23 -40
-27 -42 5 1 62 30 -14 26
-2 6 -70 29 9 -70 -27 -13
-58 20 -61 -6 57 -54 -11 127
-40 -65 51 48 28 40 9 -21
-72 38 33 -48 68 -66 56 -80
-3 4 -31 -73 -47 93 -55 -99
-27 -64 28 -37 -23 -45 20 -53
-83 -66 -33 -77 -12 -36 1 -32
-25 -80 45 -12 75 -45 21 17
-36 18 0 7 -42 8 20 -11
-16 -49 -103 -53 15 -43 -1 -80
46 0 13 -18 23 24 -1 33
9 -9 -28 8 -8 14 -13 24
-8 -95 34 38 -6 -33 -3 -127
-61 -50 -65 4 -10 3 63 60
21 16 -76 33 -15 -19 63 -1
-20 -4 -15 -27 -23 -20 8 -23
60 9 20 -14 46 35 24 37
-30 70 60 15 -39 -50 51 -28
29 -26 -36 32 17 34 55 34
00000000: fa0a 30fe f1c4 1dcc f0a8 e4da f112 2e19
00000010: e0f1 3047 6a3a 360e d835 14f0 ced8 2806
00000020: e4f9 ccdb d5e4 bed8 1e07 c839 ccbd c637
00000030: 1d06 f327 f710 07d2 e2d6 05ce e045 0cb7
00000040: fac5 9400 2bb7 e9f4 01f0 db2b c9e5 05fa
00000050: 281e 39d4 02e7 2eb7 0ce5 1128 42ba e9d8
00000060: e5d6 0501 3e1e f21a fe06 ba1d 09ba e5f3
00000070: c614 c3fa 39ca f57f d8bf 3330 1c28 09eb
00000080: b826 21d0 44be 38b0 fd04 e1b7 d15d c99d
00000090: e5c0 1cdb e9d3 14cb adbe dfb3 f4dc 01e0
000000a0: e7b0 2df4 4bd3 1511 dc12 0007 d608 14f5
000000b0: f0cf 99cb 0fd5 ffb0 2e00 0dee 1718 ff21
000000c0: 09f7 e408 f80e f318 f8a1 2226 fadf fd81
000000d0: c3ce bf04 f603 3f3c 1510 b421 f1ed 3fff
000000e0: ecfc f1e5 e9ec 08e9 3c09 14f2 2e23 1825
000000f0: e246 3c0f d9ce 33e4 1de6 dc20 1122 3722

sequential_2/dense_4/MatMul i1 [784, 56] scale=0.0046067717 zero_point=0
-0.06910158 -0.06910158 0.10134898 0.02764063 0.041460946 -0.041460946 -0.04606772 -0.036854174
-0.041460946 0.018427087 0.02764063 0.013820315 -0.06910158 -0.04606772 0.02764063 -0.041460946
-0.0322474 0.041460946 0.04606772 -0.09213544 -0.08292189 -0.05528126 0.041460946 -0.0644948
-0.07370835 -0.02764063 0.036854174 -0.04606772 0.02764063 0.041460946 -0.02764063 -0.0092135435
0.02303386 0.0644948 0.0092135435 -0.02764063 -0.09213544 0.05067449 -0.05528126 0.0
0.0092135435 0.0322474 0.0092135435 0.018427087 0.05067449 0.07370835 -0.0644948 -0.08292189
-0.0092135435 0.05988803 0.02303386 0.05067449 -0.013820315 0.04606772 -0.05067449 0.0322474
0.07831512 -0.018427087 -0.013820315 0.036854174 0.06910158 -0.036854174 0.02303386 -0.05067449
-0.0644948 -0.0046067717 -0.041460946 0.041460946 -0.09213544 -0.096742205 -0.05988803 -0.02764063
0.036854174 0.0644948 0.0644948 -0.08292189 0.0322474 -0.06910158 0.05988803 0.0046067717
-0.02764063 -0.013820315 -0.05988803 0.02303386 -0.013820315 0.07831512 0.04606772 -0.0046067717
0.02303386 0.05988803 -0.036854174 -0.06910158 0.05528126 0.0644948 -0.08752866 -0.07370835
-0.0322474 0.013820315 0.05988803 -0.036854174 -0.08752866 -0.0322474 0.036854174 -0.041460946
0.08292189 -0.05528126 -0.036854174 0.036854174 0.041460946 0.02764063 0.04606772 -0.08292189
0.013820315 -0.0092135435 0.096742205 -0.05528126 0.115169294 0.08752866 -0.08752866 -0.02764063
-0.06910158 0.02303386 0.0 -0.018427087 -0.07370835 0.0 0.02764063 0.036854174
0.0 0.07370835 0.041460946 -0.041460946 -0.07831512 -0.013820315 -0.013820315 0.0046067717
0.05528126 0.07831512 0.0046067717 -0.04606772 -0.02303386 -0.05528126 -0.041460946 -0.036854174
0.08292189 -0.07370835 0.013820315 0.06910158 0.07370835 0.11977606 0.013820315 0.0092135435
0.05528126 0.096742205 -0.013820315 0.0322474 0.04606772 0.07370835 -0.05988803 0.10134898
-0.09213544 0.05067449 0.036854174 0.02764063 0.07370835 0.05988803 0.0092135435 0.013820315
0.0046067717 -0.10134898 0.018427087 0.02303386 -0.041460946 0.05988803 0.0322474 -0.036854174
-0.0322474 -0.07831512 -0.013820315 0.0 0.018427087 0.05988803 -0.041460946 -0.05528126
-0.115169294 -0.04606772 -0.07370835 0.07370835 -0.02303386 -0.07831512 -0.02303386 -0.02764063
-0.02303386 0.0 0.0046067717 0.0046067717 -0.08292189 -0.07370835 -0.05067449 0.036854174
0.041460946 0.0644948 -0.0046067717 -0.0046067717 0.013820315 0.0046067717 0.018427087 0.0092135435
-0.08292189 0.07370835 0.096742205 0.06910158 -0.05528126 -0.018427087 0.05528126 -0.013820315
0.0 -0.05988803 0.0 0.0322474 -0.041460946 0.0 -0.013820315 0.041460946
0.07370835 -0.07370835 0.036854174 0.0322474 0.11056252 -0.013820315 -0.05528126 -0.0046067717
0.05528126 0.07831512 0.0644948 -0.0092135435 -0.0046067717 0.06910158 0.02303386 -0.06910158
-0.0046067717 0.036854174 -0.0322474 0.0322474 -0.02303386 0.02303386 0.013820315 0.0092135435
0.0046067717 0.02303386 0.0322474 -0.05528126 0.0322474 -0.0046067717 -0.018427087 0.05067449
00000000: f1f1 1606 09f7 f6f8 f704 0603 f1f6 06f7
00000010: f909 0aec eef4 09f2 f0fa 08f6 0609 fafe
00000020: 050e 02fa ec0b f400 0207 0204 0b10 f2ee
00000030: fe0d 050b fd0a f507 11fc fd08 0ff8 05f5
00000040: f2ff f709 eceb f3fa 080e 0eee 07f1 0d01
00000050: fafd f305 fd11 0aff 050d f8f1 0c0e edf0
00000060: f903 0df8 edf9 08f7 12f4 f808 0906 0aee
00000070: 03fe 15f4 1913 edfa f105 00fc f000 0608
00000080: 0010 09f7 effd fd01 0c11 01f6 fbf4 f7f8
00000090: 12f0 030f 101a 0302 0c15 fd07 0a10 f316
000000a0: ec0b 0806 100d 0203 01ea 0405 f70d 07f8
000000b0: f9ef fd00 040d f7f4 e7f6 f010 fbef fbfa
000000c0: fb00 0101 eef0 f508 090e ffff 0301 0402
000000d0: ee10 150f f4fc 0cfd 00f3 0007 f700 fd09
000000e0: 10f0 0807 18fd f4ff 0c11 0efe ff0f 05f1
000000f0: ff08 f907 fb05 0302 0105 07f4 07ff fc0b

sequential_2/dense_5/MatMul i1 [4, 784] scale=0.0045807688 zero_point=0
-0.054969225 0.022903845 -0.018323075 -0.050388455 0.04122692 -0.114519216 0.13742307 0.054969225
-0.22903843 -0.04122692 -0.022903845 0.0 -0.068711534 0.068711534 0.059549995 0.13742307
0.16490768 -0.04580769 0.0045807688 -0.04580769 0.16032691 0.054969225 0.068711534 0.03206538
-0.15116537 0.22903843 -0.13284229 -0.0091615375 0.022903845 -0.27026537 0.077873066 0.022903845
-0.04122692 -0.03664615 0.050388455 -0.018323075 0.0 0.03206538 0.0091615375 -0.06413076
-0.018323075 -0.105357684 0.04580769 -0.013742306 -0.050388455 -0.0045807688 -0.30233073 -0.2198769
-0.08245384 0.03664615 -0.027484613 -0.114519216 -0.20155382 -0.2931692 0.13284229 -0.0045807688
-0.068711534 -0.105357684 -0.018323075 -0.0045807688 -0.050388455 0.018323075 0.03206538 -0.050388455
-0.27484614 -0.0732923 -0.013742306 0.10077691 0.09161538 -0.06413076 -0.0045807688 -0.13284229
0.022903845 0.15116537 -0.21071537 -0.10077691 -0.013742306 0.18323076 -0.050388455 0.087034605
-0.013742306 -0.0091615375 0.050388455 0.027484613 0.04580769 -0.04122692 0.022903845 -0.49472302
-0.018323075 -0.022903845 -0.096196145 0.13742307 0.03206538 -0.25652304 0.0 -0.0091615375
-0.087034605 0.0045807688 0.054969225 0.077873066 0.050388455 0.068711534 -0.04580769 0.06413076
-0.0045807688 -0.0732923 0.08245384 0.059549995 -0.08245384 0.0732923 -0.04122692 -0.13742307
-0.03206538 0.123680755 -0.096196145 0.087034605 -0.059549995 0.08245384 -0.26568457 0.0045807688
0.04122692 0.0 0.0732923 0.08245384 -0.050388455 0.04122692 0.050388455 0.022903845
-0.054969225 -0.096196145 -0.06413076 0.018323075 0.077873066 -0.20613459 0.096196145 -0.20155382
0.0045807688 -0.31149226 -0.11909999 0.06413076 -0.09161538 0.04122692 0.03206538 0.022903845
-0.03664615 0.054969225 -0.35729995 -0.03664615 0.03206538 -0.20155382 -0.06413076 -0.03664615
0.08245384 -0.054969225 0.04580769 -0.03664615 -0.04580769 0.123680755 0.068711534 -0.1465846
0.013742306 -0.013742306 -0.0732923 -0.03206538 0.06413076 -0.21071537 0.068711534 0.059549995
0.022903845 -0.37104228 0.054969225 0.068711534 0.068711534 -0.17406921 0.027484613 -0.10077691
-0.06413076 0.018323075 -0.013742306 -0.0091615375 -0.12826152 0.22903843 0.16948844 -0.050388455
-0.050388455 -0.03206538 0.0045807688 0.0091615375 0.04122692 -0.3802038 -0.0045807688 0.022903845
0.06413076 -0.0091615375 -0.13284229 -0.10993845 -0.054969225 -0.018323075 -0.20155382 -0.077873066
-0.105357684 -0.13284229 -0.050388455 -0.20155382 -0.10077691 -0.0732923 -0.04122692 -0.19697306
-0.050388455 0.022903845 -0.087034605 0.04122692 -0.09161538 0.087034605 -0.09161538 -0.03664615
0.022903845 0.050388455 -0.08245384 -0.105357684 -0.09161538 0.059549995 0.03664615 -0.10077691
0.0091615375 -0.28400767 0.0091615375 0.013742306 -0.08245384 -0.027484613 0.03664615 -0.10993845
0.14200383 -0.38936535 0.0091615375 -0.096196145 0.06413076 -0.027484613 -0.059549995 0.06413076
-0.26568457 0.0091615375 -0.03664615 -0.068711534 0.059549995 -0.054969225 -0.0091615375 -0.09161538
-0.04580769 -0.068711534 -0.022903845 0.027484613 0.054969225 0.04122692 -0.059549995 0.15574613
00000000: f405 fcf5 09e7 1e0c cef7 fb00 f10f 0d1e
00000010: 24f6 01f6 230c 0f07 df32 e3fe 05c5 1105
00000020: f7f8 0bfc 0007 02f2 fce9 0afd f5ff bed0
00000030: ee08 fae7 d4c0 1dff f1e9 fcff f504 07f5
00000040: c4f0 fd16 14f2 ffe3 0521 d2ea fd28 f513
00000050: fdfe 0b06 0af7 0594 fcfb eb1e 07c8 00fe
00000060: ed01 0c11 0b0f f60e fff0 120d ee10 f7e2
00000070: f91b eb13 f312 c601 0900 1012 f509 0b05
00000080: f4eb f204 11d3 15d4 01bc e60e ec09 0705
00000090: f80c b2f8 07d4 f2f8 12f4 0af8 f61b 0fe0
000000a0: 03fd f0f9 0ed2 0f0d 05af 0c0f 0fda 06ea
000000b0: f204 fdfe e432 25f5 f5f9 0102 09ad ff05
000000c0: 0efe e3e8 f4fc d4ef e9e3 f5d4 eaf0 f7d5
000000d0: f505 ed09 ec13 ecf8 050b eee9 ec0d 08ea
000000e0: 02c2 0203 eefa 08e8 1fab 02eb 0efa f30e
000000f0: c602 f8f1 0df4 feec f6f1 fb06 0c09 f322
