notebooks/outputs/tf_model/model.tflite (tflite, 237412 bytes, 5 tensors)

sequential/conv1d_1/conv1d f4 [56, 1, 3, 56]
00000000: 14de b53d fe89 da3d 9219 963d f637 ec3d
00000010: a8ba acbd ec8c 03be 2dc7 afbd 6081 08bd
00000020: 369d 8f3d 2def 053e 9064 a6bd 70dd 053c
00000030: 3cf0 04be 4ac3 66bd b897 2b3d c024 afbc
00000040: 48c6 0c3d c08d e0bb 7488 c13d 40c1 863b
00000050: 3ffb 003e 4b06 053e 4268 e23d 9e85 4dbd
00000060: fa7b a33d a0a2 59bc 7454 c7bd 0cbe 433d
00000070: 6047 743c caec 3abd 040e af3d 92cb f43d
00000080: 9835 33bd c808 473d dc0d f4bd 12b6 69bd
00000090: 1e33 49bd d29a ae3d 70bb bcbd 6c38 5dbd
000000a0: 541e 9d3d d09b 2d3d e83e e33d 36b4 f33d
000000b0: a016 c63c f8d9 7b3d 7edc bcbd 309d c83d
000000c0: 167b a7bd 92c1 b23d 454e 013e 1e6a 08be
000000d0: 9852 e2bd c502 91bd a216 a93d ccdf 53bd
000000e0: 3240 c73d b68b 86bd b640 47bd 8064 d2ba
000000f0: 34ae 433d c8a9 81bc c475 5d3d 20ce 33bc
00000100: 322e 09bd b665 823d 783b 193d f2a4 e8bd
00000110: fa42 cbbd 7c15 c3bd 6cd4 00be e4c9 95bd
00000120: 2901 f2bd a520 b1bd 9ca8 a3bd 0043 e0ba
00000130: 3d25 05be 1bdb fcbd da3c cd3d 7cf5 ebbd
00000140: 2034 e53c 5cb2 23bd 6f2f 08be 5a54 cd3d
00000150: e259 aabd 349f a4bd 00cd 4dba 7a04 6bbd
00000160: d10d 033e d299 05be c0b1 cfbb 1398 d3bd
00000170: 0f4e f6bd dc60 4c3d 484c 34bd bae4 d3bd
00000180: 2ea6 cb3d a0e6 773c fd44 eabd 0051 c43a
00000190: 2c5a c23d 444f 73bd 757d 02be 5ed9 8cbd
000001a0: c027 633c 1b0a 003e 30e6 d6bc 22af cabd
000001b0: 56ad 06be 949e 2c3d cc74 47bd 8625 03bd
000001c0: 82b5 c73d a2b0 ed3d 3c49 993d 052e 053e
000001d0: 6ee2 c93d 60e0 5dbc 64ed e2bd 1005 4dbd
000001e0: 7a13 8b3d 23e7 06be 5c55 bb3d 8faf 003e
000001f0: 2c61 c83d 1261 bc3d e08e 20bd 1436 20bd
00000200: b46f 4f3d 04b1 373d c439 ab3d 3acb ce3d
00000210: ec65 af3d c8fa 733d 6474 2ebd 5425 e2bc
00000220: f819 b63c 001b 5bba b4b4 2e3d 94db 143d
00000230: 805a 973a 28ae 933d 028e d53d ea21 93bd
00000240: a4b7 e33d 0a8a cd3d dc96 bebd d877 ac3d
00000250: e0d0 dd3d 2335 93bd 2e43 0abd 0456 edbd
00000260: ddc6 033e 208c 283d 4840 943d 0870 3dbc
00000270: 545f efbd e87a 5dbd 342f 2ebd 7c93 723d
00000280: 0c5c 8f3d 00d8 413b be07 89bd 7247 df3d
00000290: c72f 073e 3763 adbd 4195 c3bd 4c43 eebd
000002a0: 94f6 843d d8b5 55bc d148 003e 3847 22bd
000002b0: 1b89 bbbd c031 6d3d e4d0 72bd 5265 74bd
000002c0: 2f92 00be f937 9dbd e8c7 cb3d 3061 c13c
000002d0: 02ef a7bd 6f26 9dbd 7201 3ebd 2c72 2abd
000002e0: 00ba fc39 e8da 703d 5cf6 11bd f481 693d
000002f0: 3916 cfbd 001c 1b39 9fb0 85bd d06c 3d3c
00000300: 8092 e03c de44 1cbd 94d5 8dbc a6ee f6bd
00000310: f014 d43d 92a0 803d 3674 9e3d 9042 fb3c
00000320: 78cc c63d 00c4 53b9 40d3 6fbd 6279 6fbd
00000330: aca6 183d bd03 023e 8496 653d 0029 16bc
00000340: c085 98bb 84eb 21bd fb24 053e 9cc8 863d
00000350: cf7b 043e 9aae 4cbd 4008 e4bb c298 b13d
00000360: 709b a03d dfa8 9cbd 10f7 93bc 00ce 8e3d
00000370: e008 8c3b 1a69 c63d 74fe aabd bcc7 b83d
00000380: aa10 aebd 201e e23d b854 813c 45ac 99bd
00000390: 7618 f2bd dc58 723d 00c5 c53a 7c5c d6bc
000003a0: 00ad bb3d 62f7 bb3d 0668 7ebd 30f3 fc3c
000003b0: ebaa d4bd da37 50bd cc6d eebc eaac e23d
000003c0: d016 2e3d 3035 fb3c fc6a cbbc d07b f1bd
000003d0: 0814 87bd 9614 79bd a00d 693d 3ea4 32bd
000003e0: 09d6 e1bd e06e eb3c 00eb a83a 7487 703d
000003f0: 4e9a ffbd ba17 0fbd 60eb c5bb f0d5 ae3d
0.08880249 0.10670851 0.07329096 0.11534111 -0.08434039 -0.12846726 -0.08582912 -0.033326507
0.070124075 0.1307952 -0.081246495 0.008170471 -0.12982267 -0.056338586 0.041892737 -0.021379828
0.034368783 -0.0068528354 0.094498545 0.0041123927 0.12595843 0.12990682 0.11055042 -0.050176255
0.07982631 -0.013283402 -0.09732905 0.047788665 0.014909595 -0.045635976 0.08547595 0.119528905
-0.043752283 0.04859236 -0.11916706 -0.0570584 -0.049121015 0.085256234 -0.09215438 -0.054008886
0.076718 0.042384923 0.11095983 0.11899607 0.02418071 0.061487168 -0.09221743 0.09795606
-0.08177774 0.08728327 0.12627514 -0.1332173 -0.1105091 -0.07080606 0.0825627 -0.0517271
0.09729041 -0.065696165 -0.048645698 -0.001605168 0.047773555 -0.015828028 0.05406739 -0.010974437
-0.03349132 0.06367056 0.03741023 -0.11359586 -0.09924884 -0.09525582 -0.12581033 -0.07313898
-0.118166275 -0.086488046 -0.07991144 -0.0017109811 -0.13002487 -0.123464786 0.10021372 -0.11521432
0.027978957 -0.03996502 -0.13299344 0.100258544 -0.08317925 -0.08038178 -0.0007850677 -0.057377316
0.1279824 -0.13046959 -0.006338328 -0.1033174 -0.12026607 0.04989706 -0.04401806 -0.103463605
0.09943806 0.015130669 -0.1143894 0.0014977753 0.09489855 -0.059401765 -0.1274317 -0.06877397
0.013864458 0.12503855 -0.026232809 -0.09896685 -0.1315206 0.04214342 -0.04869537 -0.032018207
0.09751417 0.11605956 0.074846715 0.13005836 0.09857641 -0.013542265 -0.11080435 -0.050053656
0.06790824 -0.13174109 0.091471404 0.1256697 0.09784159 0.09198202 -0.039198756 -0.039114073
0.050643638 0.04484655 0.08360627 0.10097356 0.08564362 0.059565336 -0.042591467 -0.02760569
0.02222918 -0.00083582103 0.0426528 0.03634222 0.0011547357 0.07210952 0.104274765 -0.07184203
0.11119011 0.100360945 -0.09306118 0.08421296 0.10830855 -0.071878694 -0.033755474 -0.11588672
0.12868829 0.04114926 0.07238823 -0.011562355 -0.11688104 -0.05407229 -0.042525485 0.059222683
0.069999784 0.002957821 -0.0669093 0.10902299 0.1320182 -0.08466189 -0.09549952 -0.116339296
0.064923435 -0.013043843 0.12527777 -0.0396187 -0.0915701 0.057908773 -0.059281245 -0.05966694
-0.12555765 -0.076766916 0.099502385 0.023605913 -0.08199884 -0.07673346 -0.046388097 -0.04161279
0.00048203766 0.058802515 -0.035635337 0.0570087 -0.101116605 0.00014792383 -0.065278284 0.011561587
0.027413607 -0.038151614 -0.017313756 -0.12057237 0.10355556 0.06280626 0.07737009 0.030671388
0.09706968 -0.00020195544 -0.058551073 -0.05846537 0.037268326 0.12696739 0.056051746 -0.009165049
-0.004654616 -0.039531246 0.13002388 0.06581232 0.12937854 -0.0499712 -0.0069589913 0.08671714
0.07842147 -0.07649397 -0.018062145 0.06972885 0.004273519 0.09688015 -0.08349314 0.09022471
-0.08499272 0.11040902 0.015787467 -0.07503561 -0.11821072 0.059166774 0.0015088618 -0.026167147
0.091638565 0.09178044 -0.062110923 0.03087768 -0.103841625 -0.050834514 -0.02910509 0.11068137
0.042502224 0.03066501 -0.024831288 -0.117911935 -0.065956175 -0.060810648 0.05689776 -0.043613665
-0.11027152 0.028739393 0.0012887418 0.05872293 -0.12480603 -0.034934737 -0.006040022 0.08536899

sequential/conv1d/conv1d f4 [56, 1, 3, 10]
00000000: ec26 a83d a8d0 723d 3230 4dbd 541c 533d
00000010: 8043 6d3c 2ebd 933d 80ff c0ba 1034 593c
00000020: 589c 89bc a0b8 df3b 8011 37bd ae4a 1b3e
00000030: e306 22be 675c efbd 6c89 c53d fcdb 27bd
00000040: edb4 0dbe 8c4e 273d 8c07 2cbe 4233 b5bd
00000050: 980b 983d 8aa8 813d 700a e73d d015 5b3d
00000060: 95d5 1abe d0f9 c6bc 00aa 583c 784e ba3d
00000070: c083 0f3d 4053 80bc c07e 6bbd 3c4f 2bbe
00000080: 7446 17bd a061 3b3d 6735 06be bc37 ae3d
00000090: d4cd 933d c613 0dbe 10df 85bd 820c b6bd
000000a0: 9166 2ebe e00a 86bc f0cc 03be f09b 7f3c
000000b0: 04fc ffbd 1aee 043e fa5c d4bd 6239 933d
000000c0: 1454 1b3e 20a3 4abc b118 98bd 32db 313e
000000d0: 3403 563d 8852 8b3d e68c 203e d447 643d
000000e0: d047 163e c0b4 5fbc 026c 89bd c002 ee3d
000000f0: 808b acbc 90c7 153d 5aa1 143e c034 e73d
00000100: d014 cb3d 007b 3a3b 6045 2b3d bc77 9d3d
00000110: ac8d 2bbe 39a9 b0bd da44 8e3d 313e 2dbe
00000120: b254 f4bd a866 1d3e 701f 1f3d 54a7 03be
00000130: 16c0 18be 8043 d23c 0415 f33d c4ae e1bd
00000140: c0b5 36bd 20ed e6bb 0047 403b 32ed 23be
00000150: f0b7 2f3e a650 043e 78bf c4bc 34f6 d2bd
00000160: 202b 0f3e c635 babd a4f9 bdbd aa81 b0bd
00000170: 13f8 90bd 1f32 acbd 3aa2 03be 90e6 9dbc
00000180: 380e 09bd 20d6 b83c 20ad b9bd f538 f7bd
00000190: d85c f83d 0713 a5bd 58d7 423d 098b 1fbe
000001a0: 0469 30bd 2053 c53d 461d 2b3e 9cb9 32bd
000001b0: 0ae5 133e be7f 2dbe 4447 2b3e 575b d3bd
000001c0: 50e3 f13d f61e 303e 74ad b93d 262f 62bd
000001d0: 7049 873c 49fc f4bd 1bcf afbd 9218 d7bd
000001e0: e640 adbd d026 7d3d f077 ecbc 3760 98bd
000001f0: 9c98 e0bd 3849 d9bc 1eeb 56bd 20d9 bf3c
00000200: 08f5 ef3c e9a2 a0bd 4660 173e e0cf 3b3c
00000210: 9ce2 143d 85a0 28be e8fe 2d3d 041c 433d
00000220: 041d aa3d aa3a 093e f03d e23d 8692 eabd
00000230: 801e 9cbb e88f 0bbe 3a19 28be 681a fd3d
00000240: 20e6 c43d 444d 23bd 3b83 04be de0f 013e
00000250: 689a 863c 0050 67bd dc4f 293e 58f4 41bd
00000260: 10d4 1bbe e071 61bc 57f6 0fbe 00d2 bebb
00000270: ccfe 7d3d 3cff e33d 40cd 34bd d9e2 d6bd
00000280: 381a 693d 2c99 11be 5021 7b3d 511d 8ebd
00000290: 272c 2ebe 2854 45bd 80d6 e83d be71 093e
000002a0: 1edd 273e 3465 d03d 90c1 da3d 344e d43d
000002b0: 9cc9 613d 36cc 073e 14e9 d33d f8db e63c
000002c0: 2533 08be 2ffa 97bd 5076 583c b22b 303e
000002d0: 74fb 63bd 80f9 a53d d619 1c3e 3a91 1e3e
000002e0: b170 8bbd a79d 85bd 4ff8 28be 98fb 83bc
000002f0: 3850 2fbd 4832 0c3d 408e 6f3b 2e7b 833d
00000300: 56cd 0b3e 34f2 01bd 903a 55bc 1809 e03c
00000310: cc13 16be 806e dc3d 91d2 c6bd 0277 27be
00000320: 809d 9f3c 7dbc 19be b4fb 9b3d 403f 7bbc
00000330: 4f98 89bd 7659 963d c0f9 4bbb dba8 85bd
00000340: f671 053e 1e58 78bd fc61 133d fe7b 6ebd
00000350: a463 ddbd f8d5 bcbc 20f4 31bd f603 5cbd
00000360: 3c3a c93d d875 f1bc b713 13be 6075 553d
00000370: 74d9 803d 02e4 c2bd e9bc 91bd 145a 29bd
00000380: 1b28 cfbd d8fa ac3c 93eb c1bd 063b efbd
00000390: 9cc1 093e e0f8 653c 2727 96bd c23e 953d
000003a0: 1a21 06be 20df 6c3d 2f53 dcbd b9bb 10be
000003b0: 0c8e b03d d80b 2f3e 80f5 ab3b 4095 56bd
000003c0: b48f c7bd a833 f7bc dca6 fd3d b0f0 c53c
000003d0: efc2 bbbd fa80 11be 4ead 143e 90d5 cd3d
000003e0: 9c0d 153d 54de 243e bca0 e43d 008e a1ba
000003f0: d20e 74bd 6a38 0cbe 8f68 9bbd 3ffa cabd
0.08210549 0.05928102 -0.05009479 0.051540688 0.014481425 0.072138175 -0.0014724582 0.013257042
-0.016798183 0.006827429 -0.044694424 0.15165207 -0.1582294 -0.11687546 0.09645352 -0.040981278
-0.13838549 0.040846393 -0.16799754 -0.08847667 0.07424086 0.063309744 0.11281288 0.0534876
-0.15120538 -0.024289042 0.013224125 0.09096998 0.035037756 -0.015664697 -0.057493925 -0.16729444
-0.036932424 0.0457474 -0.13106309 0.08506724 0.07216993 -0.13777074 -0.065366864 -0.088891044
-0.17031313 -0.016362607 -0.12871146 0.015601143 -0.1249924 0.12981454 -0.10369296 0.07188679
0.15168792 -0.012367994 -0.074265845 0.17368773 0.05224915 0.06802851 0.15678748 0.055732563
0.14675832 -0.013653934 -0.06710054 0.11621618 -0.021062613 0.03656727 0.14514676 0.11289358
0.09916079 0.0028454661 0.041814208 0.07688853 -0.16753262 -0.08626027 0.06946726 -0.16918255
-0.11930217 0.15371192 0.03884834 -0.128568 -0.14917025 0.025666952 0.11869243 -0.11019662
-0.044606924 -0.0070473105 0.0029339194 -0.16008452 0.1716001 0.1292139 -0.02401708 -0.10300866
0.13981295 -0.09092288 -0.09276131 -0.086184815 -0.070785664 -0.08407997 -0.12854853 -0.01927498
-0.033460826 0.02256304 -0.09066224 -0.120714106 0.121270835 -0.0806027 0.04756865 -0.15580381
-0.0430689 0.096349955 0.16710386 -0.043634042 0.1444284 -0.16943261 0.16726404 -0.10320156
0.118109345 0.1719931 0.09066287 -0.055220746 0.01651451 -0.11962182 -0.08584424 -0.10502733
-0.08459644 0.061804593 -0.028865784 -0.074402265 -0.10966608 -0.026524171 -0.05247032 0.023418963
0.029291645 -0.07843573 0.14782819 0.0114631355 0.036348924 -0.16467483 0.042479426 0.04763414
0.083063155 0.13401285 0.1104697 -0.114537284 -0.004764378 -0.13629115 -0.16415873 0.12358552
0.09614205 -0.039868608 -0.12940685 0.12603709 0.016431049 -0.05647278 0.1653437 -0.047352165
-0.15217614 -0.01376006 -0.14058815 -0.005823374 0.06201057 0.111326665 -0.044141054 -0.104924865
0.05690977 -0.14218587 0.061311066 -0.069391854 -0.1700903 -0.04817596 0.11369038 0.13422295
0.16392943 0.10175553 0.1068145 0.103664786 0.05512391 0.13261494 0.103471905 0.028181061
-0.1330076 -0.074207656 0.013211802 0.17204168 -0.055659726 0.08104229 0.1524423 0.15485087
-0.068086036 -0.065242104 -0.16500972 -0.01611118 -0.042801112 0.03422764 0.0036553293 0.06419979
0.13652548 -0.031725124 -0.013014451 0.027348086 -0.1465599 0.10763264 -0.09708131 -0.16353992
0.019484282 -0.15013309 0.07616368 -0.015334904 -0.06718504 0.07341282 -0.0031124204 -0.06526347
0.13031754 -0.06063091 0.035982117 -0.058223717 -0.108100206 -0.023051247 -0.043445706 -0.053714715
0.098255605 -0.029475138 -0.1436299 0.05211389 0.06291476 -0.09516145 -0.0711611 -0.04134567
-0.101150714 0.021115705 -0.0946876 -0.1168118 0.13452762 0.014036387 -0.073316865 0.07287361
-0.13098565 0.057829976 -0.107580535 -0.1413411 0.08620843 0.17094362 0.0052477717 -0.05238843
-0.09744206 -0.030175999 0.123853415 0.02416262 -0.0916804 -0.14209357 0.14519235 0.100504994
0.036389932 0.16100436 0.1116347 -0.0012325644 -0.059584446 -0.13693395 -0.07588302 -0.09911012

sequential/conv1d/BiasAdd/ReadVariableOp/resource f4 [56]
00000000: 0000 0000 0000 0000 0000 0000 0000 0000
00000010: 0000 0000 0000 0000 0000 0000 0000 0000
00000020: 0000 0000 0000 0000 0000 0000 0000 0000
00000030: 0000 0000 0000 0000 0000 0000 0000 0000
00000040: 0000 0000 0000 0000 0000 0000 0000 0000
00000050: 0000 0000 0000 0000 0000 0000 0000 0000
00000060: 0000 0000 0000 0000 0000 0000 0000 0000
00000070: 0000 0000 0000 0000 0000 0000 0000 0000
00000080: 0000 0000 0000 0000 0000 0000 0000 0000
00000090: 0000 0000 0000 0000 0000 0000 0000 0000
000000a0: 0000 0000 0000 0000 0000 0000 0000 0000
000000b0: 0000 0000 0000 0000 0000 0000 0000 0000
000000c0: 0000 0000 0000 0000 0000 0000 0000 0000
000000d0: 0000 0000 0000 0000 0000 0000 0000 0000
0.0 0.0 0.0 0.0 0.0 0.0 0.0 0.0
0.0 0.0 0.0 0.0 0.0 0.0 0.0 0.0
0.0 0.0 0.0 0.0 0.0 0.0 0.0 0.0
0.0 0.0 0.0 0.0 0.0 0.0 0.0 0.0
0.0 0.0 0.0 0.0 0.0 0.0 0.0 0.0
0.0 0.0 0.0 0.0 0.0 0.0 0.0 0.0
0.0 0.0 0.0 0.0 0.0 0.0 0.0 0.0

sequential/dense/MatMul f4 [784, 56]
00000000: 8c60 8d3c 1188 47bd f2f7 083d 6828 16bc
00000010: ce8b 6dbd 8256 5abd 58c9 65bc 8e0c 0ebd
00000020: 3062 5fbc 98f6 713d 09f6 41bd e068 e6bc
00000030: 9cac 403d 0e2f 6bbd 6c7f 4f3d 0007 7a3a
00000040: e87a cc3c b8c6 44bd 003a 5f39 d0ee dbbb
00000050: c022 503c 0da5 9abd d04b 9a3d 0297 8dbd
00000060: e627 a73d 4044 803d e290 a13d 4e89 95bd
00000070: de4c a3bd dc62 eb3c f824 6bbc b07a 843c
00000080: 189b 993d 7373 84bd 18df 8b3d 1235 9abd
00000090: 8885 443d 409b 963a 983f 4ebd d421 3dbd
000000a0: ac39 5e3d aa75 bebc 6478 8b3c 6ab6 1b3d
000000b0: 9eb8 8a3d 0209 243d f3a9 a4bd dcf1 8abd
000000c0: 1205 9fbd b842 49bc d8c9 6c3d a0cf 31bd
000000d0: 306e 39bc e8b2 f73c 8e23 033d 5281 8b3d
000000e0: d6d7 0fbd ca4b 01bd dc45 70bd 6065 b7bc
000000f0: a8e6 163c f0e2 7d3d 0675 8c3d 58bb c23c
00000100: 7a9f 95bd 9ccb 903d 0b4b 75bd dc08 993d
00000110: 08dc 603d 7073 e73c 30b7 223c fcb3 f13c
00000120: c811 44bc 1451 59bd 3c54 9ebd 5045 9c3d
00000130: 8c4f c0bc 7894 60bc c2e2 803d ed11 abbd
00000140: e43d 83bd 7012 f03c 3c13 33bd 7cf3 c63c
00000150: 84fd 48bd e487 9abc 441c 19bd 2f75 54bd
00000160: 5ee3 023d 58dd 373d 00d5 0dba 841e 463d
00000170: 488f 673d f802 a33c 0392 1bbd a4ad 6abd
00000180: c4b8 84bc 6f2a 86bd 40ba 3f3c 422e 873d
00000190: c83f 823c c05f f4bc 8831 a5bd d839 5fbd
000001a0: 193e 18bd c869 7ebc 5c4e b2bc 08a6 303d
000001b0: a1ec 99bd d859 153d dc3f 573d 4a21 943d
000001c0: 04a2 f2bc 98db 90bc 3377 05bd 405b c1bc
000001d0: 7984 56bd 1ab8 a5bd 1406 b73c e08e 0abc
000001e0: 30a4 debb d049 6abc 143e a23d afd7 89bd
000001f0: 406f a5bd 5ccc ff3c 5cd0 abbc c8ce a5bd
00000200: 9834 923d 4a39 81bd dc7e a03d 5a82 8dbd
00000210: 7447 7d3d 90a0 ac3c 9331 a9bd ded6 15bd
00000220: 70d8 893c 98e7 eabc 50af a4bb a0d9 46bb
00000230: fc2f 473d f027 673d 2c89 a6bd 281c 58bd
00000240: d862 25bc b8a1 0a3d 0924 8cbd 841c 8e3d
00000250: 8079 7fbc 20d1 283d 9c1c f43c 580a 4c3c
00000260: 3c79 563d a866 42bc 7433 bdbc b845 80bd
00000270: ce24 b8bc 0c82 09bd e000 2a3d ba0c 813d
00000280: ec36 adbc ee54 5ebd 7050 763c eedc 8f3d
00000290: 18d9 043d 0a08 803d 2e2c ab3d 40cb 63bb
000002a0: 1ccd 9b3d a67f 24bd d83c 693d 7010 3c3d
000002b0: 34e9 643d d88a 5dbc c8f3 5ebd ce32 2bbd
000002c0: 00d5 d439 74ba dfbc c097 c8bb 00a2 40bc
000002d0: b05c 9dbd 2829 733c 8a36 873d 6dfb a9bd
000002e0: e0fe b43b b23e 8b3d 7e28 973d 5a04 81bd
000002f0: f80d 913c 124d 8f3d 9ea3 03bd 20c9 d5bb
00000300: bc80 353d 22c5 1fbd f096 76bd 4a1c 1a3d
00000310: 70e3 1e3d 3186 2ebd ab30 06bd dac7 93bd
00000320: 7812 163d 0431 543d a291 213d b090 cb3b
00000330: 8a6e 8e3d 5038 473c c0c7 563d a0c4 623b
00000340: 82bd e9bc 70a9 1e3d 7a4d 9d3d 10c7 2b3d
00000350: c6fd a53d dcaa c1bc 9489 8e3c 50d2 743d
00000360: b070 0dbd 23e4 a4bd 1094 1a3c 182d 0ebd
00000370: 2416 7c3d 82df 813d c007 a43d 3191 a9bd
00000380: 002a 833b e282 9f3d 3e44 acbd 1a4a 0f3d
00000390: f0af 833c f6b9 1d3d bced e43c 201c 80bc
000003a0: 361c 8f3d d89f 5bbd 8085 cc3b 3ebc 3cbd
000003b0: 71d5 18bd bc87 5cbd 947c 8b3d 6091 babb
000003c0: 4c70 55bd ac85 f03c 5078 d43c 9899 8e3c
000003d0: e43f 673d 48ae 51bc 002a f73b 60a5 35bb
000003e0: b09f 2abc a4be 923d 80b4 543a 9e50 aa3d
000003f0: 425a 8abd b043 9e3b 2454 243d d0cd adbb
0.017257951 -0.048713747 0.033439584 -0.009164907 -0.057994656 -0.053305157 -0.014025055 -0.03467994
-0.01363425 0.05907306 -0.047353778 -0.02812618 0.047039613 -0.05741792 0.05065863 0.0009537786
0.02496095 -0.048041075 0.00021288544 -0.0067118183 0.012703598 -0.07551012 0.07533991 -0.06913568
0.08161907 0.06263018 0.07888962 -0.073015794 -0.07973646 0.028733663 -0.014352076 0.016171783
0.07500285 -0.06467333 0.06829661 -0.075296536 0.047978908 0.001149036 -0.050353616 -0.04617484
0.05425422 -0.023249466 0.01702518 0.03801576 0.06773494 0.040047653 -0.08040228 -0.06784412
-0.07764639 -0.012283973 0.05780968 -0.043410897 -0.011317775 0.030236676 0.03201633 0.06811775
-0.035117947 -0.03156642 -0.058660373 -0.022387207 0.009210266 0.061984003 0.06858258 0.023770973
-0.07305808 0.070700854 -0.05988602 0.07472393 0.05489734 0.028253287 0.009931371 0.029504769
-0.01196713 -0.053055838 -0.0773091 0.07630408 -0.02347543 -0.013707273 0.062932506 -0.083530284
-0.06408289 0.029305667 -0.043719515 0.024286024 -0.049069896 -0.018863626 -0.03738047 -0.051869567
0.031955115 0.044888824 -0.00054104626 0.048368946 0.056533128 0.019898877 -0.037981045 -0.057294503
-0.016201384 -0.06551062 0.01170212 0.0660062 0.015899554 -0.029830813 -0.08066088 -0.054498523
-0.037168596 -0.01552815 -0.02176588 0.04312709 -0.075158365 0.036462635 0.052551135 0.07232912
-0.02961827 -0.017682835 -0.03258438 -0.023603082 -0.05237243 -0.08091755 0.022341765 -0.008456916
-0.006794475 -0.014299825 0.07921997 -0.067305915 -0.0807786 0.031225376 -0.020973377 -0.08096081
0.07138938 -0.06309755 0.078366965 -0.06909628 0.06183572 0.021072656 -0.08261409 -0.036581866
0.016826838 -0.028674886 -0.0050257817 -0.0030342117 0.048629746 0.05643457 -0.08131632 -0.052761227
-0.010094367 0.033845633 -0.06842811 0.06939033 -0.015592933 0.041215062 0.029798798 0.012453638
0.05236171 -0.0118652955 -0.023095824 -0.06263298 -0.022478487 -0.033571288 0.04150474 0.063012555
-0.021144353 -0.054280214 0.015033826 0.07024561 0.0324336 0.06251533 0.08358036 -0.0034758598
0.07607481 -0.040160798 0.05694279 0.045914114 0.055886462 -0.013521872 -0.054431707 -0.041796498
0.00040594488 -0.027310587 -0.0061216056 -0.011757374 -0.07683694 0.014841355 0.066021994 -0.08299909
0.0055235475 0.067990676 0.0738077 -0.06299658 0.017706856 0.06997122 -0.03213846 -0.00652422
0.044312224 -0.03900636 -0.06020254 0.037624635 0.03879112 -0.042608444 -0.032761257 -0.07215853
0.036638707 0.051804557 0.039445527 0.0062123165 0.069546774 0.012159422 0.05243659 0.003460206
-0.028532747 0.038735807 0.07680793 0.041937888 0.08105044 -0.023641042 0.017399587 0.059770882
-0.034531295 -0.08051326 0.009434715 -0.034710974 0.061544552 0.06341459 0.08009291 -0.08279646
0.0040028095 0.07788636 -0.08411454 0.034982778 0.016075104 0.038507424 0.027945392 -0.015638411
0.06987803 -0.053619236 0.0062415004 -0.04607796 -0.03731293 -0.053840384 0.06810871 -0.0056935996
-0.052109048 0.029360615 0.025936276 0.017407224 0.056457415 -0.0127979 0.0075428486 -0.002771698
-0.010414049 0.07165268 0.0008114055 0.08316158 -0.067554966 0.0048298463 0.040119305 -0.005304076

sequential/dense_1/MatMul f4 [4, 784]
00000000: c4fd 963d 00c2 cd3b 406f 47bc bc8d f83c
00000010: f899 bcbc 40bf e33a 9ce0 bfbc f8e8 083c
00000020: 581b 513d 88f6 3b3c 8e63 98bd e8dc 203d
00000030: 0083 623d fcbe 2b3d 30cd 33bc 0050 0539
00000040: 5479 a43d 3a10 893d a04d 9a3d 0011 20ba
00000050: 00c0 833c a02a 923d c0c0 1bbd 462a abbd
00000060: 0062 39b9 7429 8f3d 5459 433d 0497 a63c
00000070: c242 ab3d 58ab 663c 4068 6c3d 0be2 80bd
00000080: 26e0 0f3d f4df aebd aeae 903d 42eb b0bd
00000090: c749 43bd b481 cc3c 10c8 a23c 7054 e23b
000000a0: b59b 57bd a562 44bd 309a 793c 0a41 ae3d
000000b0: 48f2 7b3d 6048 65bc 34ce 84bd 2401 1f3d
000000c0: b307 44bd 008b c4bb ec54 89bc 9488 a7bd
000000d0: 606a 8d3d 4cc0 e6bc de4c 02bd 0be5 59bd
000000e0: e1f5 8fbd 48ca 443d ea1e 8e3d 52f0 1ebd
000000f0: e8e5 123d 6b75 72bd cec0 5bbd 9086 5abc
00000100: c0d8 243b d046 5f3d e79c 99bd fdce 84bd
00000110: c09f b43a baf2 a33d 64fe 5c3d 8885 8ebc
00000120: f876 0abc fcd3 a93c 90f2 cbbc a0ba cf3c
00000130: aeaa aa3d 9c29 833c 7d55 89bd e8ac f7bc
00000140: 245d 6a3d a3b3 a5bd 2e91 943d eb9f 2dbd
00000150: e244 9c3d b8ca cf3c 295c 93bd 6cf5 d1bc
00000160: c467 93bd 3836 db3c a153 aebd e493 ae3c
00000170: 9948 85bd 6830 32bd c0d1 6fbc 17c2 17bd
00000180: 3650 a73d 5443 c33c 9a52 843d 4859 ab3c
00000190: dc0b 663d 78a1 8f3d acdd 0b3d 18cb 5e3d
000001a0: 2058 613d 24c5 32bd 64c3 cdbc 0c8c 663d
000001b0: e82a 613d 443c 493d 8016 c4ba 20ea 763d
000001c0: 0054 8e3a d02a a63d 550d 29bd 9c64 c3bc
000001d0: 241b ae3d 3c61 6d3d 67b7 97bd 89fe 19bd
000001e0: b683 983d 086c 5a3c 684d 913d 9ca8 e43c
000001f0: ac6c 8f3d ed7a 19bd fa2a 88bd 1066 b13d
00000200: 2ae2 2fbd a297 95bd e861 9cbd 7a35 27bd
00000210: 48de 963d 7891 67bc d401 67bd 1cd3 e4bc
00000220: 00f2 9cb9 601d a63d 4e63 6dbd 0c51 6b3d
00000230: 98d5 9ebc c6fa ab3d 0c66 b3bc 3116 5abd
00000240: 7c20 4bbd f45c aabd e022 823c 1885 60bc
00000250: 7409 2d3d 04e6 573d 5e3f ad3d f8a9 e43c
00000260: 14f7 993d 6d8f b1bd e415 c9bc 30c0 2ebc
00000270: e491 853c f7dc 98bd 16b7 34bd b02b 463d
00000280: d098 1fbc a8c6 a43c 5417 b2bc f694 903d
00000290: 28a8 973d 38fe 2f3d 0484 c9bc 0295 eabc
000002a0: 7065 89bb 50ac 2bbd 32c9 56bd b348 9cbd
000002b0: 58b0 03bd b898 09bc 2c60 803d 584a 5ebd
000002c0: d044 edbb d834 0c3d 9491 d03c 300a ddbc
000002d0: 1ce6 e53c 8bf8 39bd acf8 973d 54a3 7d3d
000002e0: 580a 60bc c8b8 013c 4625 8c3d de26 67bd
000002f0: bd5a 9dbd 40a3 ddbb 5894 9b3d ace4 84bc
00000300: b44f a63d 8094 223c fc42 373d 4e57 9c3d
00000310: 0842 a23c 9098 edbb 69ac 81bd 5e8b 87bd
00000320: 40f7 45bc 44bc f33c 15ba 2abd 3875 933c
00000330: 6a8d 40bd 3d66 b1bd 24e6 e23c 60bd 0cbb
00000340: 799a 64bd 6dc1 35bd f44a 863c 65fd 9bbd
00000350: 122e 843d 1e30 a43d b35e adbd 2019 6c3c
00000360: 8028 243d 502a cdbb 3857 a8bd 1854 06bc
00000370: f89d 273d 98fa 3e3c 7cc5 45bd de1d 93bd
00000380: d992 adbd 7ea6 903d 345f 4b3d d8ac 7cbd
00000390: 80c0 87bb 8c82 52bd 54d2 bc3c a0ee 0bbc
000003a0: a0e0 7fbb e0b9 1abc 682a 7d3c 42b8 7abd
000003b0: e087 71bd 38c8 913d 7041 f73c d8c9 613d
000003c0: e020 553b 64b7 9b3d 582d 80bc 0058 8fb9
000003d0: 015a 6fbd 6c6c 333d f864 943d 030d 9ebd
000003e0: c830 713c c042 e03c d6e2 86bd 5826 2c3d
000003f0: b806 04bc 347a af3d 7b74 47bd 94ea 593d
0.07372621 0.00627923 -0.01217252 0.030341022 -0.023022637 0.0017375723 -0.023422532 0.008356325
0.051051468 0.011472352 -0.074408635 0.039273173 0.055300713 0.041930184 -0.0109742135 0.00012713671
0.08030954 0.06692548 0.07534337 -0.0006106049 0.016082764 0.07137036 -0.038025618 -0.083576724
-0.00017679483 0.069903284 0.04769261 0.020335682 0.083623424 0.0140789375 0.057716608 -0.06293114
0.035125874 -0.085388094 0.070645675 -0.08638622 -0.04767778 0.024964191 0.019870788 0.0069070384
-0.05263873 -0.047945637 0.015234515 0.08508499 0.061510354 -0.013994306 -0.064846426 0.038819447
-0.047858905 -0.0059980154 -0.016764127 -0.08180347 0.06905055 -0.028167866 -0.031811588 -0.053196948
-0.070293196 0.048044473 0.0693949 -0.038803406 0.035863787 -0.05919401 -0.05365067 -0.013337746
0.0025153607 0.05451089 -0.0750063 -0.064847924 0.0013780519 0.08005281 0.053953543 -0.017397657
-0.008451216 0.020730965 -0.024895936 0.025357544 0.08333336 0.016011052 -0.06705759 -0.030233815
0.057217732 -0.080909036 0.07254253 -0.042388838 0.07630326 0.025365219 -0.071953125 -0.025629722
-0.07197526 0.026759252 -0.08512045 0.021310754 -0.065079875 -0.043503195 -0.014637411 -0.037050333
0.08169596 0.023835815 0.064610675 0.020916596 0.056163654 0.070132196 0.03414695 0.054392904
0.055015683 -0.04364504 -0.025117584 0.056285903 0.05497256 0.04912974 -0.0014960319 0.060281873
0.0010858774 0.081136346 -0.04127248 -0.023851685 0.085012704 0.057954058 -0.07408028 -0.03759626
0.07446997 0.013331421 0.07094842 0.02791243 0.070031494 -0.037470747 -0.06648822 0.08662045
-0.042940296 -0.07304312 -0.07635862 -0.040822484 0.073666155 -0.014133804 -0.056398228 -0.027932696
-0.00029934943 0.081110716 -0.057956032 0.05745034 -0.019388959 0.083974406 -0.021899246 -0.05324382
-0.049591526 -0.08318511 0.01588577 -0.013703607 0.042245343 0.052709594 0.08459352 0.027913079
0.075178295 -0.086699344 -0.024546571 -0.010665938 0.016304918 -0.07464021 -0.044119917 0.048381507
-0.009741023 0.020114258 -0.02173964 0.07059662 0.0740512 0.04296705 -0.024599083 -0.028635506
-0.0041930005 -0.041912377 -0.05243797 -0.07631054 -0.032150596 -0.008398227 0.06268343 -0.05427012
-0.007240869 0.034230083 0.025460042 -0.026982397 0.028063826 -0.045403045 0.07420477 0.06192334
-0.013674341 0.00791759 0.06843047 -0.05643355 -0.076833226 -0.0067638457 0.07596654 -0.01622232
0.08120671 0.0099231005 0.044741616 0.076338395 0.019806877 -0.007250853 -0.06331713 -0.06618379
-0.012082875 0.029752858 -0.041681368 0.01800023 -0.047009863 -0.086620785 0.02769763 -0.002147518
-0.05581138 -0.04437392 0.016393162 -0.076166905 0.064541 0.0801699 -0.08465328 0.014410287
0.040077686 -0.0062611476 -0.08219761 -0.00819876 0.040922135 0.011656426 -0.04828404 -0.07183431
-0.084752746 0.07063006 0.04965134 -0.061688274 -0.004142821 -0.05139403 0.023049511 -0.008540779
-0.00390438 -0.00944373 0.015452005 -0.06121088 -0.05896747 0.07118267 0.03018257 0.055124134
0.0032520816 0.07603338 -0.015646622 -0.0002734065 -0.058435444 0.04380457 0.07245821 -0.077173255
0.014721103 0.027375579 -0.06586234 0.042028755 -0.0080582425 0.0856823 -0.04869507 0.053202227
