notebooks/outputs/tf_model/model_quantized.tflite (tflite, 65760 bytes, 5 tensors)

sequential/conv1d_1/conv1d i1 [56, 1, 3, 56]
000000 55 66 46 6e b0 86 ae e0 43 7d b3 08 84 ca 28 ec
       85 102 70 110 -80 -122 -82 -32 67 125 -77 8 -124 -54 40 -20
000010 21 f9 5a 04 78 7c 69 d0 4c f3 a3 2e 0e d4 51 72
       33 -7 90 4 120 124 105 -48 76 -13 -93 46 14 -44 81 114
000020 d6 2e 8e ca d1 51 a8 cd 49 28 6a 71 17 3b a8 5d
       -42 46 -114 -54 -47 81 -88 -51 73 40 106 113 23 59 -88 93
000030 b2 53 78 81 97 bc 4f cf 5d c1 d2 fe 2e f1 34 f6
       -78 83 120 -127 -105 -68 79 -49 93 -63 -46 -2 46 -15 52 -10
000040 e0 3d 24 94 a1 a5 88 ba 8f ae b4 fe 84 8a 60 92
       -32 61 36 -108 -95 -91 -120 -70 -113 -82 -76 -2 -124 -118 96 -110
000050 1b da 81 60 b1 b3 ff c9 7a 84 fa 9e 8d 30 d6 9d
       27 -38 -127 96 -79 -77 -1 -55 122 -124 -6 -98 -115 48 -42 -99
000060 5f 0e 93 01 5a c7 87 be 0d 77 e7 a2 83 28 d2 e1
       95 14 -109 1 90 -57 -121 -66 13 119 -25 -94 -125 40 -46 -31
000070 5d 6f 47 7c 5e f3 96 d0 41 82 57 78 5d 58 db db
       93 111 71 124 94 -13 -106 -48 65 -126 87 120 93 88 -37 -37
000080 30 2b 50 60 52 39 d7 e6 15 ff 29 23 01 45 63 bc
       48 43 80 96 82 57 -41 -26 21 -1 41 35 1 69 99 -68
000090 6a 60 a7 50 67 bb e0 92 7b 27 45 f5 91 cc d7 38
       106 96 -89 80 103 -69 -32 -110 123 39 69 -11 -111 -52 -41 56
0000a0 43 03 c0 68 7e af a5 91 3f f3 79 da a8 38 c7 c6
       67 3 -64 104 126 -81 -91 -111 63 -13 121 -38 -88 56 -57 -58
0000b0 87 b6 60 17 b1 b6 d3 d8 00 39 de 37 9e 00 c1 0b
       -121 -74 96 23 -79 -74 -45 -40 0 57 -34 55 -98 0 -63 11
0000c0 1a db ef 8c 64 3d 4b 1e 5e 00 c8 c8 24 7a 36 f7
       26 -37 -17 -116 100 61 75 30 94 0 -56 -56 36 122 54 -9
0000d0 fc da 7d 3f 7d d0 f9 54 4c b6 ef 43 04 5d af 57
       -4 -38 125 63 125 -48 -7 84 76 -74 -17 67 4 93 -81 87
0000e0 ae 6a 0f b8 8e 39 01 e7 58 59 c4 1e 9c cf e4 6b
       -82 106 15 -72 -114 57 1 -25 88 89 -60 30 -100 -49 -28 107
0000f0 29 1e e8 8e c0 c5 37 d6 96 1c 01 39 88 de fa 52
       41 30 -24 -114 -64 -59 55 -42 -106 28 1 57 -120 -34 -6 82

sequential/conv1d/conv1d i1 [56, 1, 3, 10]
000000 3e 2d da 27 0b 37 ff 0a f3 05 de 73 88 a8 49 e1
       62 45 -38 39 11 55 -1 10 -13 5 -34 115 -120 -88 73 -31
000010 97 1f 81 bd 38 30 55 28 8e ee 0a 45 1a f4 d6 86
       -105 31 -127 -67 56 48 85 40 -114 -18 10 69 26 -12 -42 -122
000020 e5 21 a0 3e 35 9b d0 bf 83 f4 a2 0b a5 5f b4 35
       -27 33 -96 62 53 -101 -48 -65 -125 -12 -94 11 -91 95 -76 53
000030 6f f7 ca 7f 26 32 73 29 6b f6 cf 55 f0 1b 6b 54
       111 -9 -54 127 38 50 115 41 107 -10 -49 85 -16 27 107 84
000040 49 02 1f 39 84 c0 33 83 a8 72 1d a1 92 13 58 ae
       73 2 31 57 -124 -64 51 -125 -88 114 29 -95 -110 19 88 -82
000050 df fb 02 8a 7f 60 ee b4 67 bd bc c0 cc c2 a1 f2
       -33 -5 2 -118 127 96 -18 -76 103 -67 -68 -64 -52 -62 -95 -14
000060 e7 11 bd a7 5a c4 23 8d e0 47 7b e0 6b 83 7c b4
       -25 17 -67 -89 90 -60 35 -115 -32 71 123 -32 107 -125 124 -76
000070 57 7f 43 d7 0c a8 c1 b2 bf 30 ea c7 ab ec d8 12
       87 127 67 -41 12 -88 -63 -78 -65 48 -22 -57 -85 -20 -40 18
000080 17 c4 72 09 1c 81 21 25 40 67 55 a8 fc 97 81 5f
       23 -60 114 9 28 -127 33 37 64 103 85 -88 -4 -105 -127 95
000090 4a e1 9c 61 0d d4 7a dd 90 f6 98 fc 2e 52 df b3
       74 -31 -100 97 13 -44 122 -35 -112 -10 -104 -4 46 82 -33 -77
0000a0 2a 97 2d cd 82 dc 54 63 79 4b 4f 4d 29 62 4c 15
       42 -105 45 -51 -126 -36 84 99 121 75 79 77 41 98 76 21
0000b0 9e c9 0a 7f d5 3e 75 77 cc ce 81 f4 df 1a 03 31
       -98 -55 10 127 -43 62 117 119 -52 -50 -127 -12 -33 26 3 49
0000c0 69 e8 f6 15 8f 53 b5 82 0f 8c 3b f4 cc 39 fe ce
       105 -24 -10 21 -113 83 -75 -126 15 -116 59 -12 -52 57 -2 -50
0000d0 64 d1 1b d5 b0 ef e0 d8 49 ea 95 27 2f b9 cb e1
       100 -47 27 -43 -80 -17 -32 -40 73 -22 -107 39 47 -71 -53 -31
0000e0 b5 10 ba a9 64 0a ca 36 9f 2b b0 97 40 7f 04 d9
       -75 16 -70 -87 100 10 -54 54 -97 43 -80 -105 64 127 4 -39
0000f0 b3 e8 62 13 b8 90 73 4f 1d 7f 58 ff d1 94 c4 b2
       -77 -24 98 19 -72 -112 115 79 29 127 88 -1 -47 -108 -60 -78

sequential/conv1d/BiasAdd/ReadVariableOp/resource f4 [56]
000000 00 00 00 00 00 00 00 00 00 00 00 00 00 00 00 00
       0.0 0.0 0.0 0.0
000010 00 00 00 00 00 00 00 00 00 00 00 00 00 00 00 00
       0.0 0.0 0.0 0.0
000020 00 00 00 00 00 00 00 00 00 00 00 00 00 00 00 00
       0.0 0.0 0.0 0.0
000030 00 00 00 00 00 00 00 00 00 00 00 00 00 00 00 00
       0.0 0.0 0.0 0.0
000040 00 00 00 00 00 00 00 00 00 00 00 00 00 00 00 00
       0.0 0.0 0.0 0.0
000050 00 00 00 00 00 00 00 00 00 00 00 00 00 00 00 00
       0.0 0.0 0.0 0.0
000060 00 00 00 00 00 00 00 00 00 00 00 00 00 00 00 00
       0.0 0.0 0.0 0.0
000070 00 00 00 00 00 00 00 00 00 00 00 00 00 00 00 00
       0.0 0.0 0.0 0.0
000080 00 00 00 00 00 00 00 00 00 00 00 00 00 00 00 00
       0.0 0.0 0.0 0.0
000090 00 00 00 00 00 00 00 00 00 00 00 00 00 00 00 00
       0.0 0.0 0.0 0.0
0000a0 00 00 00 00 00 00 00 00 00 00 00 00 00 00 00 00
       0.0 0.0 0.0 0.0
0000b0 00 00 00 00 00 00 00 00 00 00 00 00 00 00 00 00
       0.0 0.0 0.0 0.0
0000c0 00 00 00 00 00 00 00 00 00 00 00 00 00 00 00 00
       0.0 0.0 0.0 0.0
0000d0 00 00 00 00 00 00 00 00 00 00 00 00 00 00 00 00
       0.0 0.0 0.0 0.0

sequential/dense/MatMul i1 [784, 56] scale=0.0006654497 zero_point=0
000000 1a b7 32 f2 a9 b0 eb cc ec 59 b9 d6 47 aa 4c 01
       0.017301692 -0.04857783 0.033272486 -0.009316296 -0.057894126 -0.053235978 -0.013974444 -0.034603383 -0.0133089945 0.059225023 -0.04724693 -0.027948888 0.04724693 -0.057228677 0.05057418 0.0006654497
000010 26 b8 00 f6 13 8f 71 98 7b 5e 77 92 88 2b ea 18
       0.02528709 -0.047912378 0.0 -0.0066544972 0.012643545 -0.07519582 0.07519582 -0.06920677 0.08185031 0.06255227 0.07918852 -0.073199466 -0.07985397 0.028614338 -0.014639894 0.015970793
000020 71 9f 67 8f 48 02 b4 bb 52 dd 1a 39 66 3c 87 9a
       0.07519582 -0.06454862 0.06854132 -0.07519582 0.047912378 0.0013308994 -0.05057418 -0.04591603 0.054566875 -0.02329074 0.017301692 0.037930634 0.06787587 0.039926983 -0.080519415 -0.06787587
000030 8b ee 57 bf ef 2d 30 66 cb d1 a8 de 0e 5d 67 24
       -0.07785761 -0.0119780945 0.057894126 -0.04325423 -0.011312645 0.029945238 0.031941585 0.06787587 -0.035268836 -0.031276137 -0.058559574 -0.02262529 0.009316296 0.061886825 0.06854132 0.023956189
000040 92 6a a6 70 52 2a 0f 2c ee b0 8c 73 dd eb 5f 82
       -0.073199466 0.07053767 -0.059890475 0.07453037 0.054566875 0.027948888 0.009981746 0.029279787 -0.0119780945 -0.053235978 -0.077192165 0.07652672 -0.02329074 -0.013974444 0.06321772 -0.083846666
000050 a0 2c be 24 b6 e4 c8 b2 30 43 ff 49 55 1e c7 aa
       -0.06388317 0.029279787 -0.043919683 0.023956189 -0.04924328 -0.018632593 -0.037265185 -0.051905077 0.031941585 0.04458513 -0.0006654497 0.04857783 0.056563225 0.019963492 -0.037930634 -0.057228677
000060 e8 9e 12 63 18 d3 87 ae c8 e9 df 41 8f 37 4f 6d
       -0.015970793 -0.065214075 0.0119780945 0.065879524 0.015970793 -0.029945238 -0.080519415 -0.054566875 -0.037265185 -0.015305343 -0.021959841 0.04325423 -0.07519582 0.036599733 0.052570526 0.07253402
000070 d3 e5 cf dd b1 86 22 f3 f6 eb 77 9b 87 2f e0 86
       -0.029945238 -0.017967142 -0.032607038 -0.02329074 -0.052570526 -0.081184864 0.02262529 -0.008650846 -0.0066544972 -0.013974444 0.07918852 -0.06721042 -0.080519415 0.031276137 -0.02129439 -0.081184864
000080 6b a1 76 98 5d 20 84 c9 19 d5 f8 fb 49 55 86 b1
       0.07120312 -0.06321772 0.07852307 -0.06920677 0.061886825 0.02129439 -0.08251576 -0.036599733 0.016636243 -0.028614338 -0.0053235977 -0.0033272486 0.04857783 0.056563225 -0.081184864 -0.052570526
000090 f1 33 99 68 e9 3e 2d 13 4f ee dd a2 de ce 3e 5f
       -0.009981746 0.033937935 -0.06854132 0.06920677 -0.015305343 0.04125788 0.029945238 0.012643545 0.052570526 -0.0119780945 -0.02329074 -0.06255227 -0.02262529 -0.033272486 0.04125788 0.06321772
0000a0 e0 ae 17 6a 31 5e 7e fb 72 c4 56 45 54 ec ae c1
       -0.02129439 -0.054566875 0.015305343 0.07053767 0.032607038 0.06255227 0.083846666 -0.0033272486 0.07586127 -0.039926983 0.057228677 0.04591603 0.055897776 -0.0133089945 -0.054566875 -0.041923333
0000b0 01 d7 f7 ee 8d 16 63 83 08 66 6f a1 1b 69 d0 f6
       0.0006654497 -0.027283438 -0.0059890472 -0.0119780945 -0.07652672 0.014639894 0.065879524 -0.08318122 0.0053235977 0.06787587 0.073864914 -0.06321772 0.017967142 0.06987222 -0.031941585 -0.0066544972
0000c0 43 c5 a6 39 3a c0 cf 94 37 4e 3b 09 69 12 4f 05
       0.04458513 -0.039261535 -0.059890475 0.037930634 0.038596082 -0.04258878 -0.032607038 -0.07186857 0.036599733 0.051905077 0.039261535 0.0059890472 0.06987222 0.0119780945 0.052570526 0.0033272486
0000d0 d5 3a 73 3f 7a dc 1a 5a cc 87 0e cc 5c 5f 78 84
       -0.028614338 0.038596082 0.07652672 0.041923333 0.081184864 -0.023956189 0.017301692 0.059890475 -0.034603383 -0.080519415 0.009316296 -0.034603383 0.061221372 0.06321772 0.07985397 -0.08251576
0000e0 06 75 82 35 18 3a 2a e8 69 af 09 bb c8 af 66 f7
       0.003992698 0.07785761 -0.083846666 0.035268836 0.015970793 0.038596082 0.027948888 -0.015970793 0.06987222 -0.053901426 0.0059890472 -0.04591603 -0.037265185 -0.053901426 0.06787587 -0.0059890472
0000f0 b2 2c 27 1a 55 ed 0b fc f0 6c 01 7d 9a 07 3c f8
       -0.051905077 0.029279787 0.025952538 0.017301692 0.056563225 -0.012643545 0.007319947 -0.0026617988 -0.010647195 0.07186857 0.0006654497 0.08318122 -0.06787587 0.004658148 0.039926983 -0.0053235977

sequential/dense_1/MatMul i1 [4, 784] scale=0.00068647665 zero_point=0
000000 6b 09 ee 2c de 03 de 0c 4a 11 94 39 51 3d f0 00
       0.073453 0.0061782897 -0.012356579 0.030204972 -0.023340207 0.00205943 -0.023340207 0.00823772 0.050799273 0.011670103 -0.074139476 0.039129168 0.055604607 0.041875076 -0.010983626 0.0
000010 75 61 6e ff 17 68 c9 86 00 66 45 1e 7a 15 54 a4
       0.080317765 0.06658824 0.07551243 -0.00068647665 0.015788963 0.07139357 -0.037756216 -0.08375015 0.0 0.070020616 0.047366887 0.020594299 0.08375015 0.014416009 0.057664037 -0.06315585
000020 33 84 67 82 bb 24 1d 0a b3 ba 16 7c 5a ec a2 39
       0.035010308 -0.08512311 0.0707071 -0.086496055 -0.047366887 0.024713159 0.019907823 0.0068647666 -0.052858703 -0.048053365 0.015102486 0.08512311 0.061782897 -0.013729533 -0.06452881 0.039129168
000030 ba f7 e8 89 65 d7 d2 b3 9a 46 65 c7 34 aa b2 ed
       -0.048053365 -0.0061782897 -0.01647544 -0.08169072 0.06933414 -0.028145542 -0.031577926 -0.052858703 -0.070020616 0.048053365 0.06933414 -0.039129168 0.035696786 -0.059036992 -0.053545177 -0.013043056
000040 04 4f 93 a2 02 75 4f e7 f4 1e dc 25 79 17 9e d4
       0.0027459066 0.054231655 -0.07482596 -0.06452881 0.0013729533 0.080317765 0.054231655 -0.017161917 -0.00823772 0.020594299 -0.024713159 0.025399636 0.08306368 0.015788963 -0.06727471 -0.030204972
000050 53 8a 6a c2 6f 25 97 db 97 27 84 1f a1 c1 eb ca
       0.056977563 -0.08100425 0.07276653 -0.042561553 0.076198906 0.025399636 -0.072080046 -0.025399636 -0.072080046 0.026772588 -0.08512311 0.021280777 -0.06521528 -0.043248028 -0.014416009 -0.037069738
000060 77 23 5e 1e 52 66 32 4f 50 c0 db 52 50 48 fe 58
       0.08169072 0.024026683 0.06452881 0.020594299 0.056291085 0.070020616 0.034323834 0.054231655 0.054918133 -0.043934505 -0.025399636 0.056291085 0.054918133 0.049426317 -0.0013729533 0.060409945
000070 02 76 c4 dd 7c 54 94 c9 6c 13 67 29 66 c9 9f 7e
       0.0013729533 0.08100425 -0.041188598 -0.024026683 0.08512311 0.057664037 -0.074139476 -0.037756216 0.074139476 0.013043056 0.0707071 0.028145542 0.070020616 -0.037756216 -0.06658824 0.086496055
000080 c1 96 91 c5 6b eb ae d7 00 76 ac 54 e4 7a e0 b2
       -0.043248028 -0.07276653 -0.076198906 -0.040502124 0.073453 -0.014416009 -0.056291085 -0.028145542 0.0 0.08100425 -0.057664037 0.057664037 -0.019221347 0.08375015 -0.021967253 -0.053545177
000090 b8 87 17 ec 3e 4d 7b 29 6e 82 dc f0 18 93 c0 46
       -0.049426317 -0.08306368 0.015788963 -0.013729533 0.042561553 0.052858703 0.084436625 0.028145542 0.07551243 -0.086496055 -0.024713159 -0.010983626 0.01647544 -0.07482596 -0.043934505 0.048053365
0000a0 f2 1d e0 67 6c 3f dc d6 fa c3 b4 91 d1 f4 5b b1
       -0.009610673 0.019907823 -0.021967253 0.0707071 0.074139476 0.043248028 -0.024713159 -0.028832018 -0.00411886 -0.041875076 -0.052172225 -0.076198906 -0.032264404 -0.00823772 0.062469374 -0.054231655
0000b0 f5 32 25 d9 29 be 6c 5a ec 0c 64 ae 90 f6 6f e8
       -0.007551243 0.034323834 0.025399636 -0.026772588 0.028145542 -0.045307457 0.074139476 0.061782897 -0.013729533 0.00823772 0.06864767 -0.056291085 -0.07688539 -0.0068647666 0.076198906 -0.01647544
0000c0 76 0e 41 6f 1d f5 a4 a0 ee 2b c3 1a bc 82 28 fd
       0.08100425 0.009610673 0.044620983 0.076198906 0.019907823 -0.007551243 -0.06315585 -0.06590176 -0.012356579 0.029518496 -0.041875076 0.017848393 -0.046680413 -0.086496055 0.027459066 -0.00205943
0000d0 af bf 18 91 5e 75 85 15 3a f7 88 f4 3c 11 ba 97
       -0.055604607 -0.044620983 0.01647544 -0.076198906 0.06452881 0.080317765 -0.084436625 0.014416009 0.039815646 -0.0061782897 -0.082377195 -0.00823772 0.041188598 0.011670103 -0.048053365 -0.072080046
0000e0 85 67 48 a6 fa b5 22 f4 fa f2 17 a7 aa 68 2c 50
       -0.084436625 0.0707071 0.049426317 -0.061782897 -0.00411886 -0.051485747 0.023340207 -0.00823772 -0.00411886 -0.009610673 0.015788963 -0.061096422 -0.059036992 0.07139357 0.030204972 0.054918133
0000f0 05 6f e9 00 ab 40 6a 90 15 28 a0 3d f4 7d b9 4e
       0.0034323833 0.076198906 -0.015788963 0.0 -0.058350515 0.043934505 0.07276653 -0.07688539 0.014416009 0.027459066 -0.06590176 0.041875076 -0.00823772 0.08580958 -0.048739843 0.053545177
