models/model-pi10mins.tflite (tflite, 192348 bytes, 8 tensors)

sequential_6/dense_13/BiasAdd/ReadVariableOp f4 [4]
0.03378317 -0.0027913628 -0.042846277 0.008250941
00000000: 3960 0a3d 4cef 36bb 947f 2fbd f42e 073c

sequential_6/dense_12/BiasAdd/ReadVariableOp f4 [784]
0.04549057 0.028936286 0.014316629 -0.012988724 0.004646748 -0.008054101 0.0097155925 -0.039375786
0.01202985 0.027438797 -0.0019707824 -0.007366019 -0.027920028 -0.0021461637 0.04046502 0.007981072
-0.00894545 -0.015811708 0.025823843 0.0018512137 -0.0040140813 -0.008802937 0.0 -0.0087989615
0.033215165 0.0015865169 0.032531526 0.013333688 0.043482516 -0.021610731 0.075519085 0.007056484
-0.010883067 -0.010469116 0.0061229044 0.016634274 0.07871138 0.01790004 0.02536024 0.049910475
-0.04403292 0.06072911 -0.021765608 0.030770456 -0.021929529 0.008116177 0.01673287 0.03992607
-0.02039857 0.03685377 0.055072624 0.054722514 -0.01589654 0.025455406 0.018863758 -0.014381914
-0.013907618 0.043191858 -0.0050537707 -0.005596315 -0.004461467 0.04076221 -0.011974234 -0.033608958
0.004206969 0.030726358 0.016402522 0.054669727 -0.004379512 -0.00788082 0.044518717 0.009459837
-0.03511799 -0.018088745 0.012094358 -0.032789335 0.02652276 0.0016187028 -0.040894277 -0.024639532
-0.012894827 0.015251178 -0.011067144 -0.008341839 -0.020447928 0.06812737 0.01841119 -0.018126208
-0.010626986 -0.017005509 -0.0100493645 0.06666687 0.007262812 -0.020651955 0.04699757 0.028531805
-0.037802517 0.04030974 -0.0077695134 6.226185e-05 0.048872784 0.047198705 0.009682692 -0.00901831
0.04586042 0.06519127 0.049520165 0.036286645 -0.020562056 0.068876006 0.012418605 -0.005856225
0.015410775 0.012723705 -0.026283652 0.018290179 0.06635245 0.003384895 -0.008910202 0.059015624
0.06613076 -0.006626811 0.013351561 -0.0063370788 -0.00879506 0.009265235 0.025129016 -0.029280543
-0.030290628 0.005773454 0.0115274275 0.039983563 0.026274588 -0.015037119 -0.015121876 -0.016935032
0.02140701 -0.01552872 -0.0059173317 -0.0021775062 -0.024229474 0.018780094 0.038099937 0.067368686
0.006564635 -0.0031352923 -0.007959914 0.05990845 0.048804555 0.016006663 -0.005728527 -0.014912353
0.037951194 0.02058168 0.06490032 -0.014153096 0.028678125 0.0092836395 -0.02129335 -0.009480361
0.0030302845 0.066026814 -0.0049453503 -0.004063423 -0.02841166 0.026457874 -0.011211116 0.04644835
-0.0067928247 0.031177334 -0.004800257 0.061024517 0.059209015 0.00012357614 -0.03121552 0.0
0.081651315 -0.0018557665 -0.0051448112 0.0006573049 -0.009370297 -0.0063563376 0.013017358 -0.013733522
0.0013080381 0.0068677887 0.04897767 0.042755276 -0.0031941852 0.0060206824 0.030989936 -0.012525524
0.005905533 -0.010161738 -0.0088237915 0.06644929 0.06197847 -0.004207451 -0.014773182 -0.01467503
0.006654093 0.050671525 -0.02027625 -0.013008575 0.001796643 -0.012446449 0.0023365186 0.04230152
0.02452711 0.010128889 0.043974176 -0.024654696 0.0 -0.017128328 -0.022470385 0.0
-0.010976321 0.0674941 -0.009983176 -0.014085448 0.016994903 -0.02484277 -0.010121492 -0.015919456
-0.0042917742 -0.007983556 -0.015168628 0.038943812 -0.0100572705 -0.0046215244 0.032828216 0.052366763
0.00046382932 0.076408714 0.0 0.04409788 0.016097594 0.020786354 -0.0011517751 -0.01361578
0.054788776 0.025295068 0.039486628 0.022921791 0.013631708 0.01832489 0.063732 0.045454767
-0.014037153 0.018934088 0.017816698 -0.006538497 0.04417135 0.005541483 0.060571734 0.022563763
00000000: 5254 3a3d ca0b ed3c 4b90 6a3c a8ce 54bc
00000010: bf43 983b 59f5 03bc 262e 1f3c 8148 21bd
00000020: d918 453c 54c7 e03c 3e28 01bb a55e f1bb
00000030: 8bb8 e4bc a7a6 0cbb a6be 253d 0bc3 023c
00000040: f08f 12bc 8e87 81bc 868c d33c 6da4 f23a
00000050: 8e88 83bb 323a 10bc 0000 0000 8529 10bc
00000060: a00c 083d acf2 cf3a c73f 053d 8a75 5a3c
00000070: b91a 323d fd08 b1bc c0a9 9a3d 143a e73b
00000080: e44e 32bc a886 2bbc a5a2 c83b 9a44 883c
00000090: 6f33 a13d 1ba3 923c 47c0 cf3c ed6e 4c3d
000000a0: dd5b 34bd 16bf 783d ca4d b2bc 5312 fc3c
000000b0: 8ea5 b3bc b7f9 043c 5f13 893c 8589 233d
000000c0: e71a a7bc fbf3 163d d593 613d b724 603d
000000d0: 7639 82bc db87 d03c 2b88 9a3c 1fa2 6bbc
000000e0: c7dc 63bc f2e9 303d 1a9a a5bb 4b61 b7bb
000000f0: 7f31 92bb 46f6 263d 942f 44bc 8ca9 09bd
00000100: 9dda 893b d8b5 fb3c 955e 863c 5ded 5f3d
00000110: 0282 8fbb 8e1e 01bc 4259 363d 6ffd 1a3c
00000120: e2d7 0fbd d92e 94bc 6a27 463c 1c4e 06bd
00000130: 4246 d93c a72a d43a c280 27bd d8d8 c9bc
00000140: d344 53bc 14e0 793c f752 35bc 35ac 08bc
00000150: 6a82 a7bc 5d86 8b3d 10d3 963c 6a7d 94bc
00000160: cf1c 2ebc 234f 8bbc 17a6 24bc a488 883d
00000170: e2fc ed3b 4a2e a9bc 8680 403d 88bb e93c
00000180: d0d6 1abd d31b 253d 6797 febb 9492 8238
00000190: d42e 483d 6e53 413d 27a4 1e3c 89c1 13bc
000001a0: 23d8 3b3d 0083 853d a8d5 4a3d 4ea1 143d
000001b0: c271 a8bc dd0e 8d3d 6877 4b3c 93e5 bfbb
000001c0: 7a7d 7c3c 1677 503c d050 d7bc 49d5 953c
000001d0: cbe3 873d 1dd5 5d3b 19fc 11bc 5eba 713d
000001e0: 906f 873d b825 d9bb 81c0 5a3c 45a7 cfbb
000001f0: 2819 10bc 36cd 173c 5edb cd3c c0dd efbc
00000200: 0d24 f8bc 3e2f bd3b 89dd 3c3c cec5 233d
00000210: ce3d d73c 405e 76bc bfc1 77bc 56bb 8abc
00000220: c15d af3c 2c6c 7ebc 2de6 c1bb 7eb4 0ebb
00000230: e47c c6bc b6d8 993c ae0e 1c3d 98f8 893d
00000240: 261c d73b 7a79 4dbb 4d6a 02bc 9062 753d
00000250: 49e7 473d 6820 833c 5eb6 bbbb f152 74bc
00000260: b672 1b3d e99a a83c 75ea 843d 63e2 67bc
00000270: 63ee ea3c 681a 183c 646f aebc 8453 1bbc
00000280: bd97 463b 1139 873d 9b0c a2bb 7626 85bb
00000290: 92bf e8bc 2fbe d83c d4ae 37bc a040 3e3d
000002a0: 5896 debb 9c67 ff3c 794b 9dbb d8f4 793d
000002b0: 2785 723d 3894 0139 b1b7 ffbc 0000 0000
000002c0: ce38 a73d 313d f3ba ce95 a8bb fc4e 2c3a
000002d0: e085 19bc d348 d0bb c246 553c 9102 61bc
000002e0: 7a72 ab3a 300b e13b cf9c 483d 2820 2f3d
000002f0: 8955 51bb 2549 c53b 9bde fd3c db37 4dbc
00000300: 3483 c13b 6b7d 26bc aa91 10bc 9116 883d
00000310: 23dd 7d3d a8de 89bb 370b 72bc 896f 70bc
00000320: 940a da3b f28c 4f3d 611a a6bc eb21 55bc
00000330: 567d eb3a 31ec 4bbc 4720 193b 5c44 2d3d
00000340: 14ed c83c a4f3 253c 441e 343d a5f8 c9bc
00000350: 0000 0000 b550 8cbc d013 b8bc 0000 0000
00000360: 07d6 33bc 593a 8a3d 7a90 23bc a7c6 66bc
00000370: e538 8b3c 1183 cbbc 9dd4 25bc 8569 82bc
00000380: 03a2 8cbb 76cd 02bc d685 78bc 8c83 1f3d
00000390: 40c7 24bc 2870 97bb e176 063d 887e 563d
000003a0: 1e2e f339 2c7c 9c3d 0000 0000 fb9f 343d
000003b0: 1adf 833c 2548 aa3c 29f7 96ba b814 5fbc
000003c0: 326a 603d 9a37 cf3c bbbc 213d 7bc6 bb3c
000003d0: 8757 5f3c 141e 963c ec85 823d c72e 3a3d
000003e0: 16fc 65bc a91b 9b3c 53f4 913c e340 d6bb
000003f0: 04ed 343d 5495 b53b 111a 783d a4d7 b83c

sequential_6/conv1d_14/BiasAdd/ReadVariableOp f4 [45]
-0.009325414 0.02607571 -0.01935782 0.0017191258 0.008265146 0.023502342 0.0038646841 -0.027999649
-0.028955849 0.0064918557 -0.030813776 0.009197135 0.0010341735 0.028423842 0.041350875 0.025172474
0.0 -0.03778168 -0.0033567443 0.034837335 0.022020714 -0.010956801 0.0038452095 0.039176766
-0.014962823 0.02433494 0.009518336 -0.01955621 0.016665794 0.036105156 0.0058576297 -0.029857855
-0.012671403 -7.915177e-05 0.043470692 -0.029559819 0.030061461 0.010540036 0.016856184 0.03601803
-0.0059874663 -0.008414426 0.00825963 0.03358506 0.025217531
00000000: 9fc9 18bc ba9c d53c 4a94 9ebc 4a54 e13a
00000010: 896a 073c fc87 c03c a446 7d3b 855f e5bc
00000020: d134 edbc a2b9 d43b 2c6d fcbc 95af 163c
00000030: 1b8d 873a 1ed9 e83c 895f 293d 8136 ce3c
00000040: 0000 0000 f6c0 1abd d3fc 5bbb 98b1 0e3d
00000050: c964 b43c 2784 33bc e9ff 7b3b d177 203d
00000060: a126 75bc 115a c73c cbf2 1b3c 5834 a0bc
00000070: b486 883c 00e3 133d 5cf1 bf3b 7698 f4bc
00000080: b79b 4fbc 48fe a5b8 530e 323d 6f27 f2bc
00000090: 7443 f63c 1db0 2c3c fb15 8a3c a487 133d
000000a0: 8232 c4bb a9dc 09bc 6653 073c 7d90 093d
000000b0: ff94 ce3c

sequential_6/conv1d_13/BiasAdd/ReadVariableOp f4 [45]
0.029260358 -0.013228926 -0.0030747093 -0.012509363 -0.012898223 -0.01713481 0.02092102 0.014964335
0.020408558 0.00016659303 -0.017844945 0.0 0.021492938 -0.029316353 -0.018964387 -0.0110626705
-0.02569731 -0.09386124 -0.0026360285 -0.03595123 0.033692747 0.0057617677 -0.03771971 -0.0036363995
-0.0043526036 -0.044666216 0.012501842 0.0127178235 -0.03254771 -0.05455825 0.022158379 -0.018686708
0.012244093 -0.025174623 0.028752957 0.00063500635 -0.015194667 0.06371841 0.026257971 -0.02518945
-0.028889723 -0.0526056 -0.07791796 -0.05555022 -0.035526752
00000000: 6bb3 ef3c 23be 58bc 1081 49bb 12f4 4cbc
00000010: 1153 53bc 4d5e 8cbc 8f62 ab3c f82c 753c
00000020: d92f a73c 7aaf 2e39 902f 92bc 0000 0000
00000030: f511 b03c d928 f0bc 345b 9bbc 3440 35bc
00000040: 2a83 d2bc 523a c0bd 38c1 2cbb 9941 13bd
00000050: 6801 0a3d 36cd bc3b fc7f 1abd a950 6ebb
00000060: 49a0 8ebb ecf3 36bd 87d4 4c3c 6b5e 503c
00000070: bf50 05bd 7978 5fbd 7d85 b53c de14 99bc
00000080: 739b 483c 033b cebc 528b eb3c 8e76 263a
00000090: 0df3 78bc cc7e 823d f51a d73c 1b5a cebc
000000a0: 24aa ecbc f878 57bd 7493 9fbd a188 63bd
000000b0: 8084 11bd

sequential_6/dense_12/MatMul f4 [784, 45]
0.016973266 0.025765631 -0.055195104 0.13101152 -0.10286246 0.09602429 0.02435002 0.10328278
-0.0130163925 0.1131617 -0.14471164 0.046094764 0.062383085 0.09815303 0.04065163 0.033068374
-0.024964191 0.007007003 -0.028214762 0.0011778352 0.08481534 -0.03266985 0.03911329 -0.16159618
0.041612938 0.11350603 0.06380985 -0.037341442 -0.11033993 0.042390093 0.0062461547 0.028199844
-0.21222106 -0.040633723 0.028493037 0.027658377 0.021619678 0.03226186 -0.05355241 0.05634683
-0.062778614 0.026628576 -0.06817439 0.17607397 0.08107862 0.047685113 -0.022368744 0.036704283
0.08176564 -0.0371767 -0.025470268 0.02987855 0.045774978 -0.038757 0.09338681 -0.060513586
-0.11564726 0.12789236 0.09732755 0.004091414 -0.025317825 0.059574626 0.03114627 0.0077223293
0.06698062 -0.06278078 -0.123609245 0.05561231 -0.016528282 0.041401263 -0.15829566 -0.0070165647
0.018360594 -0.072646424 0.100111924 -0.12137026 0.0010783958 -0.21669643 -0.048964396 0.0928774
0.028524408 -0.06428399 0.19678281 0.08166551 -0.042591754 -0.07561937 0.02636889 -0.12755074
0.15945905 0.10116546 0.055817135 -0.020845842 0.056092124 -0.053570293 -0.0472768 -0.041196402
0.04723787 -0.026341552 0.10432489 0.00421263 0.03678819 -0.16702743 0.15375799 -0.009336194
-0.04593175 0.101471804 -0.057623945 -0.07965134 0.04293804 0.019146755 -0.17207964 -0.02341473
0.23262435 0.034389123 -0.0073672035 -0.21821636 -0.076511726 0.10561033 0.15667897 0.05196135
-0.13416015 0.12374387 -0.071226664 0.108567804 -0.013305947 0.045758024 0.037577152 0.13186686
0.13236988 0.060231626 0.04287641 0.015147107 -0.06524824 -0.034320746 0.061223518 0.077468045
-0.143251 -0.06408648 0.045348532 0.16054131 0.0035807483 -0.06022476 -0.0077556456 0.012185704
-0.20704181 0.18026218 0.04004531 0.061834518 0.025720716 -0.073486395 0.04401895 0.0027776584
-0.002262467 0.06771824 -0.05626495 -0.1324867 0.03651264 0.12227192 0.16906989 -0.06246045
-0.10930355 -0.07161213 0.044476204 0.2057015 -0.0133415265 0.02627053 -0.046988722 0.0883108
0.23400596 -0.10013209 0.0009036143 -0.07107302 0.023105163 0.19890837 0.019811595 -0.028813325
0.035079435 0.108339794 -0.037689973 -0.057973135 -0.09885454 -0.027648557 -0.03573716 -0.02154527
0.16405444 0.092419595 -0.031169066 -0.08838305 -0.0037758572 0.031795762 -0.015217534 0.10574233
-0.085751355 -0.07047219 -0.0019365898 0.07368404 0.005396694 -0.062014047 0.05548729 0.010514056
0.123985454 0.02038368 -0.099318445 0.035682227 -0.04778725 0.08933138 -0.010448243 -0.05038791
-0.12788616 -0.0606502 0.029528206 -0.09460021 0.109782256 0.019426359 0.048191804 0.008921744
0.08075965 0.002142834 0.004935282 0.069516055 0.055104233 -0.12091345 0.009667908 -0.07871972
0.06857526 -0.026368978 0.05543199 -0.0627004 -0.03874011 -0.06942055 -0.07854189 0.0027998087
-0.041494135 0.028171035 0.070212 -0.00077640265 -0.036209777 0.060645614 -0.092736445 0.030437412
-0.07298648 0.053173788 -0.0342954 -0.04483877 -0.07720055 -0.06373264 0.00066306716 0.064288855
-0.007841068 -0.0034310818 -0.07131401 0.060672753 -0.0673419 0.013953676 0.013214985 -0.082260095
00000000: 850b 8b3c 7212 d33c 4314 62bd e227 063e
00000010: 8ea9 d2bd 62a8 c43d b179 c73c ec85 d33d
00000020: b542 55bc 52c1 e73d 4a2f 14be ddcd 3c3d
00000030: 6885 7f3d 7504 c93d 5382 263d b472 073d
00000040: b481 ccbc 009b e53b a522 e7bc 9761 9a3a
00000050: aab3 ad3d d2d0 05bd 4235 203d 7879 25be
00000060: 5472 2a3d d975 e83d bdae 823d 57f3 18bd
00000070: e7f9 e1bd 3ca1 2d3d 8bac cc3b 5c03 e73c
00000080: 7a50 59be 8c6f 26bd 3b6a e93c d293 e23c
00000090: c01b b13c 0325 043d c659 5bbd efcb 663d
000000a0: 1392 80bd 2c24 da3c 049f 8bbd bc4c 343e
000000b0: 8c0c a63d 7751 433d a83e b7bc 3b57 163d
000000c0: be74 a73d 9846 18bd 06a7 d0bc dcc3 f43c
000000d0: 8b7e 3b3d a9bf 1ebd 9541 bf3d 18dd 77bd
000000e0: 78d8 ecbd 37f6 023e ab53 c73d 4511 863b
000000f0: 5467 cfbc 8604 743d 7626 ff3c 980b fd3b
00000100: 232d 893d 3693 80bd d826 fdbd bcc9 633d
00000110: 5266 87bc 5f94 293d 4218 22be 36eb e5bb
00000120: f568 963c a6c7 94bd 7b07 cd3d f990 f8bd
00000130: f558 8d3a abe5 5dbe e48e 48bd 8236 be3d
00000140: 05ac e93c 53a7 83bd 6f81 493e 3f40 a73d
00000150: b174 2ebd 54de 9abd 9203 d83c a99c 02be
00000160: 3c49 233e d62f cf3d 82a0 643d e6c4 aabc
00000170: dbc0 653d 866c 5bbd 51a5 41bd 8fbd 28bd
00000180: 7f7c 413d 3dca d7bc 4aa8 d53d 1a0a 8a3b
00000190: 37af 163d 3d09 2bbe bc72 1d3e d6f6 18bc
000001a0: ee22 3cbd 73d0 cf3d 1607 6cbd 3e20 a3bd
000001b0: ccdf 2f3d a8d9 9c3c a535 30be 3fd0 bfbc
000001c0: 1435 6e3e 9cdb 0c3d 9568 f1bb 1c74 5fbe
000001d0: 2eb2 9cbd 3b4a d83d 7470 203e 6dd5 543d
000001e0: 4761 09be 6d6d fd3d 49df 91bd cc58 de3d
000001f0: 3001 5abc c46c 3b3d 80ea 193d 1b08 073e
00000200: f88b 073e 70b5 763d 2d9f 2f3d 922b 783c
00000210: dfa0 85bd e993 0cbd 83c5 7a3d 91a7 9e3d
00000220: 64b0 12be c63f 83bd 62bf 393d f164 243e
00000230: fdaa 6a3b 3dae 76bd 1223 febb 8ca6 473c
00000240: c502 54be a696 383e 8d06 243d 3146 7d3d
00000250: 40b4 d23c 0980 96bd 374d 343d 6009 363b
00000260: e645 14bb dcaf 8a3d 1476 66bd 98aa 07be
00000270: 478e 153d b369 fa3d a820 2d3e 87d6 7fbd
00000280: 8ada dfbd 61a9 92bd ae2c 363d 6aa3 523e
00000290: 6b96 5abc 4b35 d73c 3f77 40bd 4bdc b43d
000002a0: 429f 6f3e 0e12 cdbd 87e0 6c3a bb8e 91bd
000002b0: 0a47 bd3c a3ae 4b3e ed4b a23c ec09 ecbc
000002c0: 74af 0f3d 41e1 dd3d cd60 1abd 3d75 6dbd
000002d0: 4074 cabd 3a7f e2bc 2161 12bd b57f b0bc
000002e0: e3fd 273e 7c46 bd3d 4556 ffbc 2c02 b5bd
000002f0: 5f74 77bb 463c 023d f752 79bc 6f8f d83d
00000300: 689e afbd b953 90bd 2cd5 fdba a8e7 963d
00000310: c0d6 b03b 7102 7ebd a446 633d 2643 2c3c
00000320: 16ec fd3d adfb a63c 7867 cbbd 8727 123d
00000330: 90bc 43bd 5ff3 b63d 1b2f 2bbc 8e63 4ebd
00000340: 97f4 02be 586c 78bd 23e5 f13c c1bd c1bd
00000350: 85d5 e03d 0724 9f3c c564 453d 822c 123c
00000360: 5165 a53d ca6e 0c3b 25b8 a13b 6f5e 8e3d
00000370: fab4 613d 79a1 f7bd 2566 1e3c ce37 a1bd
00000380: 3071 8c3d c103 d8bc a80c 633d 1169 80bd
00000390: f3ad 1ebd 5c2c 8ebd 92da a0bd ff7c 373b
000003a0: c1f5 29bd f1c6 e63c 4fcb 8f3d 8087 4bba
000003b0: b450 14bd 8967 783d 9bec bdbd e157 f93c
000003c0: f079 95bd c2cc 593d 5579 0cbd dca8 37bd
000003d0: 521b 9ebd 4286 82bd afd1 2d3a e0a9 833d
000003e0: d377 00bc 00dc 60bb 140d 92bd fe83 783d
000003f0: 8dea 89bd f69d 643c aa83 583c fb77 a8bd

sequential_6/dense_13/MatMul f4 [4, 784]
0.13498984 0.17898999 0.09880652 -0.29322866 -0.1936794 -0.036928408 -0.20971963 -0.03907106
-0.018668896 0.14648114 -0.057524223 0.04948548 -0.049610198 -0.22337632 0.010566626 -0.075078525
0.07477642 -0.014700521 -0.04964345 -0.25913006 -0.034846224 0.05089901 0.02220463 -0.040846735
-0.09439192 -0.18587524 0.18739454 -0.23509955 0.01228905 -0.031531278 0.08286931 0.0662796
-0.08693392 0.004574439 -0.015768694 0.050971188 0.071768835 0.14361037 -0.036589295 0.09251244
0.06435742 0.074021935 -0.007016568 0.12985085 -0.18926741 -0.07740452 0.10062227 -0.051231563
-0.26018706 -0.02934512 0.07319568 0.082985245 -0.10704389 0.12896104 0.015180628 -0.06784353
0.0012212209 -0.0024808145 -0.107216306 0.04587846 0.022131452 0.23455934 0.12549105 0.03500688
-0.24719296 0.19558075 0.11908028 0.011009342 -0.18306872 0.028223766 0.024210375 0.02375132
-0.17015333 -0.016173353 0.021081673 -0.119446054 -0.004387576 0.44121507 -0.10717089 -0.09885781
-0.0068857702 -0.18055467 -0.022158613 0.05546629 0.050210625 0.09885059 -0.13238247 0.02824564
-0.030969623 0.03517548 -0.1510192 0.08791777 0.036048487 -0.02140198 0.16456482 -0.106299736
-0.120204024 0.011358763 0.058603372 -0.11867827 -0.01624206 -0.030217906 0.039010745 0.023634735
-0.2633888 0.16271773 0.16447146 0.13977186 0.001053904 0.13118064 0.04898006 -0.031988457
0.07641315 -0.21007486 -0.16720301 0.06491598 0.23100734 -0.16678853 -0.05725137 0.12793678
0.0826334 -0.053951494 0.061491214 -0.06719963 -0.13293892 -0.12957741 -0.042386092 -0.19742821
-0.036777876 -0.08627903 -0.043163218 0.12550104 0.08265147 -0.1646425 -0.17063762 -0.0506467
0.12422657 0.05485765 -0.062245756 -0.18121815 -0.04861413 0.01574269 0.072735265 0.16034423
0.09802666 -0.25744256 -0.06548461 0.06183413 0.07208067 0.14653513 -0.05042104 -0.059382726
0.14682674 0.13202526 0.062998675 -0.2066151 -0.1475856 -0.06704288 0.05913716 -0.001999991
0.030055162 0.20289485 -0.16340886 -0.22086859 -0.12774684 -0.057623025 -0.116299585 0.13393976
-0.30648747 0.08841726 -0.05050857 0.18014899 0.164349 -0.01255678 -0.14487894 -0.07581284
0.0684869 0.01941473 -0.13559394 -0.19006184 -0.014520045 0.07691015 -0.19697025 0.022380203
-0.057206303 0.08123246 0.12847832 0.10187576 0.39280903 -0.17163701 0.040504888 0.061660796
0.036963675 -0.00509031 -0.027331755 0.0018327915 0.12602481 -0.16597034 -0.05351843 -0.2689154
-0.27626777 0.13690142 -0.041055698 -0.057368513 -0.08811389 -0.09773423 -0.057849757 0.09355231
0.07139003 0.11118042 0.1270291 -0.03460875 -0.0484698 -0.06141301 -0.07556519 -0.04805773
-0.15648548 0.14394908 0.063341275 -0.0065859277 -0.14899564 -0.046573192 0.30995578 -0.18972851
0.058594044 -0.06585446 -0.014211763 0.02777848 -0.25067613 -0.15116018 0.05249517 0.14638713
-0.034419507 0.10452721 -0.05865006 -0.05598977 0.06544884 0.08582109 -0.021647725 -0.13711533
0.23778011 0.07212887 -0.012345475 -0.08843853 -0.13766015 0.04228605 0.031406403 0.13468768
-0.14072014 0.0035505975 -0.22473201 -0.075703435 0.12536412 0.1537441 0.12636264 -0.08654926
00000000: c73a 0a3e 2749 373e 135b ca3d 1122 96be
00000010: e553 46be 3e42 17bd bec0 56be fa08 20bd
00000020: 83ef 98bc 27ff 153e 859e 6bbd 49b1 4a3d
00000030: 1034 4bbd c3bc 64be a41f 2d3c c5c2 99bd
00000040: 6124 993d 74da 70bc ee56 4bbd b2ac 84be
00000050: eaba 0ebd 7b7b 503d 7ce6 b53c e84e 27bd
00000060: 8d50 c1bd 1456 3ebe 5be4 3f3e f0bd 70be
00000070: 0358 493c f126 01bd 63b7 a93d 99bd 873d
00000080: 690a b2bd 2de5 953b 592d 81bc 2ac7 503d
00000090: 8afb 923d 990e 133e a8de 15bd 2a77 bd3d
000000a0: d3cd 833d d098 973d 3deb e5bb 9ff7 043e
000000b0: 51cf 41be 4386 9ebd 0c13 ce3d 30d8 51bd
000000c0: 3d37 85be 2d65 f0bc 9ee7 953d 2bf4 a93d
000000d0: d439 dbbd 5d0e 043e 2bb8 783c 8cf1 8abd
000000e0: 6011 a03a 2995 22bb 3994 dbbd 0deb 3b3d
000000f0: 054d b53c 5330 703e ba80 003e 6063 0f3d
00000100: 2720 7dbe 5246 483e 5de0 f33d 8760 343c
00000110: 5e76 3bbe 8735 e73c d654 c63c 2192 c23c
00000120: ad3c 2ebe fb7d 84bc 79b3 ac3c 22a0 f4bd
00000130: a8c5 8fbb f1e6 e13e 697c dbbd f775 cabd
00000140: 07a2 e1bb 53e3 38be fb85 b5bc 9f30 633d
00000150: a8a9 4d3d 2e72 ca3d 458f 07be 6763 e73c
00000160: 02b4 fdbc 2a14 103d c7a4 1abe 3b0e b43d
00000170: 94a7 133d 3553 afbc ae83 283e adb3 d9bd
00000180: 872d f6bd 1b1a 3a3c 170a 703d 980d f3bd
00000190: 120e 85bc 8b8b f7bc bbc9 1f3d a29d c13c
000001a0: e6da 86be 7a9f 263e 356b 283e 5b20 0f3e
000001b0: 2623 8a3a 3854 063e 519f 483d 5406 03bd
000001c0: 7f7e 9c3d dd1d 57be 4437 2bbe abf2 843d
000001d0: 308d 6c3e 9dca 2abe 6a80 6abd dc01 033e
000001e0: b33b a93d 3efc 5cbd 36de 7b3d f69f 89bd
000001f0: 2421 08be f1af 04be 0a9d 2dbd 9f2a 4abe
00000200: 66a4 16bd 0fb3 b0bd eacb 30bd 5883 003e
00000210: 2d45 a93d 0b98 28be a1bb 2ebe ea72 4fbd
00000220: 806a fe3d 6ab2 603d 68f5 7ebd 4091 39be
00000230: 9c1f 47bd d0f6 803c 3af6 943d 4731 243e
00000240: 34c2 c83d 83cf 83be cc1c 86bd c945 7d3d
00000250: 089f 933d 4e0d 163e 4b86 4ebd 4d3b 73bd
00000260: c059 163e a131 073e 7305 813d e992 53be
00000270: ae20 17be c74d 89bd cf39 723d 4812 03bb
00000280: 3e36 f63c abc3 4f3e a754 27be 602b 62be
00000290: 11d0 02be 1f06 6cbd 7a2e eebd 8127 093e
000002a0: edeb 9cbe 1c14 b53d 13e2 4ebd fa78 383e
000002b0: 1b4b 283e f4ba 4dbc 255b 14be c343 9bbd
000002c0: dc42 8c3d a40b 9f3c 23d9 0abe 929f 42be
000002d0: 7ce5 6dbc 1283 9d3d 92b2 49be b056 b73c
000002e0: 2851 6abd 345d a63d d28f 033e 3da4 d03d
000002f0: 441e c93e 9dc1 2fbe 74e8 253d 0890 7c3d
00000300: 3967 173d 9dcc a6bb d8e6 dfbc 473a f03a
00000310: a60c 013e 21f4 29be 2436 5bbd 48af 89be
00000320: f872 8dbe e32f 0c3e 052a 28bd 3ffb 6abd
00000330: 0e75 b4bd e228 c8bd def3 6cbd 5a98 bf3d
00000340: f034 923d 8fb2 e33d eb13 023e e8c1 0dbd
00000350: 4588 46bd 358c 7bbd ecc1 9abd 2fd8 44bd
00000360: bb3d 20be 6367 133e 12b9 813d c4ce d7bb
00000370: 5092 18be 88c3 3ebd 86b2 9e3e 3148 42be
00000380: 4f00 703d b4de 86bd 74d8 68bc b28f e33c
00000390: 9f58 80be bcc9 1abe 2d05 573d 82e6 153e
000003a0: 78fb 0cbd 5d12 d63d 0c3b 70bd 8755 65bd
000003b0: 0b0a 863d f8c2 af3d 9256 b1bc f667 0cbe
000003c0: a17c 733e 4db8 933d ad44 4abc 431f b5bd
000003d0: c8f6 0cbe 2334 2d3d 00a4 003d 91eb 093e
000003e0: f118 10be 24b1 683b 2620 66be 670a 9bbd
000003f0: 745f 003e 186f 1d3e 3565 013e bd40 b1bd

sequential_6/conv1d_13/Conv1D f4 [45, 1, 3, 10]
-0.006930671 0.056020327 -0.19458668 -0.17697763 -0.13396211 0.08509649 -0.05690786 0.12599175
-0.041769672 0.011169074 -0.003280544 0.032404378 0.06596892 0.3086066 -0.26291725 -0.09195144
-0.20320831 0.1197662 -0.20700271 -0.0979461 0.108411565 0.19604616 -0.1310709 0.19379225
0.037262343 -0.066305004 0.12520401 0.08159168 -0.28634652 -0.10048243 0.018438479 0.041379552
0.023439864 -0.30329952 -0.11767467 -0.05151686 -0.13208951 -0.06441257 0.043604895 0.013809747
-0.21616209 0.07209366 -0.06514441 -0.08423565 -0.05879006 0.0519089 0.05107299 0.003528731
0.38372403 0.12921843 0.17354967 -0.036095772 0.23940381 0.16853943 -0.24135225 -0.2971782
-0.27844748 -0.08589327 -0.11378912 -0.01723875 -0.093879804 0.07810085 -0.12242119 0.14846906
0.18192251 -0.024030823 -0.054355826 0.20577258 0.07548238 -0.07740408 0.16664936 -0.004187433
-0.087179415 0.27981946 0.097179934 0.15473911 0.05041621 0.18192561 -0.23413889 -0.064747185
-0.1581035 0.02224202 0.046062957 0.016739469 0.113810055 -0.10566645 -0.14640582 -0.045024704
-0.18078263 -0.22853057 -0.17497256 -0.06427737 -0.05406451 -0.21618049 -0.110995136 0.035322238
0.21805616 0.09860829 0.32829782 0.25763187 -0.12993738 -0.018517053 -0.12832084 -0.06170819
0.16864103 0.11739822 0.06353112 -0.118322305 0.05161499 -0.13347383 -0.0040727756 -0.09521057
0.111117795 -0.22037062 0.008206988 0.20608027 0.1945297 -0.02761339 0.4553394 0.007314455
0.09507864 -0.07997571 -0.14887294 0.053978574 0.16525945 0.1376101 -0.010088108 0.11502207
0.12746833 -0.21201333 0.026473412 -0.029627936 0.16143365 0.090045765 -0.10088353 0.041497722
-0.07123938 -0.12697124 -0.0031639785 0.03439421 0.00921683 0.088454984 -0.20695147 0.020436905
-0.2842202 -0.088037804 -0.24931145 0.0897751 -0.26285246 -0.31246 -0.043801103 0.25836986
-0.16652945 0.22792664 0.12240226 0.31072223 -0.10355335 -0.17471884 0.041239772 -0.21087141
-0.051450204 -0.05850766 0.09927105 -0.1139337 -0.19846468 0.1361285 -0.054648556 0.038343694
-0.18443511 -0.14222115 0.0180852 0.08547104 0.051672053 -0.43554574 0.17063801 -0.019069472
0.08017844 0.042059664 0.020979933 0.192174 0.09076678 -0.056327246 0.28196225 0.0634759
0.24904041 0.17994711 0.0033494039 -0.06256983 0.14803249 0.13389276 0.10551711 -0.25528157
0.029814212 -0.029746031 -0.17761032 -0.22511974 -0.13194095 -0.022139726 -0.17719997 -0.12741211
-0.116968684 -0.30046657 0.14867644 0.03462879 -0.1280435 -0.20188113 0.15278134 0.18217222
-0.19127664 0.072443 0.13667218 -0.09864778 -0.05198009 -0.12731753 -0.18457392 0.038600158
0.036647104 0.1756205 0.18061386 0.17954683 -0.17231013 -0.05816917 -0.050281983 -0.08444201
-0.14788528 -0.104537986 0.09033705 -0.18292779 -0.019216377 -0.09178593 0.02644479 0.23987742
0.036931865 0.06996171 0.15005587 0.11297381 0.07478937 0.15516822 -0.17464435 -0.014428131
0.03486681 -0.18479952 0.19601077 -0.12815379 -0.20165706 0.02714986 -0.018614415 -0.12220358
-0.32283726 -0.049676538 0.0037789482 0.23315343 -0.026008422 0.113902465 0.18193209 0.19125777
00000000: af1a e3bb 9275 653d bb41 47be a039 35be
00000010: 5d2d 09be 1247 ae3d 3718 69bd fb03 013e
00000020: ad16 2bbd 7efe 363c 65fe 56bb 74ba 043d
00000030: b71a 873d af01 9e3e 179d 86be 0951 bcbd
00000040: d715 50be fb47 f53d 85f8 53be f797 c8bd
00000050: e206 de3d 53c0 483e 7337 06be 7a71 463e
00000060: 66a0 183d ebca 87bd 7b35 003e 8a19 a73d
00000070: 039c 92be bbc9 cdbd 4b0c 973c 9b7d 293d
00000080: f504 c03c 134a 9bbe 6bff f0bd 5803 53bd
00000090: 7942 07be bdea 83bd 0c9b 323d 4742 623c
000000a0: 9859 5dbe d7a5 933d 6f6a 85bd be83 acbd
000000b0: d9cd 70bd 6d9e 543d e931 513d 4842 673b
000000c0: 7a77 c43e d651 043e 01b7 313e 29d9 13bd
000000d0: 4626 753e 9a95 2c3e 0b25 77be be27 98be
000000e0: ab90 8ebe d0e8 afbd 450a e9bd 4738 8dbc
000000f0: 0e44 c0bd 57f3 9f3d f6b7 fabd 4608 183e
00000100: e549 3a3e 4adc c4bc 37a4 5ebd 0cb6 523e
00000110: 8296 9a3d 0886 9ebd 21a6 2a3e bc36 89bb
00000120: 1f8b b2bd 7f44 8f3e 4606 c73d ee73 1e3e
00000130: 3a81 4e3d b54a 3a3e 1bc2 6fbe 2c9a 84bd
00000140: e2e5 21be e634 b63c 83ac 3c3d 3621 893c
00000150: 3f15 e93d a767 d8bd 68eb 15be d36b 38bd
00000160: 151f 39be eb03 6abe 022c 33be dba3 83bd
00000170: bf72 5dbd 6b5e 5dbe 6b51 e3bd 0dae 103d
00000180: 1d4a 5f3e 25f3 c93d a716 a83e 53e8 833e
00000190: 4e0e 05be 13b1 97bc 8a66 03be bac1 7cbd
000001a0: 3cb0 2c3e 7a6e f03d 9b1c 823d f752 f2bd
000001b0: 3d6a 533d 5dad 08be eb74 85bb c2fd c2bd
000001c0: ba91 e33d d6a8 61be 9a76 063c b506 533e
000001d0: cb32 473e 7a35 e2bc 3f22 e93e 19ae ef3b
000001e0: 97b8 c23d 4eca a3bd 2672 18be a318 5d3d
000001f0: c639 293e a9e9 0c3e 9748 25bc b190 eb3d
00000200: 0f87 023e 061a 59be c5de d83c 49b6 f2bc
00000210: dd4e 253e ea69 b83d 069c cebd 84f9 293d
00000220: f4e5 91bd c004 02be c05a 4fbb f1e0 0c3d
00000230: 3002 173c e327 b53d 16eb 53be 4c6b a73c
00000240: 4f85 91be 2a4d b4bd 804b 7fbe 02dc b73d
00000250: 9994 86be c2fa 9fbe c968 33bd 0e49 843e
00000260: b286 2abe 9a65 693e 09ae fa3d fc16 9f3e
00000270: c713 d4bd 7fe9 32be 09eb 283d adee 57be
00000280: 73bd 52bd baa5 6fbd 9f4e cb3d 1256 e9bd
00000290: 533a 4bbe 4565 0b3e 2ad7 5fbd 470e 1d3d
000002a0: 8fdc 3cbe 6ca2 11be 6a27 943c 710b af3d
000002b0: 13a6 533d daff debe bbbb 2e3e 9537 9cbc
000002c0: 9834 a43d c146 2c3d 1cde ab3c 43c9 443e
000002d0: efe3 b93d 66b7 66bd 5b5d 903e a7ff 813d
000002e0: 7304 7f3e 0e44 383e ac81 5b3b 9c24 80bd
000002f0: d495 173e 2f1b 093e 5b19 d83d 44b4 82be
00000300: ef3c f43c f3ad f3bc 7bdf 35be ca85 66be
00000310: 871b 07be 5f5e b5bc e973 35be 5278 02be
00000320: 478d efbd c1d6 99be a33e 183e ebd6 0d3d
00000330: d61d 03be edb9 4ebe b672 1c3e 5b8b 3a3e
00000340: 06de 43be ff5c 943d cbf3 0b3e d907 cabd
00000350: 13e9 54bd 875f 02be f200 3dbe 331b 1e3d
00000360: 461b 163d dcd5 333e d7f2 383e 20db 373e
00000370: 1172 30be cc42 6ebd 7bf4 4dbd efef acbd
00000380: 3d6f 17be 0318 d6bd a202 b93d 6c51 3bbe
00000390: aa6b 9dbc 43fa bbbd bfa2 d83c 6da2 753e
000003a0: de45 173d 1648 8f3d 3fa8 193e d05e e73d
000003b0: 2b2b 993d 6be4 1e3e f8d5 32be f863 6cbc
000003c0: 80d0 0e3d 163c 3dbe 0cb7 483e bf3a 03be
000003d0: 307f 4ebe 6269 de3c 427d 98bc df45 fabd
000003e0: ed4a a5be a079 4bbd 3ba8 773b c6bf 6e3e
000003f0: 9d0f d5bc b245 e93d 684c 3a3e 14d9 433e

sequential_6/conv1d_14/Conv1D f4 [45, 1, 3, 45]
-0.14006893 -0.20162694 -0.08788857 0.09321317 -0.068331875 0.10514127 -0.021993414 -0.06562403
0.008527039 0.09191688 -0.107991405 -0.090630285 0.10710709 -0.0060232417 -0.08658114 0.11590072
0.019895678 -0.015075818 -0.10085297 0.11803988 -0.115460955 -0.086169295 -0.0010897146 0.06642033
-0.13427143 0.07069568 -0.0028201253 -0.07853563 0.017565273 -0.11658748 0.09332712 -0.013502458
-0.117559664 0.17373507 0.13219762 -0.07868646 -0.050082646 -0.17303437 -0.08083765 0.09481928
0.15013003 0.151588 0.06660817 -0.19310334 -0.13662429 0.17632577 0.23200674 0.032059807
0.33689433 -0.080628924 0.12808587 0.18604852 -0.024677057 -0.1873882 -0.04747887 0.1252974
-0.011441395 0.1926939 -0.18441832 0.02784232 -0.07237976 0.047661547 0.10285507 -0.039780345
-0.101433635 0.3455555 -0.22118996 -0.04833789 0.14900216 -0.04351628 0.19610302 0.054428145
-0.12855189 0.050687492 -0.03893941 0.060544353 0.023885189 0.057166055 -0.06816704 0.05891848
-0.17527512 0.06747504 0.20807332 -0.12084718 -0.072260894 -0.034864675 -0.05214913 0.12838842
-0.06501587 0.030766722 0.046677545 0.15402703 -0.059555884 0.19575667 -0.17745511 -0.11607644
0.12924679 0.1097168 0.036364406 -0.036390662 0.1545832 0.12427993 -0.04173325 -0.14003931
0.11919265 0.024268199 0.040728837 -0.16808817 -0.120367765 -0.02080642 -0.12805049 -0.11599041
-0.007830443 0.13566226 0.099586226 0.09668149 0.017885348 -0.03161731 0.048681125 -0.0741791
0.18645582 -0.15722245 -0.12797101 0.18781625 0.28321233 -0.04260084 -0.14442769 -0.2144555
-0.072968155 -0.12384072 -0.102503836 -0.008168555 0.14114992 0.047355704 -0.14726016 -0.0688036
0.10903562 0.22789292 0.043029547 0.11432298 -0.091124944 0.06687935 0.073724285 -0.1656942
0.003555925 0.025907412 0.071308196 -0.29092893 -0.24000807 0.17541814 -0.0016434806 -0.17158888
0.15055014 0.13388051 0.03473116 0.028308315 -0.14031248 0.10764938 0.089726664 0.10011984
0.06263412 -0.099764556 0.05256865 -0.014354472 -0.007597127 0.12380494 0.09881517 0.09358191
-0.12904647 -0.13514778 0.042236406 -0.09821106 -0.22344758 -0.45076865 0.12561923 -0.24428341
-0.06870936 0.017568974 -0.093763605 0.20806943 0.1705204 0.2600704 0.12165264 -0.1512346
-0.1458715 -0.1123148 0.20519824 0.113359846 -0.102797695 0.097974285 0.25324953 -0.11625673
-0.059988514 -0.049252816 -0.055106834 0.024085477 -0.038122825 0.099543035 -0.12561308 0.05457603
0.16414237 0.038126737 -0.19792381 0.15962337 0.017935738 -0.063148566 0.056315076 0.24027048
-0.030625636 -0.111103095 0.16611373 -0.0033364447 -0.104406185 0.08764882 0.13007152 -0.12389702
0.11902042 0.26302734 -0.010977599 -0.108683944 0.07818057 0.054530304 -0.071613885 -0.0187848
0.090555966 -0.23271257 -0.30415556 0.05699318 -0.18889503 0.027685542 -0.022181135 -0.12599692
-0.021720858 0.12143104 -0.0934647 0.027591145 -0.005622536 -0.055356156 -0.10152044 -0.1523877
0.4350933 -0.11721751 0.07656764 -0.09511586 -0.06979892 -0.345788 0.097551346 -0.039251663
-0.14628859 -0.059011716 -0.1785108 -0.14657162 -0.072136015 -0.09660913 -0.09383327 -0.13619407
00000000: 3b6e 0fbe 4b77 4ebe ecfe b3bd 8ce6 be3d
00000010: 95f1 8bbd 4e54 d73d 882b b4bc e465 86bd
00000020: feb4 0b3c eb3e bc3d 992a ddbd 5f9c b9bd
00000030: f65a db3d 9d5e c5bb 7451 b1bd 5b5d ed3d
00000040: 43fc a23c 9000 77bc 008c cebd e5be f13d
00000050: cb76 ecbd 8779 b0bd c1d4 8eba 6207 883d
00000060: 737e 09be e6c8 903d dad1 38bb 4ad7 a0bd
00000070: 0ce5 8f3c 6bc5 eebd 4a22 bf3d 6a39 5dbc
00000080: 1fc3 f0bd 9be7 313e d05e 073e 5e26 a1bd
00000090: 7623 4dbd ec2f 31be 368e a5bd 9c30 c23d
000000a0: b0bb 193e e239 1b3e dd69 883d e2bc 45be
000000b0: 3de7 0bbe be8e 343e 2d93 6d3e 2551 033d
000000c0: 6a7d ac3e c720 a5bd f128 033e 8183 3e3e
000000d0: 8a27 cabc b1e2 3fbe 3479 42bd f64d 003e
000000e0: b074 3bbc 8d51 453e 28d8 3cbe 9415 e43c
000000f0: d73b 94bd c138 433d aea5 d23d b7f0 22bd
00000100: 70bc cfbd a7ec b03e 9f7f 62be f4fd 45bd
00000110: 0694 183e 203e 32bd 3bcf 483e 0cf0 5e3d
00000120: 1ba3 03be b09d 4f3d ee7e 1fbd 5bfd 773d
00000130: dfaa c33c f426 6a3d 299b 8bbd 8154 713d
00000140: 527b 33be 5b30 8a3d 2c11 553e ba7e f7bd
00000150: 85fd 93bd 43ce 0ebd 539a 55bd 4178 033e
00000160: 0a27 85bd 7e0a fc3c f430 3f3d 43b9 1d3e
00000170: dff0 73bd 7074 483e cbb6 35be 7cb9 edbd
00000180: 4559 043e 34b3 e03d d8f2 143d 600e 15bd
00000190: 0f4b 1e3e 7a86 fe3d 7cf0 2abd 7766 0fbe
000001a0: 471b f43d 1ace c63c 48d3 263d 4e1f 2cbe
000001b0: 6083 f6bd 3a72 aabc ab1f 03be 618c edbd
000001c0: 424b 00bc 0ceb 0a3e ddf3 cb3d f200 c63d
000001d0: 4b84 923c 2781 01bd dc65 473d 36eb 97bd
000001e0: 46ee 3e3e ecfe 20be d50a 03be e752 403e
000001f0: 3501 913e 387e 2ebd dae4 13be 399a 5bbe
00000200: 5470 95bd 34a0 fdbd 88ed d1bd 67d5 05bc
00000210: 9b89 103e 0ef8 413d 5ecb 16be e7e8 8cbd
00000220: 114e df3d c35c 693e c03f 303d 2b22 ea3d
00000230: b79f babd 0af8 883d c2fc 963d beab 29be
00000240: 860a 693b c83b d43c 080a 923d a3f4 94be
00000250: adc4 75be d0a0 333e 0f6a d7ba ffb4 2fbe
00000260: d129 1a3e f917 093e 4342 0e3d d7e6 e73c
00000270: 13ae 0fbe 4777 dc3d 9dc2 b73d a10b cd3d
00000280: 5146 803d 5c51 ccbd 3a52 573d 052f 6bbc
00000290: 52f1 f8bb 728d fd3d 9c5f ca3d dfa7 bf3d
000002a0: c224 04be 2e64 0abe 1500 2d3d e122 c9bd
000002b0: 71cf 64be 26cb e6be 54a2 003e 6e25 7abe
000002c0: 7eb7 8cbd cfec 8f3c 2207 c0bd 2710 553e
000002d0: e69c 2e3e f327 853e 0525 f93d 3edd 1abe
000002e0: 575f 15be 4d05 e6bd 7d1f 523e 3529 e83d
000002f0: 9987 d2bd bea6 c83d eca9 813e 0218 eebd
00000300: 84b6 75bd 52bd 49bd b4b7 61bd e84e c53c
00000310: ae26 1cbd 38dd cb3d b7a0 00be 1d8b 5f3d
00000320: f014 283e c82a 1c3d 8aac 4abe 4f74 233e
00000330: f8ed 923c 0954 81bd a3aa 663d 7709 763e
00000340: 9de2 fabc 058a e3bd b819 2a3e 41a8 5abb
00000350: e9d2 d5bd 3981 b33d 7831 053e b9bd fdbd
00000360: fac0 f33d 85ab 863e 63db 33bc b095 debd
00000370: 221d a03d 2b5b 5f3d 4daa 92bd 95e2 99bc
00000380: 6875 b93d 344c 6ebe 47ba 9bbe ae71 693d
00000390: b36d 41be cacc e23c 36b5 b5bc 5605 01be
000003a0: f1ef b1bc d6b0 f83d 6c6a bfbd d306 e23c
000003b0: 403d b8bb 23bd 62bd f3e9 cfbd 850b 1cbe
000003c0: 8dc4 de3e bc0f f0bd 7fcf 9c3d 1bcc c2bd
000003d0: bcf2 8ebd 200b b1be 00c9 c73d 5ac6 20bd
000003e0: adcc 15be 45b6 71bd 89cb 36be df16 16be
000003f0: 0cbc 93bd 02db c5bd a82b c0bd 7576 0bbe
