models/model-pi10mins-contiguous.tflite (tflite, 241664 bytes, 8 tensors)

sequential_2/conv1d_4/BiasAdd/ReadVariableOp f4 [56]
0.015192456 -0.019952495 0.0 0.0060380097 -0.019240558 0.00981357 0.016404161 0.030348891
0.013090729 -0.013774463 0.042476673 0.018856224 0.012153212 0.02197691 0.041065417 0.028905258
0.025683831 0.016292004 0.022891 0.021095857 0.023097893 -0.0032411749 0.036795836 0.0001928437
0.028611908 0.0078853695 0.004276078 0.033328198 0.0059196795 0.0056575863 0.010526742 0.020746684
0.01961547 0.026504023 0.010816646 0.033458874 0.00528232 0.025973925 -0.014193887 0.031623263
0.0 0.015804272 -0.00018735764 0.02219062 -0.015171378 -0.0055431947 0.029856153 0.037283305
0.018794365 0.0038579872 0.0093520135 0.02076533 0.009129349 0.034682427 0.032176685 0.033775285
00000000: c7e9 783c 6a73 a3bc 0000 0000 7fda c53b
00000010: 609e 9dbc 19c9 203c 0562 863c 3d9e f83c
00000020: 7f7a 563c 49ae 61bc 05fc 2d3d 5e78 9a3c
00000030: 441e 473c ec08 b43c 3634 283d b8ca ec3c
00000040: e666 d23c cf76 853c e885 bb3c 38d1 ac3c
00000050: cb37 bd3c e469 54bb 3bb7 163d 1636 4a39
00000060: 8563 ea3c a331 013c 581e 8c3b 2683 083d
00000070: dff9 c13b 4663 b93b 5b78 2c3c f3f4 a93c
00000080: 9fb0 a03c f71e d93c 4d38 313c 2c0c 093d
00000090: 5017 ad3b 45c7 d43c 7a8d 68bc 6587 013d
000000a0: 0000 0000 f677 813c 6f75 44b9 1ac9 b53c
000000b0: 5f91 78bc b0a3 b5bb e494 f43c 61b6 183d
000000c0: a4f6 993c 49d6 7c3b 3039 193c 0e1c aa3c
000000d0: 4493 153c 290f 0e3d b3cb 033d f457 0a3d

sequential_2/conv1d_5/BiasAdd/ReadVariableOp f4 [56]
0.016643342 -0.006500413 0.01516631 0.0 0.0021827205 0.020230327 0.0 0.004283603
0.011845156 0.023167055 0.0022300188 0.0064760447 0.014477573 0.022388345 0.0067578135 0.0
0.007193005 0.0 0.015148483 0.0 -0.0077755745 0.011360432 0.0034964706 -0.006929241
0.0060905926 -0.0060025672 0.007934097 0.0024146312 0.009807186 0.0 0.02220241 0.00708441
-0.002088648 0.02386072 0.012354254 0.02842856 0.0058104377 0.0 0.016993655 -0.0030101135
0.012801048 -0.00573118 0.023064062 -0.0011112831 0.0061556785 -0.0060016923 0.015462163 0.009426402
0.011481731 0.00083733647 0.011422715 0.018629769 0.0 0.0022723773 -0.01037009 -0.0017721069
00000000: 9e57 883c 6b01 d5bb 1d7c 783c 0000 0000
00000010: f90b 0f3b 12ba a53c 0000 0000 775d 8c3b
00000020: 2f12 423c d6c8 bd3c 8225 123b 0035 d43b
00000030: 5833 6d3c c367 b73c a670 dd3b 0000 0000
00000040: 4db3 eb3b 0000 0000 5831 783c 0000 0000
00000050: 3fca febb 1b21 3a3c 0b25 653b b00e e3bb
00000060: 9893 c73b 2fb1 c4bb 04fe 013c ca3e 1e3b
00000070: 52ae 203c 0000 0000 d4e1 b53c 5724 e83b
00000080: b3e1 08bb 8f77 c33c 7f69 4a3c 03e3 e83c
00000090: 7c65 be3b 0000 0000 4736 8b3c 5345 45bb
000000a0: 7dbb 513c 9fcc bbbb d8f0 bc3c 79a8 91ba
000000b0: 93b5 c93b d8a9 c4bb 0355 7d3c 3271 1a3c
000000c0: df1d 3c3c b380 5b3a 5726 3b3c 759d 983c
000000d0: 0000 0000 2aec 143b 4fe7 29bc 0a46 e8ba

sequential_2/conv1d_4/Conv1D f4 [56, 1, 3, 10]
0.15265445 -0.0646818 0.1439129 0.1101028 0.032647986 0.05320318 0.15417536 0.0249568
0.12996526 0.063693486 -0.019800883 -0.07617769 0.030095153 -0.0064204577 0.18384822 0.19240026
0.06653129 -0.12464827 0.12499898 -0.0940635 -0.06232111 -0.075383104 -0.03743044 -0.14962526
0.12522341 0.18532375 -0.094488405 0.16740741 0.095757276 -0.15273136 0.04074141 -0.006570398
-0.061234154 0.042596027 -0.051063407 -0.12423482 -0.12966098 -0.14374344 0.07205752 -0.08014748
0.03657498 -0.068135075 -0.11272034 -0.17887531 0.14312223 0.1067944 0.13015142 -0.0042671883
-0.076906994 0.10272422 -0.19659217 -0.030453132 0.023013933 0.12781475 0.06312015 -0.10943595
0.007878179 -0.07520405 0.037367262 0.10416354 -0.08868137 0.030377552 0.038254544 0.08793542
0.15681642 -0.14710057 -0.011030763 -0.15300915 -0.17198178 -0.10832855 0.02180329 -0.12419723
-0.0069902837 0.012258381 0.16494521 -0.088606864 0.07841489 -0.063928105 -0.12509616 0.13892066
0.11289367 -0.08738335 -0.010157108 0.008462533 -0.06284039 0.11860424 -0.07455026 -0.033002213
-0.1297803 -0.13771242 0.04414195 0.12772006 0.036137905 0.10064882 -0.037359957 0.008964273
-0.008253074 0.070559785 -0.11010866 0.13663083 -0.08802705 0.03395727 0.01965164 0.10571596
-0.19722913 0.0030322045 -0.13130783 0.036825523 -0.027389657 -0.07637648 -0.1360779 0.14420523
0.1863946 -0.113428794 -0.08177215 -0.074328735 -0.09464103 -0.06719854 0.07669275 0.04893075
0.08961332 -0.059839986 0.14642306 -0.040565684 0.11064091 0.15222727 0.11944987 0.14306498
0.14353837 0.09916212 -0.14342913 0.067130156 0.13166282 -0.061853606 -0.077696554 -0.080268435
0.18012337 0.026069788 0.16055034 0.080249995 -0.11328618 -0.045472164 0.1383034 -0.15774903
0.15896119 -0.053712443 0.096024804 -0.12174369 0.0065978905 0.07200999 0.14089304 -0.0018676805
0.15261021 0.044324044 0.0032053739 0.14191435 -0.107284784 0.1753926 0.1541701 0.17075673
-0.16928248 0.14100493 0.1032674 0.15074381 0.13695426 0.14412326 0.14745209 -0.078657016
0.18218221 0.14508021 -0.15271275 0.10580861 0.16246752 -0.08784433 -0.0637585 0.09446525
-0.083548434 0.03091797 0.1323516 0.18224888 -0.042300083 0.15965647 -0.043385576 0.12217858
-0.10880002 0.10287773 0.11781252 0.03932343 -0.08980485 -0.016957663 0.10494682 0.03452356
0.07821209 0.03828096 0.049279556 -0.14204928 -0.044276834 -0.059773747 0.088327214 -0.10146163
0.035426985 0.07639269 0.1489495 0.18402529 -0.04568179 -0.14148559 0.027656117 0.101611055
0.121589184 0.028108647 -0.041867845 0.14975244 -0.12491479 -0.09018322 -0.16299494 0.055896237
-0.084557466 0.15537274 0.10757795 0.19533716 0.17984885 0.048518203 0.046053175 0.18591987
-0.078585275 -0.056966294 0.09633997 -0.1027313 -0.13550614 -0.12498128 -0.18984383 -0.061698787
0.014661757 -0.05377458 -0.15314204 0.14700192 0.11700384 0.098512545 -0.121347725 -0.0733426
-0.0994337 -0.12867233 0.03816761 -0.10621323 0.023295097 0.015429543 0.1564531 -0.033351958
-0.08461001 0.091117576 0.13722698 -0.061269645 0.115086384 0.012838394 -0.039747138 -0.12884246
00000000: 7351 1c3e e477 84bd e75d 133e 947d e13d
00000010: e5b9 053d 94eb 593d 25e0 1d3e 3472 cc3c
00000020: 9d15 053e bb71 823d 7635 a2bc 0c03 9cbd
00000030: 1c8a f63c b462 d2bb b542 3c3e 9304 453e
00000040: 8f41 883d 9847 ffbd 77ff ff3d 5da4 c0bd
00000050: 6c44 7fbd 7562 9abd a950 19bd 5d37 19be
00000060: 913a 003e 82c5 3d3e 2383 c1bd d96c 2b3e
00000070: 641c c43d 9c65 1cbe 77e0 263d 7e4c d7bb
00000080: aad0 7abd 2c79 2e3d dd27 51bd d36e febd
00000090: d9c5 04be 7b31 13be e592 933d 5d24 a4bd
000000a0: a5cf 153d 678a 8bbd ecd9 e6bd 172b 37be
000000b0: a28e 123e 06b7 da3d 6a46 053e c5d3 8bbb
000000c0: 6a81 9dbd 1361 d23d 754f 49be d978 f9bc
000000d0: b787 bc3c dfe1 023e 2345 813d f51f e0bd
000000e0: 7a13 013c 9504 9abd 6a0e 193d b253 d53d
000000f0: 949e b5bd 58da f83c ccb0 1c3d 7c17 b43d
00000100: 7c94 203e 88a1 16be 60ba 34bc 6eae 1cbe
00000110: fe1b 30be 5cdb ddbd d09c b23c 1e5b febd
00000120: c00e e5bb 60d7 483c 66e7 283e 8477 b5bd
00000130: fc97 a03d bdec 82bd 3519 00be 3841 0e3e
00000140: cc34 e73d 0bf6 b2bd 006a 26bc 70a6 0a3c
00000150: 76b2 80bd c8e6 f23d cfad 98bd 542d 07bd
00000160: 21e5 04be 7c04 0dbe 30ce 343d 0cc9 023e
00000170: 5705 143d f820 ce3d c106 19bd e3de 123c
00000180: e737 07bc a681 903d a680 e1bd f4e8 0b3e
00000190: 8747 b4bd c716 0b3d 7afc a03c 9c81 d83d
000001a0: 6ff6 49be f3b7 463b 8f75 06be 5cd6 163d
000001b0: 4660 e0bc 466b 9cbd 0158 0bbe 89aa 133e
000001c0: 3ade 3e3e 5b4d e8bd 2878 a7bd aa39 98bd
000001d0: 28d3 c1bd 639f 89bd 1711 9d3d 9c6b 483d
000001e0: 3087 b73d c61a 75bd edef 153e 3428 26bd
000001f0: b497 e23d 77e1 1b3e 22a2 f43d a07f 123e
00000200: b9fb 123e 8215 cb3d 16df 12be 897b 893d
00000210: 9ed2 063e 355a 7dbd 5f1f 9fbd c763 a4bd
00000220: 4372 383e 4f90 d53c 4f67 243e 1c5a a43d
00000230: 9602 e8bd 0541 3abd 689f 0d3e f688 21be
00000240: b9c6 223e 9401 5cbd a7a8 c43d c154 f9bd
00000250: 1e33 d83b f979 933d 4446 103e f5cc f4ba
00000260: da45 1c3e 218d 353d 4011 523b ff51 113e
00000270: 20b8 dbbd 1e9a 333e c4de 1d3e dada 2e3e
00000280: 6358 2dbe 9963 103e dc7d d33d 965c 1a3e
00000290: bd3d 0c3e 0c95 133e aefd 163e ee16 a1bd
000002a0: f98d 3a3e e88f 143e bb60 1cbe 2fb2 d83d
000002b0: e35d 263e bae7 b3bd d193 82bd ff76 c13d
000002c0: 711b abbd af47 fd3c 2e87 073e 739f 3a3e
000002d0: da42 2dbd fc7c 233e 13b5 31bd c338 fa3d
000002e0: 8bd2 debd 8fb1 d23d b147 f13d 9b11 213d
000002f0: 9beb b7bd ccea 8abc 5cee d63d 9468 0d3d
00000300: a92d a03d 7fcc 1c3d 5cd9 493d 5e75 11be
00000310: a05b 35bd 51d5 74bd e6e4 b43d 1dcb cfbd
00000320: e31b 113d c573 9c3d 3886 183e 2071 3c3e
00000330: d41c 3bbd 99e1 10be 158f e23c 7519 d03d
00000340: c003 f93d 1b44 e63c 9e7d 2bbd b458 193e
00000350: 53d3 ffbd fbb1 b8bd 25e8 26be 74f3 643d
00000360: 772c adbd 081a 1f3e d451 dc3d 7706 483e
00000370: 4c2a 383e 06bb 463d 41a2 3c3d c761 3e3e
00000380: 51f1 a0bd 7d55 69bd e44d c53d ca64 d2bd
00000390: 1fc2 0abe 2ff6 ffbd 6c66 42be deb7 7cbd
000003a0: de37 703c bc42 5cbd 44d1 1cbe ac87 163e
000003b0: b69f ef3d f2c0 c93d 2885 f8bd a534 96bd
000003c0: e5a3 cbbd aec2 03be a455 1c3d 5286 d9bd
000003d0: 5cd5 be3c 32cc 7c3c 3e35 203e 109c 08bd
000003e0: 0348 adbd da9b ba3d 3b85 0c3e e1f5 7abd
000003f0: 69b2 eb3d 2158 523c e5cd 22bd 47ef 03be

sequential_2/conv1d_5/Conv1D f4 [56, 1, 3, 56]
0.13549517 -0.13141811 -0.11921214 -0.062010955 0.14014067 -0.09666956 0.11077245 -0.03717072
0.12055276 -0.085526146 0.077653065 0.013334573 -0.07443894 -0.08128182 0.16617788 0.14633676
0.07186415 0.0079974495 0.13807438 0.030695913 0.08371671 0.048433572 0.0929349 0.11879105
-0.021643221 0.00023869643 0.047085404 -0.052329317 0.005757376 0.031477984 -0.105166525 -0.009479312
0.060570836 0.06839196 -0.035923097 0.06738756 -0.0727814 0.0821389 0.09795584 -0.085351154
-0.0508781 0.035309706 0.097933106 0.11564933 0.08533688 -0.019805782 -0.0111916615 -0.11387725
-0.051599964 0.1127236 -0.113024235 0.04906624 -0.045219515 -0.124468215 -0.025033766 -0.017480781
-0.0712862 0.05815728 -0.054883093 0.061295133 -0.08755391 -0.10332161 0.12491723 0.091606595
0.08983635 -0.047770042 0.081272334 -0.087151155 -0.097145505 0.12130419 -0.10086081 -0.00642193
-0.0705319 -0.14911541 0.040267996 -0.08091757 -0.061406277 0.036657583 -0.062258884 -0.12934871
-0.00561078 -0.09114158 0.05150663 -0.13339144 -0.08803837 -0.05904304 -0.1070622 0.06531957
-0.06445804 0.04204013 -0.024837349 0.06589069 0.08731542 -0.00824083 0.048732102 0.037980616
0.03643869 0.012777389 -0.08213411 0.056018084 -0.057424724 -0.0615924 0.05567073 -0.08049916
0.034562558 -0.09042955 -0.12531538 0.010874182 -0.06733812 -0.021029197 -0.13810232 -0.06486843
-0.008425501 -0.017879898 0.12472598 -0.049308296 0.048767064 0.06759537 -0.019992262 0.06560741
0.067588754 -0.07558968 0.03931756 0.06793626 -0.029610371 0.0821118 -0.0715788 0.13092054
-0.08005195 0.029287571 -0.03950126 -0.09222721 -0.10195318 -0.11188024 -0.07360731 -0.026555968
0.10124046 0.118063994 0.012292226 0.10949258 -0.09669797 0.0023355556 0.14750646 0.031659525
-0.018925425 0.15135805 -0.023343911 -0.08818007 -0.09694684 0.031953536 -0.1323374 -0.051042974
-0.086012185 -0.16012265 -0.025652777 -0.1711943 -0.12473365 0.018709794 0.09665852 0.09770603
0.0029095525 -0.054382376 -0.07033177 0.04955409 0.062351026 -0.19003977 0.14636177 -0.023460153
-0.09750525 0.056118608 0.12858354 0.11652472 -0.060921106 -0.08300194 0.027232755 -0.118497394
0.025488602 0.057659224 0.06592575 -0.11506821 0.0037876517 -0.07025843 0.12107657 -0.004326749
0.10137487 -0.0001906367 -0.00016127764 0.10992199 -0.0036185686 0.031235144 -0.04604649 0.038158096
-0.012657041 0.060766302 0.0029541051 -0.087036446 -0.06272386 0.111222014 0.11176657 -0.07496491
0.09642919 0.038375802 0.05749128 0.012042259 -0.014255958 0.02019269 -0.100525886 0.0039226376
0.023675889 -0.0028817318 0.008407687 0.0045182034 -0.09605367 0.006892085 0.05004362 -0.11285242
-0.117458716 0.09308632 -0.07938314 0.0036588013 0.06531332 -0.052185602 -0.03906045 0.034489714
0.101782694 -0.12026236 -0.12314701 0.08377563 -0.13176668 -0.05867097 -0.041257117 0.08982822
-0.060782712 0.059842005 -0.015846312 -0.09186076 -0.12904006 -0.10368736 0.12136279 -0.07418781
0.08966104 -0.012777106 -0.11884507 -0.04477135 -0.011731721 0.07913992 0.064152725 -0.01932887
0.030016378 -0.018295076 -0.023840377 0.106598735 0.07188284 -0.11216381 -0.10685408 -0.028149031
00000000: 3fbf 0a3e 7892 06be 7f25 f4bd 33ff 7dbd
00000010: 0981 0f3e b1fa c5bd abdc e23d 5340 18bd
00000020: 5ee4 f63d 5528 afbd 9208 9f3d 4179 5a3c
00000030: 7173 98bd 1577 a6bd 892a 2a3e 4ed9 153e
00000040: 832d 933d bc07 033c 5f63 0d3e ff75 fb3c
00000050: ab73 ab3d 4862 463d a754 be3d b948 f33d
00000060: 204d b1bc 964a 7a39 a0dc 403d 4457 56bd
00000070: 5fa8 bc3b 0fef 003d 8c61 d7bd 1e4f 1bbc
00000080: 2019 783d 1511 8c3d 1924 13bd 7d02 8a3d
00000090: 6a0e 95bd 7138 a83d 129d c83d 96cc aebd
000000a0: 8e65 50bd e9a0 103d 2791 c83d 8ed9 ec3d
000000b0: 1ac5 ae3d bc3f a2bc 3b5d 37bc 7a38 e9bd
000000c0: 7c5a 53bd a1db e63d 4079 e7bd aff9 483d
000000d0: 1938 39bd 31e9 febd 9d13 cdbc db33 8fbc
000000e0: 80fe 91bd 5436 6e3d 18cd 60bd 9b10 7b3d
000000f0: 774f b3bd 489a d3bd 9bd4 ff3d 3d9c bb3d
00000100: 1ffc b73d 85aa 43bd 1c72 a63d 4e7c b2bd
00000110: 39f4 c6bd 556e f83d 1d90 cebd 0e6f d2bb
00000120: 0773 90bd b6b1 18be 0ef0 243d 1cb8 a5bd
00000130: 2685 7bbd 4326 163d 2c03 7fbd fd73 04be
00000140: a2da b7bb 70a8 babd 9ef8 523d c497 08be
00000150: 764d b4bd 1dd7 71bd 6d43 dbbd 44c6 853d
00000160: 9402 84bd 4532 2c3d b277 cbbc b3f1 863d
00000170: 6dd2 b23d 8c04 07bc 509b 473d 9091 1b3d
00000180: bc40 153d 4158 513c ee35 a8bd 3873 653d
00000190: 3036 6bbd 5048 7cbd fe06 643d bedc a4bd
000001a0: 7891 0d3d 2133 b9bd ad52 00be a029 323c
000001b0: 91e8 89bd 6c45 acbc b26a 0dbe bdd9 84bd
000001c0: 1d0b 0abc dd78 92bc 5670 ff3d 7ff7 49bd
000001d0: f9bf 473d 716f 8a3d d0c6 a3bc 2e5d 863d
000001e0: f96b 8a3d c3ce 9abd 730b 213d 2a22 8b3d
000001f0: 7391 f2bc 3b2a a83d e897 92bd 0910 063e
00000200: 47f2 a3bd 7dec ef3c 13cc 21bd 9fe1 bcbd
00000210: d4cc d0bd 7821 e5bd 6ebf 96bd e78b d9bc
00000220: 2957 cf3d 89cb f13d 5565 493c a53d e03d
00000230: 9609 c6bd 1f10 193b ef0b 173e 6bad 013d
00000240: 7e09 9bbc 9bfd 1a3e bb3b bfbc c197 b4bd
00000250: 118c c6bd b6e1 023d 7583 07be 7012 51bd
00000260: 2827 b0bd 31f7 23be c625 d2bc 8f4d 2fbe
00000270: 5b74 ffbd 4845 993c e7f4 c53d 191a c83d
00000280: 31ae 3e3b 0ec0 5ebd 1a0a 90bd 3bf9 4a3d
00000290: ca63 7f3d c999 42be dcdf 153e 822f c0bc
000002a0: d5b0 c7bd a0dc 653d 67ab 033e 83a4 ee3d
000002b0: 6988 79bd ecfc a9bd 3a17 df3c c3ae f2bd
000002c0: 79cd d03c 142c 6c3d 1404 873d e2a8 ebbd
000002d0: 403a 783b a7e3 8fbd fef6 f73d 67c7 8dbb
000002e0: a19d cf3d a6e5 47b9 a31c 29b9 c81e e13d
000002f0: 8225 6dbb d8e0 ff3c 3f9b 3cbd aa4b 1c3d
00000300: 7a5f 4fbc 16e6 783d a999 413b 2a40 b2bd
00000310: 5e75 80bd 5ec8 e33d dfe5 e43d 3487 99bd
00000320: ab7c c53d f22f 1d3d fa7b 6b3d e54c 453c
00000330: d291 69bc 246b a53c 84e0 cdbd 7889 803b
00000340: f0f3 c13c 70db 3cbb 65c0 093c 700d 943b
00000350: c9b7 c4bd 00d7 e13b 8afa 4c3d 2b1f e7bd
00000360: 328e f0bd 0aa4 be3d a193 a2bd 80c8 6f3b
00000370: fdc2 853d 92c0 55bd dafd 1fbd 1645 0d3d
00000380: 7273 d03d 1d4c f6bd 8034 fcbd 8f92 ab3d
00000390: d8ed 06be f950 70bd 39fd 28bd dcf7 b73d
000003a0: 4bf7 78bd e41c 753d 20d0 81bc 7e21 bcbd
000003b0: 1423 04be 0a5a d4bd 0e8d f83d c7ef 97bd
000003c0: 35a0 b73d 1157 51bc 0b65 f3bd 2a62 37bd
000003d0: 6836 40bc 1c14 a23d 8162 833d 9457 9ebc
000003e0: e8e4 f53c 8edf 95bc e54c c3bc 7050 da3d
000003f0: 4f37 933d 24b6 e5bd 50d6 dabd cc98 e6bc

sequential_2/dense_5/BiasAdd/ReadVariableOp f4 [4]
0.010196638 0.0038571476 -0.008528406 -0.0052093836
00000000: cd0f 273c 33c8 7c3b baba 0bbc 7ab3 aabb

sequential_2/dense_4/BiasAdd/ReadVariableOp f4 [784]
-0.0012279159 0.0037796493 -0.010409733 0.02342539 0.009486893 -0.015181418 -0.00823136 -0.010316258
0.020253453 -0.007659299 0.016406776 -0.0068393773 -0.002987589 -0.0054687946 0.0067207157 0.0
0.0 0.015444797 0.02935025 0.022889666 0.015722873 0.013938443 -0.007370299 0.012516947
-0.0056339176 0.024606064 0.01451874 0.0051899906 0.0 -0.011808948 0.0029026351 0.0142851295
0.022213396 0.0 0.022340462 0.0 7.776204e-05 0.0 0.008630755 0.0
0.02841782 -0.00022346328 -0.0066986317 0.0030678078 0.011866701 0.010996368 0.01087577 -0.00973124
-0.000117507894 0.00036750198 0.001959947 0.011887562 -0.004150613 0.0065792426 0.0 -0.008855977
0.0077061327 -0.0001393254 0.008994714 -0.00600077 0.0 -0.004063729 -0.005344459 0.012839214
0.023122033 0.0013533747 0.008806504 0.009025618 0.009124946 0.014501211 0.0 0.014946767
-0.005193777 0.0014453704 -0.0026513285 0.0 0.012825457 -0.0057295654 0.0 0.0077404655
-0.0025220593 0.0 0.004524416 -0.0041791038 0.02005746 0.014608321 -0.0020747269 -0.00493237
0.0 0.008826639 0.011829339 0.0 -0.009396646 0.016837535 0.0 0.014649658
-0.0040515303 0.0072026844 -0.008447133 -0.007871401 0.013300493 -0.019073347 0.008399311 0.024807362
-0.010082071 0.0014655034 -0.0052252086 0.0 -0.0025912547 0.009525862 0.01237187 0.012408706
0.007253171 0.0027106106 -0.015111762 0.009686668 0.013043129 -0.012090249 0.0 0.014111175
0.0 0.010568702 0.018307118 0.0032534515 0.0009648295 -0.002987301 -0.0011781293 0.0
-0.014330586 0.0010001418 -0.0063009025 -0.0026686124 0.0053896215 -0.011792832 0.011878167 0.017237049
0.0074710674 0.008919438 0.0037918335 0.007476387 0.0075362423 0.021232285 0.013571593 0.067295715
0.020205135 0.00027083655 0.005137848 0.0016259266 -0.0074199107 -0.008043422 0.0 -0.0027009288
0.0070943125 0.009029242 0.00867276 0.0 -0.007790595 -0.0018337868 0.018856242 0.015036092
0.0048213084 0.008328094 0.029388303 0.0150735965 -0.0025310752 0.03133118 -0.0040317336 0.0
0.0035861267 0.0 0.017548464 0.0053413417 0.0 0.0016598734 0.0 0.0012686317
0.0 0.01670019 0.0 -0.0075637656 0.015964715 0.0 0.006569741 0.0
0.005910198 -0.0083711995 0.0076465937 0.0 0.011561434 0.011989835 0.0129243685 -0.009177941
0.0026124297 0.012462957 -0.013864777 0.011893782 0.008545775 -0.01843515 -0.015163853 0.0035376064
-0.0073099267 0.0033329558 -0.0022764492 0.02307109 -0.014675293 0.0056100567 -0.018419243 0.019840987
0.013163402 0.0 0.0 0.010651287 -0.01627232 -0.0048062545 -0.00652838 0.011247164
0.015472269 -0.0010625747 0.019039378 0.0 -0.010422502 0.023042968 0.0 -0.014441195
0.01804017 0.019131236 0.0 0.0017164388 0.0075190864 0.005777204 -0.009157934 0.042034645
0.0 0.0094181 0.0026818826 0.0112037 0.0 -0.010195836 0.0 -0.008475287
-0.0027050078 0.006529381 0.0 0.023909066 -0.0111882035 0.014374089 0.007732783 0.0018737622
0.005150639 -0.0053007193 -0.008390238 0.028487163 0.0 0.00037066787 0.0 0.0
00000000: 05f2 a0ba feb3 773b 968d 2abc 9ae6 bf3c
00000010: ea6e 1b3c 7bbb 78bc d4dc 06bc 8605 29bc
00000020: 92ea a53c dbfa fabb 8167 863c db1c e0bb
00000030: 6dcb 43bb 9333 b3bb 7339 dc3b 0000 0000
00000040: 0000 0000 2d0c 7d3c ef6f f03c 1c83 bb3c
00000050: 41cd 803c 115e 643c 8d82 f1bb e213 4d3c
00000060: ba9c b8bb a892 c93c 02e0 6d3c cc10 aa3b
00000070: 0000 0000 517a 41bc 233a 3e3b 2d0c 6a3c
00000080: def8 b53c 0000 0000 5803 b73c 0000 0000
00000090: 2d14 a338 0000 0000 0368 0d3c 0000 0000
000000a0: 7dcc e83c 7851 6ab9 3280 dbbb 460d 493b
000000b0: 8d6c 423c 1c2a 343c 4930 323c c76f 1fbc
000000c0: 926e f6b8 48ad c039 7472 003b 0dc4 423c
000000d0: de01 88bb b096 d73b 0000 0000 a918 11bc
000000e0: ba83 fc3b e117 12b9 915e 133c 1ba2 c4bb
000000f0: 0000 0000 0829 85bb 9220 afbb 915b 523c
00000100: 6b6a bd3c b863 b13a 2849 103c 30e0 133c
00000110: cc80 153c 7d96 6d3c 0000 0000 49e3 743c
00000120: 8f30 aabb 9572 bd3a e9c1 2dbb 0000 0000
00000130: de21 523c 14bf bbbb 0000 0000 bba3 fd3b
00000140: 2249 25bb 0000 0000 8d41 943b ddf0 88bb
00000150: 8b4f a43c bd57 6f3c 24f8 07bb b89f a1bb
00000160: 0000 0000 9b9d 103c d8cf 413c 0000 0000
00000170: 64f4 19bc dfee 893c 0000 0000 1f05 703c
00000180: b3c2 84bb 7f04 ec3b d865 0abc 0cf7 00bc
00000190: 50ea 593c b53f 9cbc 449d 093c cf38 cb3c
000001a0: 452f 25bc 2216 c03a 3a38 abbb 0000 0000
000001b0: 0ad2 29bb 5c12 1c3c 62b3 4a3c e34d 4b3c
000001c0: 02ac ed3b 80a4 313b 5397 77bc d5b4 1e3c
000001d0: d9b2 553c 2e16 46bc 0000 0000 8f32 673c
000001e0: 0000 0000 5928 2d3c cff8 953c dc37 553b
000001f0: 9dec 7c3a 98c6 43bb 766b 9aba 0000 0000
00000200: d6ca 6abc 3117 833a cd77 cebb e3e3 2ebb
00000210: 6c9b b03b b936 41bc a59c 423c b634 8d3c
00000220: dbcf f43b d622 123c 6980 783b 7bfc f43b
00000230: 95f2 f63b 54ef ad3c 635b 5e3c 56d2 893d
00000240: 3d85 a53c 11ff 8d39 655b a83b 0b1d d53a
00000250: b922 f3bb 8fc8 03bc 0000 0000 1102 31bb
00000260: 6877 e83b 63ef 133c 3118 0e3c 0000 0000
00000270: 3f48 ffbb ad5b f0ba 6878 9a3c f159 763c
00000280: 11fc 9d3b 8f72 083c bdbf f03c 3ff7 763c
00000290: 65e0 25bb 2055 003d a21c 84bb 0000 0000
000002a0: 3905 6b3b 0000 0000 ccc1 8f3c 6c06 af3b
000002b0: 0000 0000 1c90 d93a 0000 0000 3748 a63a
000002c0: 0000 0000 d6ce 883c 0000 0000 77d9 f7bb
000002d0: 6fc8 823c 0000 0000 fb46 d73b 0000 0000
000002e0: 56aa c13b 5b27 09bc 4790 fa3b 0000 0000
000002f0: 2b6c 3d3c 0371 443c bbc0 533c 135f 16bc
00000300: 4c35 2b3b 6e31 4c3c 1729 63bc 23de 423c
00000310: 9403 0c3c 5005 97bc cf71 78bc 30d7 673b
00000320: 1c88 efbb b86d 5a3b 7b30 15bb 95ff bc3c
00000330: a470 70bc 91d4 b73b f4e3 96bc 9189 a23c
00000340: 4fab 573c 0000 0000 0000 0000 bc82 2e3c
00000350: 874d 85bc c97d 9dbb 05ec d5bb 0646 383c
00000360: 667f 7d3c 1746 8bba 78f8 9b3c 0000 0000
00000370: 24c3 2abc 9bc4 bc3c 0000 0000 c39a 6cbc
00000380: fbc8 933c 1cb9 9c3c 0000 0000 21fa e03a
00000390: ab62 f63b b34e bd3b 290b 16bc 852c 2c3d
000003a0: 0000 0000 604e 1a3c 86c2 2f3b b98f 373c
000003b0: 0000 0000 700c 27bc 0000 0000 eedb 0abc
000003c0: 8046 31bb 6bf4 d53b 0000 0000 f2dc c33c
000003d0: ba4e 37bc 4d81 6b3c 4963 fd3b 0799 f53a
000003e0: b1c6 a83b a8b1 adbb 3577 09bc e95d e93c
000003f0: 0000 0000 3356 c239 0000 0000 0000 0000

sequential_2/dense_4/MatMul f4 [784, 56]
0.06860197 0.05701572 -0.007871644 -0.032036398 0.055722997 -0.01212967 0.058538288 -0.02393552
-0.07958643 -0.12371417 0.053549927 0.042709794 -0.06284954 -0.09399503 0.07661271 0.06606491
-0.08513129 0.07441826 0.028831528 -0.015216932 0.084041715 -0.014103223 -0.0060311947 0.0151309725
-0.014615867 -0.006294887 -0.035698466 -0.027037608 -0.03371811 0.08129655 -0.0012279834 0.0449303
0.049541853 0.066808864 0.04383877 0.0008246921 -0.07251454 0.061015934 0.06612582 0.045785025
0.050934494 -0.0034515667 -0.018098248 0.041214686 0.09952832 -0.051407173 -0.023425518 0.034404542
0.029935824 0.0214366 0.009530859 -0.037681185 0.005788222 0.11810646 -0.070439905 0.075742975
0.09646985 -0.06617589 -0.022347169 0.0033685043 0.04123519 -0.034306902 -0.057738066 -0.060479432
-0.02422108 0.059849057 -0.016226634 0.0076863132 -0.10191386 0.06446174 -0.0011546507 0.06288834
0.039219677 -0.03997866 -0.03506043 0.0024748892 -0.00032168755 0.029420828 0.08242818 -0.025164312
-0.0054925233 0.040067997 0.018737713 -0.04924011 0.016757753 -0.04219982 0.07259814 0.1086539
-0.028865451 -0.06084852 0.028714294 0.0359239 0.01808201 -0.047134023 0.07304786 0.05005743
0.026977686 -0.051394578 0.06246429 0.057988264 0.070170194 -0.037830524 0.03631595 0.0015889257
-0.05686415 -0.0034319824 -0.006804977 -0.06132385 0.069006965 0.0031344981 0.004103193 -0.0034036112
0.020961871 0.03260576 0.06504707 0.0070554987 0.04578961 -0.03335735 -0.07442837 0.06529626
0.045449544 0.03922811 -0.007801512 -0.015615332 0.005023745 0.06945117 -0.051812924 0.011925444
0.0053404425 0.07518014 -0.083133236 0.07963331 -0.03416505 0.036267627 0.0619941 0.07588242
-0.06181208 0.08268301 0.059169434 -0.07432401 0.0032262453 -0.04591809 0.011028268 0.032289594
-0.0005060354 -0.06683828 -0.05850696 0.026122443 -0.09408544 -0.06402956 -0.07864993 0.01415877
0.024162786 -0.05768781 0.006363925 0.043422084 0.0037758262 0.015449263 -0.001425465 -0.086449444
0.0063945428 -0.056930594 -0.08030563 0.042888336 -0.061657228 0.04095252 0.023006275 -0.086433694
-0.032613523 -0.010591886 -0.10446978 0.023357414 -0.0017873349 -0.016758591 -0.035806775 -0.07712991
0.08119355 0.051055975 0.04766487 0.010265809 0.040482853 -0.009360986 -0.039371178 0.0008581728
0.02419408 0.05830586 0.057733636 -0.062079977 -0.05834043 -0.049275953 -0.027262183 0.061552167
-0.08227413 -0.075910605 -0.11306077 -0.09473335 -0.05426606 -0.0073532164 -0.05898425 0.041266825
0.034438375 0.11107531 0.06443899 0.07476967 0.08097553 -0.026997477 0.0060330895 0.036477987
-0.071312144 -0.04834768 0.08458943 0.054108527 -0.056867495 -0.06052053 0.10956133 0.03758826
0.013631969 -0.021318281 -0.03534874 0.076995485 0.034376502 0.012407813 0.018089246 0.03963444
0.006426456 -0.077041544 -0.023972366 -0.081795245 0.02007287 0.04904498 0.053514436 0.007740602
0.006495393 -0.061181776 0.03963961 0.06612124 0.0019267269 -0.02224704 -0.00034458563 -0.011406034
0.11701474 -0.08242403 0.0138682565 0.04414241 0.050347704 0.022752099 0.050994955 -0.046624243
0.0383612 0.021629766 0.053881638 0.034610596 0.10023128 -0.034313254 -0.008922082 -0.015019973
00000000: 317f 8c3d 5189 693d 11f8 00bc 9938 03bd
00000010: cc3d 643d 86bb 46bc d8c5 6f3d 6c14 c4bc
00000020: 36fe a2bd db5d fdbd 2b57 5b3d 77f0 2e3d
00000030: 42b7 80bd 7780 c0bd 20e7 9c3d 0a4d 873d
00000040: 5059 aebd 9a68 983d 1930 ec3c 7050 79bc
00000050: 101e ac3d 3411 67bc 54a1 c5bb e6e7 773c
00000060: 6477 6fbc 5745 cebb 8e38 12bd f97d ddbc
00000070: 001c 0abd ce7e a63d 49f4 a0ba d608 383d
00000080: 66ec 4a3d 16d3 883d 4890 333d 2630 583a
00000090: 8182 94bd d8eb 793d f96c 873d 1489 3b3d
000000a0: b0a0 503d ae33 62bb c742 94bc bbd0 283d
000000b0: 81d5 cb3d 5490 52bd dfe6 bfbc c7eb 0c3d
000000c0: f93b f53c cf9b af3c 5227 1c3c 9657 1abd
000000d0: 20ab bd3b cde1 f13d cc42 90bd 221f 9b3d
000000e0: fc91 c53d 3a87 87bd 6911 b7bc 20c2 5c3b
000000f0: 3be6 283d 6585 0cbd c07e 6cbd 48b9 77bd
00000100: 496b c6bc 4924 753d b8ed 84bc 78dd fb3b
00000110: 37b8 d0bd 8404 843d a657 97ba 9acb 803d
00000120: d0a4 203d aac0 23bd 879b 0fbd c031 223b
00000130: 2ca8 a8b9 f303 f13c 1bd0 a83d 6325 cebc
00000140: a0fa b3bb 571e 243d d57f 993c ffaf 49bd
00000150: 8e47 893c b8d9 2cbd 55ae 943d f085 de3d
00000160: 3d77 ecbc 4c3c 79bd 3d3a eb3c f024 133d
00000170: b920 943c 9b0f 41bd 1e9a 953d 0509 4d3d
00000180: 4f00 dd3c 1f83 52bd 8eda 7f3d 1a85 6d3d
00000190: 64b5 8f3d 2ef4 1abd 09c0 143d 8043 d03a
000001a0: 62ea 68bd 1ceb 60bb 49fc debb b82e 7bbd
000001b0: 8653 8d3d 276c 4d3b 1474 863b 1f0f 5fbb
000001c0: 3bb8 ab3c 9e8d 053d 6637 853d d031 e73b
000001d0: e38d 3b3d b7a1 08bd e76d 98bd 0cba 853d
000001e0: 4d29 3a3d a8ad 203d d3a3 ffbb 73d7 7fbc
000001f0: 3a9e a43b 6a3c 8e3d ca39 54bd f062 433c
00000200: e1fe ae3b 0cf8 993d c241 aabd ca16 a33d
00000210: a7f0 0bbd 5d8d 143d 87ed 7d3d 3e68 9b3d
00000220: aa2e 7dbd b655 a93d a65b 723d 3037 98bd
00000230: 6a6f 533b 9b14 3cbd e9af 343c 1842 043d
00000240: 76a7 04ba 82e2 88bd fea4 6fbd bcfe d53c
00000250: deaf c0bd ee21 83bd 3713 a1bd 30fa 673c
00000260: 09f1 c53c 0e4a 6cbd 7988 d03b 5bdb 313d
00000270: da73 773b e81e 7d3c abd6 baba 680c b1bd
00000280: 5089 d13b 0e30 69bd 4777 a4bd aeab 2f3d
00000290: 4a8c 7cbd d4bd 273d a877 bc3c 2604 b1bd
000002a0: c295 05bd 9789 2dbc 41f4 d5bd 0c58 bf3c
000002b0: 0245 eaba 5049 89bc 20aa 12bd 49f6 9dbd
000002c0: ce48 a63d 1220 513d 3d3c 433d ec31 283c
000002d0: 59d1 253d d25e 19bc ac43 21bd 00f7 603a
000002e0: aa32 c63c 20d2 6e3d 1b7a 6c3d 9347 7ebd
000002f0: 60f6 6ebd 95d5 49bd f154 dfbc 201e 7c3d
00000300: 577f a8bd 0577 9bbd 688c e7bd 8f03 c2bd
00000310: 1746 5ebd 40f3 f0bb 7899 71bd 6707 293d
00000320: 410f 0d3d 747b e33d 97f8 833d d720 993d
00000330: 80d6 a53d d029 ddbc 39b1 c53b f169 153d
00000340: 1a0c 92bd 3808 46bd 393d ad3d e7a0 5d3d
00000350: e4ed 68bd 60e4 77bd b161 e03d 26f6 193d
00000360: 9f58 5f3c ada3 aebc d7c9 10bd cfaf 9d3d
00000370: 60ce 0c3d 244a 4b3c e62f 943c b957 223d
00000380: 0595 d23b f5c7 9dbd b261 c4bc 4484 a7bd
00000390: dc6f a43c 64e3 483d f431 5b3d e0a4 fd3b
000003a0: 4ed7 d43b be99 7abd 255d 223d 936a 873d
000003b0: 3a8a fc3a 6d3f b6bc 80a9 b4b9 60e0 3abc
000003c0: 6da5 ef3d eecd a8bd af37 633c acce 343d
000003d0: 6539 4e3d 9c62 ba3c 16e0 503d 10f9 3ebd
000003e0: a220 1d3d e830 b13c feb2 5c3d d7c3 0d3d
000003f0: 0f46 cd3d 0e8c 0cbd ed2d 12bc 5516 76bc

sequential_2/dense_5/MatMul f4 [4, 784]
-0.07942663 0.021508826 -0.077666864 0.10053345 -0.08907834 -0.032224014 -0.08258691 -0.032045472
0.1258803 -0.11365255 0.119579434 -0.013123119 -0.12546395 -0.0026075533 0.011262582 0.024955332
0.00682503 0.069929525 0.03745276 0.058713626 -0.02571664 -0.06655666 -0.025366306 0.019542487
-0.0049694194 -0.1250335 -0.0458713 -0.0068400186 -0.0076542273 -0.0508941 -0.07117359 0.0659216
0.09090316 -0.066985086 0.10992819 -0.020709619 -0.06304256 0.05293438 -0.009260631 0.06745899
0.078066915 -0.08245597 -0.030505765 0.024949383 0.1056138 -0.13530213 0.055528253 -0.036881346
0.0065446673 -0.11270611 0.095832996 -0.119552106 0.030393643 -0.040995035 -0.047043856 -0.013733941
0.035498794 -0.05243664 0.08364706 0.052694276 0.05133973 -0.027344875 -0.018451741 0.0016330132
0.05224147 -0.086672515 -0.10325989 -0.03939413 -0.1050359 -0.07122424 0.019423723 -0.06889698
0.039187152 -0.0843071 -0.11825329 -0.06967046 0.11567546 0.04333437 0.084148005 -0.06957516
-0.042367045 0.03186021 -0.043958753 0.06138791 0.12673998 0.060513694 0.06476546 -0.09740324
0.037746817 0.08356121 0.08165945 -0.051232275 0.07428831 -0.1487043 0.013173059 0.08053285
-0.0756352 0.11081116 -0.046600472 -0.12763442 0.05066097 -0.10223357 0.031969965 0.05604112
-0.010198104 -0.055673335 -0.061687868 0.051477805 -0.11950469 -0.121754326 0.08530427 -0.011745929
-0.13698229 0.12469217 -0.049625378 0.049378447 -0.08326589 -0.042000446 -0.031327784 -0.13989887
0.0747949 0.01392885 0.08830465 -0.03935335 -0.07432362 -0.06278982 -0.0033399735 0.03997387
-0.07819994 -0.053123556 -0.050663743 -0.1155077 -0.026453676 -0.052890074 -0.13690881 -0.011528622
-0.111742035 -0.025139963 -0.027643748 -0.09752988 0.042888045 0.10605709 -0.06462396 0.16954179
0.08103017 -0.07719612 -0.13705693 -0.12264436 5.8073874e-05 -0.07565222 -0.014531039 -0.018549988
0.023236858 -0.002557699 -0.068473235 0.014386989 -0.07782699 -0.03079491 -0.12781984 -0.011259836
0.048295278 -0.1379265 0.10915611 -0.036336165 0.06744465 0.096167825 -0.05981558 -0.07217542
-0.0958882 0.03080976 0.041523907 -0.12769079 -0.08130908 -0.044355135 0.07077232 -0.086414315
-0.03791987 -0.005382676 0.034487583 -0.090076186 0.115033865 -0.013558045 0.06939037 -0.030800272
0.10214591 -0.068532996 -0.1357695 -0.025286496 0.04397365 0.11260954 -0.003219462 0.029927399
-0.12325724 -0.11573637 -0.03161056 0.06596819 -0.04280238 0.04617442 -0.0031322292 -0.007094069
0.049148876 -0.03238111 -0.051321313 0.08437946 -0.017360032 0.0011584812 0.060735326 0.053634234
0.09078162 -0.003040813 -0.023384131 0.07378814 -0.0014086539 0.039398253 -0.035184577 0.04504599
0.024179325 -0.084074266 0.07570258 0.071010485 0.017939761 0.11211116 -0.08130294 -0.0741031
0.061195154 0.124433726 0.008833453 -0.05401689 -0.109895356 -0.021533387 -0.07441914 -0.13137932
-0.04790247 -0.10020069 0.06045899 0.0980865 -0.022867002 -0.07704158 0.020415984 -0.044720482
0.011701799 -0.1028585 -0.06478728 0.08734783 0.053964764 -0.02870112 -0.07953524 -0.09325802
-0.13435704 0.037407104 -0.05696008 0.10504486 0.03652715 -0.06323485 -0.086239465 -0.0023827553
00000000: 6eaa a2bd 4733 b03c ce0f 9fbd 7be4 cd3d
00000010: b46e b6bd 54fd 03bd 5323 a9bd 1d42 03bd
00000020: c4e6 003e abc2 e8bd 10e6 f43d 5a02 57bc
00000030: 9f79 00be 7ce3 2abb b186 383c 206f cc3c
00000040: 80a4 df3b 3637 8f3d 1168 193d b37d 703d
00000050: b4ab d2bc dc4e 88bd 00cd cfbc 9117 a03c
00000060: 83d6 a2bb c808 00be 8be3 3bbd 3c22 e0bb
00000070: 50d0 fabb 5576 50bd 76c3 91bd e701 873d
00000080: 702b ba3d 7a2f 89bd 0822 e13d 38a7 a9bc
00000090: 751c 81bd b8d1 583d e7b9 17bc f027 8a3d
000000a0: 8ce1 9f3d adde a8bd 3ae7 f9bc a662 cc3c
000000b0: 0c4c d83d a48c 0abe 9871 633d e510 17bd
000000c0: a674 d63b 76d2 e6bd 1744 c43d bcd7 f4bd
000000d0: 17fc f83c 69ea 27bd 0fb1 40bd 5304 61bc
000000e0: 2f67 113d cdc7 56bd 264f ab3d f4d5 573d
000000f0: 9c49 523d 5c02 e0bc 1b28 97bc d50a d63a
00000100: 27fb 553d 5c81 b1bd ec79 d3bd bd5b 21bd
00000110: 101d d7bd 04de 91bd 801e 9f3c dc19 8dbd
00000120: b582 203d 33a9 acbd c82e f2bd 63af 8ebd
00000130: 41e7 ec3d 617f 313d ca55 ac3d 6c7d 8ebd
00000140: 1189 2dbd da7f 023d 180e 34bd e471 7b3d
00000150: 20c8 013e 35dd 773d c1a3 843d 5a7b c7bd
00000160: 689c 1a3d 2422 ab3d 123d a73d efd8 51bd
00000170: 7824 983d f145 18be d0d3 573c 68ee a43d
00000180: a1e6 9abd f6f0 e23d 23e0 3ebd 99b2 02be
00000190: e181 4f3d d55f d1bd f0f2 023d 608b 653d
000001a0: f315 27bc b909 64bd 6bac 7cbd 64da 523d
000001b0: e0be f4bd 555a f9bd 01b4 ae3d ff71 40bc
000001c0: 1645 0cbe 9c5e ff3d fb43 4bbd 0e41 4a3d
000001d0: 4f87 aabd a908 2cbd 9051 00bd a641 0fbe
000001e0: 122e 993d d535 643c 11d9 b43d fa30 21bd
000001f0: fb36 98bd f397 80bd 75e3 5abb a4bb 233d
00000200: 4a27 a0bd 1698 59bd c984 4fbd 4d8f ecbd
00000210: 61b5 d8bc 43a3 58bd d331 0cbe 8ce2 3cbc
00000220: 02d9 e4bd 53f2 cdbc 2475 e2bc bfbd c7bd
00000230: 60ab 2f3d 7634 d93d 9159 84bd 5d9c 2d3e
00000240: 25f3 a53d 0019 9ebd a758 0cbe f72c fbbd
00000250: 5994 7338 8def 9abd 9813 6ebc 25f6 97bc
00000260: 395b be3c 129f 27bb b23b 8cbd 68b7 6b3c
00000270: c263 9fbd 9b45 fcbc 34e3 02be 2d7b 38bc
00000280: 45d1 453d 9b3c 0dbe 3d8d df3d 3bd5 14bd
00000290: 6c20 8a3d a3f3 c43d 2e01 75bd b5d0 93bd
000002a0: 0861 c4bd c064 fc3c f914 2a3d 60c1 02be
000002b0: 6085 a6bd bbad 35bd 14f1 903d fdf9 b0bd
000002c0: de51 1bbd 2961 b0bb da42 0d3d dd79 b8bd
000002d0: e096 eb3d 9022 5ebc 8a1c 8e3d da50 fcbc
000002e0: e031 d13d 075b 8cbd 2907 0bbe a025 cfbc
000002f0: b71d 343d d59f e63d 9cfd 52bb 4e2a f53c
00000300: 4b6e fcbd 3107 edbd 137a 01bd 551a 873d
00000310: 8c51 2fbd 6321 3d3d 1646 4dbb 5d75 e8bb
00000320: 5550 493d 0ea2 04bd 4c36 52bd 23cf ac3d
00000330: a036 8ebc 2ed8 973a 9bc5 783d 92af 5b3d
00000340: b7eb b93d 6048 47bb 1490 bfbc 3d1e 973d
00000350: 95a2 b8ba 1060 213d b41d 10bd 2582 383d
00000360: b813 c63c 212f acbd f409 9b3d f26d 913d
00000370: 68f6 923c 899a e53d 2882 a6bd 5ec3 97bd
00000380: c5a7 7a3d 1cd7 fe3d 30ba 103c d040 5dbd
00000390: d110 e1bd c966 b0bc 1069 98bd 4d88 06be
000003a0: 6135 44bd 0536 cdbd d9a3 773d 93e1 c83d
000003b0: 9453 bbbc fac7 9dbd 6c3f a73c d32c 37bd
000003c0: e7b8 3f3c 7aa7 d2bd 32af 84bd 6be3 b23d
000003d0: 280a 5d3d 9c1e ebbc 5fe3 a2bd 10fe bebd
000003e0: e494 09be 3138 193d f94e 69bd c221 d73d
000003f0: 7e9d 153d 4681 81bd 519e b0bd 0028 1cbb
