models/model_11sensors_f32.tflite (tflite, 333468 bytes, 8 tensors)

sequential_8/dense_17/BiasAdd/ReadVariableOp f4 [4]
00000000: 12b9 aa3c 92db b43b 92be c4bc 45d2 9fbb
0.020840202 0.005519339 -0.024016652 -0.004877361

sequential_8/dense_16/BiasAdd/ReadVariableOp f4 [784]
00000000: c70c ba3b 1a74 093c 4e0b 65bc 303b f0bb
00000010: 429b b23c d2f5 9e3c e598 55bc 1f6e 33bb
00000020: 4ea9 043b d38a 65ba 6dba 0cbc 0b8c 8d3c
00000030: 1e03 a83a 611d 683c c2fa 83bc b293 cc3b
00000040: ab76 0e3d 508b 47bc 6e43 613c 9c36 023d
00000050: 5e0b 04bc a5bb 74bc cffe 16bc 21b9 49b9
00000060: 7027 acbc e9ad 0c3d 1e42 f3bb 8fae bfbc
00000070: 49e6 573c 023e 913c 07da 393d edee 053c
00000080: d504 843c eed7 80bc 28e5 97b9 0179 0f3d
00000090: 5aea f23b 4220 0b3d 5066 fd3c 7bb1 dfbb
000000a0: 7606 b13c 728b b33c fa79 8abc 4757 81bc
000000b0: 14df d637 713d 393c bb93 333c a1fc 453c
000000c0: 9a30 443c 0e61 56bc 336d 09bc 8e20 f53b
000000d0: 2f33 5b3d 3061 09bb 05e2 89bc 9ff6 393c
000000e0: 26e7 2bbc 0000 0000 0435 1a3c 8669 9a3c
000000f0: c69a 54bc dd95 bbbb c632 19ba 5c5e 62bc
00000100: 2e1b 7dbc 01b9 bdbc d272 7dbc 05bb 83bc
00000110: fbf1 a6ba 5f00 54bc f824 1abc d6ef cd39
00000120: 42c9 dc3a 5a02 b73c 445a be3b 643b ee3c
00000130: 06fb 893a 9853 143d faf7 3bbc 15f8 3fbc
00000140: b683 f63c ddcd 0dbc bebd 013d d477 45bc
00000150: 6e1b fabb 8323 dd3c a40e adbc 27f1 17bc
00000160: 0000 0000 22e7 b4bb 5aaf 363c 051e 83bb
00000170: e6ca 0a3d cab3 aa3b ebfb db3b b9e4 483c
00000180: cd74 a2bc 0086 a2bb dc9e 5e3a 738f 34bc
00000190: 3d38 083d e58e 8f3c f5be 9eba 57a6 7ebb
000001a0: 83b9 d23c 0229 a93c b388 9b3c 289b 3fbc
000001b0: bdd6 6d3c bedd 25bc cb2c 9f3c a88e 0e3d
000001c0: 98a9 4dbc 73d9 41bc 05fd 45bc e922 7f3c
000001d0: dfad 993c 66b8 2abc d866 31bc a96d f4bc
000001e0: 1ffc e4bb 08a8 3e3b 7e39 04bc 39de e03b
000001f0: fac8 5abc 26f9 9bba 0a15 cc3b 871e 3d3a
00000200: d02e a33b 1a78 c6bb 898b 58bc 01fa 243c
00000210: b541 fb3c 5445 023d 5f69 9a3c 8122 5cbb
00000220: a9a4 a93b edc1 163b 95f9 ef3c 7b69 c43c
00000230: e55c d33c e520 073d fcc3 223d 2051 fc3c
00000240: b958 f3bb cf86 51bc d594 b3bb 213d 0b3d
00000250: 3239 cd3c a5b0 023c 7d4d 023d c0da ffbb
00000260: 30a1 a4bc 0ee8 6d3c 981e 163d 73aa 513d
00000270: 6909 2bbc 2ade 533c 5eed 84bc 79f4 303c
00000280: b276 74bc e31f 243c db17 013d 8bb4 b1bc
00000290: 11fb ef3b 2aca dabb fdfa 2fbb b376 193c
000002a0: adef 9cbc e2c2 d43b 278f 04bc a7c0 cd3b
000002b0: 7c21 fd3c 4e3d be3c d690 bf3c d75d 0e3b
000002c0: 1994 973c a8fd 1dbc 3950 863c b1d0 b33c
000002d0: ac9f ee3c 73c3 53bc 9155 9f3b b3e6 943b
000002e0: 0a5a 65ba 63d2 533b 4128 493c 8492 33bc
000002f0: 2622 f03c aed2 08bc 830e cbbb a3eb 5cbb
00000300: 1be6 1b3a 0d2e 98bc 0000 0000 44e5 013c
00000310: ce30 e8bb ba89 aebb f4c6 3bb7 4c0c 073d
00000320: 5cd3 223d ad7e abbb d0eb 0d3d ae1d e7bb
00000330: 821b 01bc c531 193d 0000 0000 991c 533c
00000340: c56d ad3c 729d 123c 32f6 cfbc 7045 c33c
00000350: 3fa1 37bc 63a7 8c3b e2b5 803a 7e07 473c
00000360: d6cd 033d 0c52 80bc a89e 373d cd4d f13b
00000370: e207 093d cd45 a9bc ff2e 9ebb 5c3d 6a3c
00000380: 27d3 20bc f8b2 4ebc b497 db3c 31eb 073d
00000390: 5d38 0bbc d29f 8bbc 368c 3bbc 24c2 0dbc
000003a0: a1a8 093d ebba a53b d961 ee3c 7011 9fbb
000003b0: 5189 22bc 64c0 81bc b024 18bc ff43 fa3c
000003c0: 13c2 41bc a29b ce3c e233 26bc e768 88bb
000003d0: 87d4 f83c 3935 643c e705 9cbc fb2b 0e3d
000003e0: 424c 88bc 5b8b f93c 0000 0000 7132 5dbc
000003f0: 779c 1d3d d7ca 05bc d83e 05bd 9001 7b3c
0.0056777927 0.008389497 -0.013979746 -0.0073312744 0.021802548 0.019404326 -0.013036941 -0.002737887
0.0020242515 -0.0008756343 -0.008589369 0.017278692 0.0012818312 0.014167161 -0.016110782 0.0062431926
0.03478114 -0.012179211 0.013748987 0.03179036 -0.008059351 -0.014937316 -0.009216025 -0.0001923782
-0.021014899 0.03434554 -0.0074236533 -0.023398666 0.013177463 0.017729763 0.045373943 0.00817464
0.016115585 -0.015727963 -0.000289717 0.035027508 0.007413191 0.03396631 0.030932575 -0.0068265772
0.021609526 0.021917079 -0.016903866 -0.015788687 2.5614667e-05 0.011306153 0.010960515 0.012084157
0.011974478 -0.013084663 -0.0083878515 0.0074806875 0.05351561 -0.002096247 -0.016831407 0.011350303
-0.010492122 0.0 0.009412054 0.018849146 -0.012976354 -0.005724652 -0.00058440526 -0.013816442
-0.015448375 -0.023159506 -0.01546927 -0.016080389 -0.0012736911 -0.012939542 -0.009408228 0.0003927934
0.0016844647 0.022339988 0.0058091003 0.029081054 0.0010527081 0.036212534 -0.011472696 -0.011716862
0.030092102 -0.008655039 0.031675093 -0.012052495 -0.0076326644 0.026994472 -0.021125145 -0.009273804
0.0 -0.0055207172 0.0111502055 -0.0040013813 0.033884905 0.005209421 0.0067133806 0.012261563
-0.019831086 -0.0049598217 0.00084923 -0.011020529 0.033256758 0.017524192 -0.0012111353 -0.003885647
0.025723225 0.020649437 0.018986082 -0.011694707 0.01451653 -0.010123668 0.019430539 0.034804016
-0.012552641 -0.011831629 -0.01208425 0.015572288 0.018759666 -0.010419941 -0.0108277425 -0.029837446
-0.006988063 0.0029091854 -0.008070348 0.0068624285 -0.013353581 -0.0011899814 0.006228094 0.0007214327
0.0049799457 -0.0060567977 -0.0132168615 0.010069371 0.03067098 0.031804398 0.018849073 -0.0033589902
0.0051770997 0.0023003772 0.029293815 0.023976078 0.025801132 0.032990355 0.039737687 0.030800402
-0.007426348 -0.0127884885 -0.0054803886 0.033993844 0.025051687 0.007976686 0.03181218 -0.0078080595
-0.020096391 0.014520658 0.03665027 0.051187944 -0.010439255 0.012931386 -0.016226467 0.010800474
-0.014920877 0.010017368 0.03151689 -0.021692535 0.0073236306 -0.006676932 -0.0026852482 0.009366679
-0.019157255 0.0064929584 -0.008090771 0.0062790695 0.030899756 0.023222592 0.023384493 0.0021723413
0.018503236 -0.009642996 0.016395675 0.021950098 0.029128872 -0.012925017 0.004862495 0.004544103
-0.00087490736 0.0032321445 0.012277664 -0.010960225 0.029313158 -0.008351011 -0.0061967983 -0.0033709786
0.0005947069 -0.018576646 0.0 0.007928196 -0.007085896 -0.005326477 -1.1192391e-05 0.03297071
0.03975235 -0.005233607 0.034648716 -0.0070530986 -0.0078800935 0.03740098 0.0 0.012885236
0.021170506 0.008948671 -0.02538595 0.023836821 -0.011207878 0.004292415 0.000981983 0.012147782
0.032178722 -0.015664123 0.04482904 0.007364011 0.033454783 -0.020663166 -0.0048273797 0.014296856
-0.009815968 -0.012615912 0.026805736 0.03318328 -0.008497325 -0.017043982 -0.011447003 -0.008652244
0.033608083 0.0050576827 0.029099392 -0.0048543736 -0.009920434 -0.01583881 -0.009286091 0.030550001
-0.011826056 0.025220696 -0.010144206 -0.004162896 0.030374778 0.013928705 -0.019045783 0.03470991
-0.016637925 0.030461958 0.0 -0.013500796 0.038479295 -0.008166037 -0.032530636 0.015320197

sequential_8/conv1d_18/BiasAdd/ReadVariableOp f4 [45]
00000000: 472d c53b 83f2 703c 406d 8c3c 7531 69bc
00000010: 428a 39bc b64f 683c 22e8 3bbc 6e52 6cbc
00000020: d4f0 93bc d237 f13c 331d 01bb 467a b43c
00000030: ac98 c83b ca67 a63c aa99 343b 6fe6 723c
00000040: 0000 0000 54a5 143d 78c8 f33a e841 0c3d
00000050: 22d2 37bc 1aa2 b73c 5baa dd3b e6eb 843b
00000060: 33b1 863c 40eb c13c 0000 0000 21b5 0a3c
00000070: 2495 93bc 90c4 b33c f153 823c 283c 1abc
00000080: f48d b03b 1e9a 65bb 4ec8 823b e2b4 4f3b
00000090: 7324 48ba cd8b acbb 7e52 07bb 4880 30bb
000000a0: 6340 23bd 1272 a2bc d7a6 773b 74bc 6b3c
000000b0: 1e4f e83b
0.0060173604 0.014706257 0.017141938 -0.014232983 -0.011324467 0.014179161 -0.011468919 -0.01442395
-0.018059172 0.029445563 -0.0019701242 0.02203096 0.0061217155 0.020313162 0.0027557411 0.014825447
0.0 0.03629048 0.0018599173 0.03424254 -0.011219533 0.022416163 0.0067646927 0.0040564416
0.016441917 0.023671746 0.0 0.008466036 -0.018015452 0.021944314 0.015909167 -0.009413756
0.005388016 -0.0035034488 0.0039911633 0.0031693508 -0.0007634826 -0.005265689 -0.0020648534 -0.002693193
-0.039856326 -0.019829784 0.0037788653 0.014388192 0.0070895096

sequential_8/conv1d_17/BiasAdd/ReadVariableOp f4 [45]
00000000: 3708 7a39 3a39 e6bc 9f91 3ebc da43 ce3b
00000010: d661 46bc 18a5 1ebc 0030 933b cdf6 5c3c
00000020: a9c2 ef3c 62c2 0cbc 532b 0d3d da3a 843c
00000030: 8918 10bd 1d15 33ba 159e 4eba ee2a 8e3d
00000040: 7618 953c 67bf 9e3c 0a96 b13b 27ad d73b
00000050: ffa7 f2bb 1a89 f0bc d422 b2bc d910 ea3c
00000060: cd41 723d 29af 2abc 0000 0000 354b 003d
00000070: 83c7 fc38 764b 2ebd 63b6 24bd fb98 b4bc
00000080: 94df 36bb d9a4 3dbd 88bb 823c 6278 54bc
00000090: 07b6 fe3b 0e16 f8bc 443a bdbc 5bd9 c8bc
000000a0: a6cb 8c3c 8d66 19bc 77df a73c efee 56bc
000000b0: aada 0b3d
0.00023844918 -0.02810346 -0.011631398 0.0062947096 -0.012108287 -0.009682916 0.004491806 0.013486576
0.029267626 -0.008591266 0.034465145 0.016141344 -0.03517965 -0.0006831454 -0.00078818324 0.06941782
0.01820014 0.019378377 0.0054194974 0.0065819207 -0.0074052806 -0.02936225 -0.021745123 0.028572487
0.059144784 -0.010417738 0.0 0.031321723 0.00012053458 -0.042552434 -0.040213 -0.022045603
-0.002790426 -0.04629979 0.015958562 -0.012968155 0.007773164 -0.030283954 -0.023099072 -0.024517706
0.01718695 -0.009362829 0.020492299 -0.01311849 0.03414408

sequential_8/dense_16/MatMul f4 [784, 90]
00000000: c2e3 cb3d 21dc f43d b2a7 cb3d a6ce 2bbc
00000010: cfbb 9c3d a947 82bd 4f63 383d b11d b8bb
00000020: bdfb 9b3d 4ea1 91bd db48 323c 84e3 763d
00000030: 7117 db3d b5c6 17bd 5be1 df3d 95bb 1abd
00000040: 49e1 98bd 3f1f 86bc 49c2 fe3c b7fa c2bd
00000050: 0033 fcb9 3c65 c53b 3827 f2bd a0a3 c53d
00000060: d4dd 3ebe f863 25bd c38f 0fbd 4178 bf3d
00000070: e3db a53c 8e4a 0f3c aef6 09bd dc1f 3c3d
00000080: 3a07 88bc 77a4 f93c a54b dbbd 2230 f43c
00000090: 838b 9ebd 4efd 38bd c8e7 7f3d e848 023e
000000a0: a36e f4bc 0c25 9fbd 74f1 d5bc 83b9 3c3d
000000b0: b451 053e 747d 9c3c e73f a4bd c5fe 643d
000000c0: 83b3 f73c 63e6 533d fc14 6b3e 2066 85bc
000000d0: d990 143e 7fb7 723d 2381 bcbc 8c98 613d
000000e0: cb15 40bc a6a6 b33c c07e e83c 754c b0bd
000000f0: 9638 7abd 28d7 f13c 96cc ef3d 5b09 0abd
00000100: a0c2 8bbd c68d 4ebd 857f 06bd 4b88 8a3e
00000110: 52ca 583c e1cb 423e 16d3 ee3c d122 94bd
00000120: d9be 9bbd 221a 633d 440a 7c3c 0851 e83c
00000130: 7617 413d 446e 8f3d a404 b1bd 78b2 6a3e
00000140: bb37 ea3b 6512 cbbd 710f 273e a51d cebd
00000150: 22f7 a0bd ca4a ac3d a814 ef3c 8629 8f3d
00000160: 8cf5 2f3d c7f2 b93c a4e9 73be a66f 7e3c
00000170: 1f69 b4bd 35d4 bb3b 8729 a8bd 4c9a e4bc
00000180: 39cd 00be d134 e1bd 8539 5ebd 93aa 8e3d
00000190: 0df8 dbbd c96f 803c c123 683d 5e17 033d
000001a0: 6f96 8dbd 2f65 523a 54ca 953d 2a21 69bd
000001b0: be9f 94bc 6742 443d 5319 c13b c026 013e
000001c0: 5ad7 7b3c a212 a03d c32e 22bc 78f1 75bd
000001d0: c075 b6ba 6b11 d8bc 6054 10bd 20f1 333d
000001e0: 17dc 4b3d 62ac bdbc aa92 513d 0ff1 853d
000001f0: 4ee0 a93d 6eba ffbc f0ad 663d f405 44bb
00000200: fd36 c3bd 7995 ca3c 8342 70bd fb58 9bbc
00000210: c61c 4dbd 8107 18bd 8a9f 153e 1e3f 553d
00000220: 3a96 babc 8fe9 f93d d6db 703d f859 64bd
00000230: cc9f 18be fd8a 8dbc ba96 c03d 2197 16bd
00000240: 184e cbbd 4f61 e9bd 1d3a 5a3d 0296 33bd
00000250: f9f2 c6bd 2ddb 6d3d 5a2b 053d ceb4 29bd
00000260: 73df b73d 3d03 56ba 2d4a 313d c0c0 7e3d
00000270: db8c 70bd 618d 2a3e a192 dc3b c848 a23d
00000280: 7f84 b1bd 9020 63bd 6c72 6b3b cd2f 78bb
00000290: c6ee 2dbe b023 8b3d b776 8f3c 6c9b 60bd
000002a0: 84af 513d 7b8f 553d 0813 023e 9e68 d93d
000002b0: 1be8 893d aef2 87bc 3a48 b7bd b7fa 863d
000002c0: c37d 47bd ba28 e03d 0551 dcbd ab68 33bd
000002d0: acd0 d73d 3e6a e83b 24a3 8bbc 79bb 3b3c
000002e0: 862a 5b3d 8216 503d 86ef 993d 87d5 df3c
000002f0: 6c6b 9ebd 296f 7cbd 26ec 13bd 5bbd e03c
00000300: 815e cfbd 51d4 64bc 4eb7 c9bd 9179 6f3d
00000310: 3060 67bd ddf1 533d 1679 05bd 53cd 7abc
00000320: d48c 15bd 6443 05bd 59d3 1bbd 0a29 8dbd
00000330: 8f7e 58bd 5355 1fbd e4cd 6abd dd9d 7fbd
00000340: 7c86 af3c 2d0a 3b3d b200 6cbd 0d41 693c
00000350: e045 65bb a467 bfbd 272f b2bc 7591 61bd
00000360: a532 2d3d 6ed8 b0bd bb8b 96bd 4aa8 bdbb
00000370: 4073 36bd 9479 a73d 16db 173d 3ac9 ba3c
00000380: 4148 76bd 3926 5c3e 6993 83bd 71c4 34bd
00000390: 93b4 03bd 40a4 e03b 650e 813c aeae 0abe
000003a0: c49a 59bd adf2 a9bd c60d 1cbd 020c 23bc
000003b0: e19c 823d 7480 143d ffed 0a3d 37f4 adbc
000003c0: d783 523d 686a 26bc f30f 4c3c f0e3 a0bd
000003d0: 8731 60bd cc25 6ebd f630 b93c b489 453d
000003e0: 0bc3 c1bd 6f48 bc3d 37cc 123d 56c0 51bd
000003f0: bb1b c4bd 0688 e6bc 3ef8 853d 4519 2d3d
0.09955551 0.11956049 0.09944095 -0.010486281 0.07653009 -0.06361324 0.045016583 -0.005618774
0.07616375 -0.071108446 0.010881628 0.06027557 0.106978305 -0.037054736 0.10931655 -0.03777655
-0.07464845 -0.016372321 0.031098502 -0.09520476 -0.00048103184 0.006024031 -0.11823887 0.096503496
-0.18639308 -0.04037854 -0.03504921 0.093491085 0.020246452 0.008745803 -0.033682518 0.04592882
-0.016605008 0.03047393 -0.107077874 0.029808108 -0.077414535 -0.045163445 0.062476903 0.12723124
-0.029837912 -0.07770738 -0.02611611 0.046075355 0.13019449 0.01910279 -0.08020001 0.05590703
0.030236965 0.051733386 0.22957224 -0.016284049 0.1450838 0.059257027 -0.023010796 0.05507712
-0.011723946 0.02193005 0.028380752 -0.08608333 -0.06108912 0.02952154 0.117089435 -0.03370033
-0.06824231 -0.050428174 -0.032836456 0.27057108 0.013231831 0.19023086 0.029153388 -0.07233203
-0.07604761 0.055444844 0.015383307 0.028358951 0.047141515 0.070034534 -0.08643463 0.22919643
0.007147757 -0.09915618 0.16314484 -0.10064248 -0.07859637 0.084127024 0.029184654 0.06990342
0.04295878 0.022698773 -0.23819596 0.015529549 -0.08809113 0.005732084 -0.08211046 -0.027905606
-0.12578286 -0.10996402 -0.054254074 0.06966128 -0.10740671 0.015678303 0.056674723 0.032004707
-0.069134586 0.0008025942 0.07313982 -0.056916393 -0.018142577 0.04791489 0.0058929115 0.12612438
0.015371168 0.07816054 -0.009898844 -0.060044736 -0.001392059 -0.026375493 -0.035236716 0.043931127
0.04977044 -0.023153488 0.05116526 0.06540119 0.08294736 -0.031216826 0.056318223 -0.0029910775
-0.095319726 0.024729477 -0.05865718 -0.018963328 -0.05007627 -0.03711653 0.1461164 0.052062146
-0.022776712 0.12202751 0.058803402 -0.055749863 -0.14904708 -0.017278189 0.09403749 -0.03676522
-0.099270046 -0.11395513 0.053278077 -0.04384423 -0.09714312 0.05807035 0.032512046 -0.041432194
0.089781664 -0.00081639347 0.04328363 0.06219554 -0.05872808 0.16655494 0.0067313467 0.07924038
-0.0866785 -0.055450976 0.0035926355 -0.0037870288 -0.16985616 0.06793916 0.017512662 -0.05483572
0.051192775 0.052138787 0.12702572 0.10615657 0.06733724 -0.01659521 -0.08949323 0.06590789
-0.04870392 0.10945268 -0.10757641 -0.04380099 0.10537848 0.007092743 -0.017045565 0.011458271
0.05350735 0.050802715 0.075163886 0.027323497 -0.07735333 -0.061629448 -0.03611388 0.027434042
-0.10125447 -0.013966636 -0.09849416 0.058465544 -0.056488216 0.05174433 -0.03258618 -0.015307742
-0.036511257 -0.03253497 -0.038043354 -0.06892593 -0.05285507 -0.03889973 -0.05732526 -0.06240641
0.021426432 0.045664 -0.05761785 0.014236701 -0.0034984276 -0.0934594 -0.021751 -0.05507036
0.042284627 -0.08635031 -0.0735087 -0.005787884 -0.044543505 0.08177486 0.03707417 0.02280103
-0.0601275 0.21498956 -0.06424601 -0.044132654 -0.03215463 0.0068555176 0.015753934 -0.13543198
-0.05312611 -0.0829824 -0.038099073 -0.009951593 0.063775785 0.036255315 0.033918377 -0.021234615
0.051395264 -0.010157205 0.012454974 -0.07855976 -0.054734733 -0.058141515 0.022606354 0.048227027
-0.094610296 0.09193503 0.035839286 -0.051208816 -0.09575602 -0.028141033 0.06541489 0.042260427

sequential_8/dense_17/MatMul f4 [4, 784]
00000000: ed72 7e3d b9a6 6ebd d87e 0c3d fc96 bfbb
00000010: 88e8 f33d eb6d 353e 32a7 29bd eebf f63d
00000020: f6bd 1bbe ea5d f7bd 1b5f b6bd 8f80 373d
00000030: 327f 06be 837c 673d 0271 00bc 4146 2dbe
00000040: b27d 0f3e 70b9 eebc b60b ed3d 1878 083e
00000050: bcfd 84bc 1500 05bd 585a 80bd f984 93bc
00000060: ca3e a63d 4e87 0f3e 4dd2 bebd d51e 833c
00000070: 8ae7 4d3d c1bd 7cbd 034f 193e bbd0 ffbc
00000080: 53d7 a73d c299 0abe 89f5 a7bd df6d 183e
00000090: 236e 09bd f6c7 4a3e 9f78 e13d bcbd 5ebd
000000a0: fcad b93d 39ca 71bc 9c76 6dbd 2676 3e3d
000000b0: c07f 3fbe c7a0 203e 5bf0 0b3c 61e2 00be
000000c0: 59dc 5d3c 4caa 323d fbaf 9fbd 3cb2 de3c
000000d0: 4cf6 253c 098d d03d 5582 d1bd 3f20 b23d
000000e0: dfbc 86bb 4b9f aabd c47a 793d fdf6 3f39
000000f0: 19d6 4b3d f95c 55bc 1f16 1a3e 785b 9fbd
00000100: d338 42bb 87b0 6e3d 5eb6 563e 44a4 633b
00000110: db2e 193d f924 ea3d a72d 623d cacf db3d
00000120: 288a 08be 6cf6 fb3d 11f5 8bbd acfe 1a3e
00000130: 2654 a8bc 266f 1a3d 4a2d 40bd 9fdd 11bb
00000140: 88b2 083e 587b 713b fba2 f83d 71d7 75bd
00000150: f0ba 43bd 7b57 393d f6f1 093c d891 94bc
00000160: aa6e 67bd 17a5 96bd 5704 063e d771 1dbe
00000170: 653f 18bd 17d1 acbd 22bf 0dbe 2fe3 b03c
00000180: 6ec2 5d3d 6958 8d3d 5fcb ff3d 6965 a03d
00000190: 4ee6 9e3d 4771 65be df9c 983c ba36 04be
000001a0: 764f 513d 0fa2 b7bd 83f9 ce3d b70e 01be
000001b0: 3b34 e63d 2660 3cbd 4ba8 8d3d 83df 193d
000001c0: 1ca5 2dbd 066f 73bd 1bc6 773d d32d 8ebd
000001d0: 043c 9bbd bfe6 46bd 07fe 043d 0462 3ebd
000001e0: 076a b7bc b72b 0dbd 301e 5c3d 2983 b03d
000001f0: 8a32 43bd fd73 bd3c 37c6 3bbd 0355 16be
00000200: ff1f d3bd df81 fdbc 3796 4bbe 0a28 1abe
00000210: 97b0 48bd ad76 113e b244 eb3d edd3 ae3d
00000220: e81b 4fbe 551e a1bc b952 013e c920 383c
00000230: ee24 e33d db48 fc3b bc0e 163d d5e0 7e3d
00000240: 2aaf c23c f5b1 f5bc 9c2e d7bd aca3 0d3c
00000250: 867e cbbd c72c aa3d 00ab 51bc 47b3 00bc
00000260: 2589 703d b6dc c6bd 1f1c c83d ee22 23be
00000270: 436d 113d 51ec 903d 641c 11be 0179 19be
00000280: b74c 493d 1368 ff3c 6cf8 de3d 1f77 27be
00000290: 5014 db3d 0560 ddbd c79b 893d ad82 d63d
000002a0: 2b85 a63c fb98 6a3e 54ef a3bd 115e 80bd
000002b0: e7b0 ee3d 3359 c73d 712b d0bc c407 06be
000002c0: 5543 ecbd ff3f 41be 894d 0bbb d8b9 d43c
000002d0: 2be1 883d 831e 4fbd 59f0 06be 713f 61bd
000002e0: 4d1c 11bc 55d2 cf3d a43c 133e 6fb7 09be
000002f0: 10a3 183d 1b5e 5abe 1ca6 8dbd 5e65 e9bd
00000300: d070 d9bd cb5c 83bd 9085 0f3c f146 90bd
00000310: 8f0b 973d 4f58 a03d 9d16 4bbe 7787 a63d
00000320: 97a0 b23d 17d0 1c3d d71d 4e3d 7af5 983c
00000330: 2245 9ebd 6ca2 f23b a215 e7bc badb cd3d
00000340: 712b b23b 822e 7dbd 25bc b73c 0377 8d3d
00000350: 05bc 7bbe 8ba9 d1bd 4c3f 5d3d 4357 c1bb
00000360: face cc3d 00bb 263d b293 433b 4d84 28bd
00000370: 93a2 e3bc 3799 2fbd 6b5f 773c 6cb1 483e
00000380: 5d66 9d3d 8a15 9ebd 7411 593e 5a8a cc3d
00000390: 3b89 143e b19e 9b3c fcb2 b8bd c378 f8bc
000003a0: f63c 77bd a09e 9ebd c5d1 21bd 440d 893d
000003b0: dfcc 34be d3e6 0bbc f448 443a 0371 833d
000003c0: 73f1 16be b6de e33d efd9 2ebe 5e7d 05be
000003d0: 8532 933d a5ea b63d 1952 64bd 4eaf 213e
000003e0: 6fee 703a 3fc4 073d d2a1 abbd 0d54 29bc
000003f0: 8512 d43d 8ab0 26bd 131a 44be e10a dbbd
0.06212132 -0.058264468 0.034300655 -0.005846856 0.11909586 0.17717712 -0.041419216 0.120483264
-0.15209183 -0.120784596 -0.08904859 0.044800337 -0.13134459 0.056515228 -0.007839443 -0.16921331
0.14012793 -0.029141158 0.11574499 0.13327062 -0.016234271 -0.03247078 -0.06267232 -0.018007742
0.08117445 0.14016458 -0.093174554 0.016005913 0.05026964 -0.0617044 0.14971547 -0.03122746
0.08195367 -0.13535216 -0.08201129 0.14885662 -0.0335523 0.19802842 0.11009335 -0.054380164
0.09066388 -0.014757686 -0.057974443 0.046499394 -0.18701077 0.15686332 0.008541192 -0.12586357
0.0135413045 0.04361944 -0.077972375 0.027184598 0.0101295225 0.1018315 -0.10229937 0.08697557
-0.0041118707 -0.08331164 0.060908094 0.0001830719 0.049764726 -0.013022655 0.15047501 -0.07781118
-0.002963592 0.05827382 0.20968005 0.003473536 0.0373982 0.11432833 0.05521932 0.10732992
-0.13333952 0.123028606 -0.06833852 0.15136212 -0.020547938 0.037703656 -0.04691819 -0.002225734
0.13349354 0.00368472 0.12140461 -0.060019914 -0.0477857 0.045249444 0.008419504 -0.01813595
-0.05650202 -0.07355707 0.13087593 -0.15375458 -0.037169833 -0.08438318 -0.13842443 0.021592705
0.0541405 0.069016285 0.12489962 0.078318425 0.07758771 -0.22406493 0.01862949 -0.12911502
0.05110117 -0.08966457 0.10106184 -0.1260327 0.11240431 -0.04599013 0.06916865 0.037566673
-0.04239379 -0.059432052 0.060491662 -0.06942334 -0.075798064 -0.0485599 0.03246882 -0.046480194
-0.022389425 -0.034465518 0.053739727 0.08618767 -0.04765562 0.023126597 -0.04584333 -0.14680867
-0.10308837 -0.030945716 -0.19881521 -0.15054336 -0.048996534 0.14205427 0.11487712 0.085365154
-0.20225489 -0.019667784 0.12629212 0.011238285 0.11091028 0.0076991147 0.036635146 0.062226135
0.023765165 -0.029992083 -0.10506937 0.008644979 -0.09936242 0.08309322 -0.012797117 -0.007855243
0.05872454 -0.09710066 0.09770989 -0.15931293 0.03550459 0.07076324 -0.14170986 -0.14987566
0.049145427 0.031177556 0.108872265 -0.16354035 0.10697234 -0.1080933 0.06719165 0.10474143
0.020327171 0.2290992 -0.080046326 -0.06267942 0.11654835 0.0973381 -0.02541134 -0.130889
-0.1153628 -0.18872069 -0.0021255931 0.025967523 0.066835724 -0.050566208 -0.13177623 -0.054992143
-0.008856845 0.101475395 0.14378601 -0.1344888 0.037264884 -0.21324961 -0.069164485 -0.113962874
-0.106172204 -0.06414183 0.008759871 -0.07044781 0.073752515 0.078293435 -0.19832845 0.081313066
0.08722036 0.038284387 0.050321426 0.01867174 -0.0772803 0.007404616 -0.028208558 0.10051675
0.0054373075 -0.06181193 0.022428581 0.06907465 -0.24583443 -0.10237416 0.054015443 -0.005900295
0.10000415 0.04070568 0.0029842672 -0.041141797 -0.027787482 -0.042870726 0.015098433 0.19598931
0.0768554 -0.07718952 0.21198064 0.09987326 0.14505474 0.018996568 -0.090185136 -0.030331021
-0.06036087 -0.07745099 -0.039506692 0.06691983 -0.17656277 -0.0085389195 0.00074876775 0.0641804
-0.14740543 0.11126463 -0.17075323 -0.13036105 0.0718737 0.08931474 -0.055742357 0.1578953
0.0009190803 0.03314614 -0.08380474 -0.010334981 0.10355095 -0.040695705 -0.19150572 -0.10695434

sequential_8/conv1d_17/Conv1D f4 [45, 1, 3, 10]
00000000: 6b7b c93d 9c93 f7bd 0e04 943d d0cb d3bd
00000010: a777 d0bd ea77 7dbc 4fc6 d5bd 548d 02be
00000020: 3010 a63d 6e32 543e 5c6e 813d dd17 683d
00000030: e9d9 92bb 29d6 e93d a2ff 203e 1098 223e
00000040: d86f ae3d 5b88 433d 8b7f bc3d e3e1 85bd
00000050: 6d4e a2bc c526 813e 3cf0 79bd ce7f 9ebd
00000060: 4433 733e 116a 7b3d 4b6d 993e 02ad eabd
00000070: 9808 833e 525a f43c 2aac c53d f924 573d
00000080: ef85 dcbd 8302 babe 732a 293d 52c4 ca3d
00000090: f3b1 d43c 9fbb 2d3e 0cf4 5d3e 1da4 08be
000000a0: 934a 36be 07f5 92bd 8c39 b13c 6535 8dbe
000000b0: 2732 0d3e 0d0d aebb bdeb 23bd f7dc d6bd
000000c0: a31f 6c3a 51fa 2d3e 2d2e 263e 45c9 2fbe
000000d0: 1aaf 813d 7a7d 05be da93 1bbe 0e3d c8bc
000000e0: 8e4f da3d da32 033e 6693 11bd f882 853e
000000f0: 1b1f 93bd 464e 14be 8c78 cc3c 0879 f7be
00000100: 8a33 17be abfd 023e 78ed 4cbe d528 0dbe
00000110: 87ca 4dbe 8fd4 0b3e 2a43 cf3b 5e64 01be
00000120: f32a 85bd 8e50 44be 05b9 e4bd 6fac c43d
00000130: 25c9 e13d 1fd6 edbd 95d4 533e 1683 d1bd
00000140: 5a9d 483e f3f9 c53d c0c5 72bd 30cf 58bc
00000150: d317 19bd ecf5 a03c 8192 8abd 163f 0a3e
00000160: d639 593d a598 3e3e 8ddc 41be a25e ae3c
00000170: 404d 513e 1d27 fd3b 9b81 403e dcb7 f3bd
00000180: 9294 463e 7a19 d93d e48a ddbd 0388 c93d
00000190: b7fa 3fbd e0f2 78bd 9589 fbbc 8bc4 abbe
000001a0: da39 0e3d 63fc 60bd 2e49 23be 4abc a33c
000001b0: c2b8 47be c57d af3d 0ad1 1abe bc63 003e
000001c0: 1af5 933d e958 be3b fe58 003e b976 a93e
000001d0: 9fab d5bd 468f 323e 2fec a03e 6ded 96bd
000001e0: 667d fe3d 2b67 ab3d 2fa8 1e3e c790 babc
000001f0: 3b43 233e 76ec 92bd bfc6 b9bd 1b9a de3d
00000200: 5801 fbbd 28b2 c93d 532e 82bd 1158 9fbd
00000210: c95b 76be 68b4 893d cf66 783e a1a5 7d3e
00000220: c941 043e 7b9e ae3d aa59 8d3e 5159 81be
00000230: b9c6 55bc 3677 9abb 4f65 36bd 1382 b33e
00000240: 1f57 633c 40dd 4abe ca52 bebc 2035 13be
00000250: e7a6 e3bc ecdd 233e 57c0 7b3a ba6f e93d
00000260: 4a55 2c3e 1a90 63be c0bb cd3d 34b5 96bc
00000270: 460e 3c3d 85f2 ffbd e1e1 d43d fec4 493e
00000280: 9db6 033c a9c5 e7bc 880a 0e3e 28ff 7abd
00000290: 5403 123e 782e f33d 745f 00be 7c2c 313e
000002a0: a632 203e db39 21bc 8ac5 cfbe 6b7d e3bd
000002b0: ceb2 d93c ed27 553e fd88 273e de39 763e
000002c0: a5b4 bdbd bfb1 dfbc 4589 043e a25a 79be
000002d0: 321f 3cbe 6ebd 3e3e fa21 46bd 37bf 193d
000002e0: e16e e63d ed49 e63d 6e73 bf3e 9eda 863e
000002f0: 9da1 12be ccca 253e 7ac4 a23d da58 473e
00000300: d06c 39be 144c f63d 5a60 353e a2c9 f83b
00000310: 1988 e33d 3dc9 cd3c 33e5 133e f292 9cbc
00000320: 86ea 52be 59ed 543e cbdc 39be 8f7d 65be
00000330: f970 043d 17f5 9a3c 0a72 f83d fe8e e0bd
00000340: 8467 fabc 9fe4 1fbd 5b6d 613e 9d3f 51be
00000350: adc6 32bc a517 8cbd 73b5 3fbe 7a10 2f3c
00000360: eabc 46be 56c3 11bd fbf0 b83d b40d 38be
00000370: 92a2 abbd f100 6a3e 1761 47bd 7948 54be
00000380: a6d2 e6bc be4f a6bd 064e 763e 18f5 3fbe
00000390: a1ca fbbc 3d4e f23c 9921 073e 8d6c 1c3e
000003a0: 9a2b 8ebd 649d c5be a9b3 e63d cf64 273e
000003b0: 341b 073c 9829 f73b adb3 c13d f3ff 9c3d
000003c0: c348 39be 4338 183e 3545 fcbd bdd6 01bd
000003d0: 0d9b 0ebe 64cc e5bd 82d9 e4bd 3105 113e
000003e0: c951 26be 28cf 6fbd fe6f 993d b696 25be
000003f0: 657d e9bd 5dcc 433e dff7 3fbe a95a f4bd
0.09837993 -0.12088701 0.07227336 -0.103416085 -0.10179072 -0.015470484 -0.10438215 -0.12749225
0.08108556 0.20722362 0.063198775 0.056663383 -0.0044815433 0.11417801 0.15722516 0.1587832
0.08517426 0.04773746 0.092040144 -0.06537225 -0.019812787 0.2522489 -0.06102012 -0.077392206
0.23750025 0.06138045 0.29966196 -0.1145878 0.25592494 0.029828224 0.09651978 0.052525494
-0.10767733 -0.3633004 0.04130025 0.099007264 0.025963759 0.16966103 0.21675128 -0.13343854
-0.17801885 -0.071756415 0.021633886 -0.275798 0.13788663 -0.0053116144 -0.04001974 -0.104913644
0.00090074 0.1699002 0.16228552 -0.17166622 0.06332226 -0.13036147 -0.1519312 -0.024443176
0.10659705 0.12812367 -0.03554096 0.26076484 -0.07183667 -0.14482984 0.024959825 -0.48334527
-0.14765754 0.12792079 -0.20012462 -0.13785107 -0.2009679 0.13655303 0.0063251453 -0.12635943
-0.065023325 -0.19171354 -0.11168102 0.096032016 0.110246934 -0.11613106 0.20686562 -0.10230081
0.19591275 0.09666815 -0.05927062 -0.013232991 -0.037376236 0.019648515 -0.06766225 0.13500628
0.053033672 0.18612917 -0.1893179 0.021285359 0.20439625 0.00772561 0.1879944 -0.11900303
0.19392613 0.106005624 -0.10817507 0.09840395 -0.04686996 -0.0607785 -0.030705253 -0.33548388
0.03472314 -0.054928195 -0.15945885 0.019987244 -0.19504073 0.085689105 -0.15118805 0.12538046
0.07224484 0.0058089388 0.12533948 0.3309839 -0.10433125 0.17437467 0.31430194 -0.07369504
0.124262616 0.08369287 0.15493844 -0.022774113 0.15943615 -0.071740076 -0.09071111 0.10869237
-0.12256116 0.09848434 -0.06356492 -0.07780469 -0.24058451 0.06723863 0.24257968 0.24770214
0.1291572 0.085263215 0.2760747 -0.25263456 -0.013047867 -0.004713918 -0.04453021 0.35060176
0.013875752 -0.19810963 -0.023232836 -0.14375734 -0.027789546 0.16002625 0.0009603551 0.11398263
0.1682941 -0.22222939 0.10045576 -0.018396951 0.04591205 -0.12497429 0.103946455 0.19704053
0.008039144 -0.028292494 0.13871205 -0.061278492 0.14259082 0.118740976 -0.12536412 0.17302126
0.15644321 -0.009840454 -0.40580398 -0.11107906 0.026574519 0.20816012 0.1636085 0.24045512
-0.09262971 -0.027306436 0.12942989 -0.2435098 -0.18371275 0.18626949 -0.048372246 0.037535872
0.11251617 0.11244569 0.37392753 0.26338667 -0.14319463 0.16190642 0.07947631 0.19467488
-0.18107915 0.120262295 0.17712536 0.007592396 0.11109943 0.025120372 0.14442901 -0.019113038
-0.20597276 0.20793666 -0.18150632 -0.22411178 0.0323343 0.018915696 0.12131126 -0.109647736
-0.030566938 -0.03903639 0.22014372 -0.20434423 -0.010911626 -0.06840447 -0.18721561 0.010685081
-0.19408002 -0.035586677 0.090303384 -0.17973977 -0.08380617 0.22851922 -0.048676576 -0.20730771
-0.028176617 -0.08120678 0.24053201 -0.1874584 -0.03073627 0.029578323 0.1319641 0.15275784
-0.0694191 -0.38596642 0.11264736 0.16347049 0.008246232 0.0075428 0.094580986 0.07666006
-0.18094163 0.14865212 -0.12317888 -0.03169893 -0.13926335 -0.11220625 -0.11174299 0.14162137
-0.16242136 -0.05854717 0.07492064 -0.16170773 -0.1140087 0.19120927 -0.18746899 -0.119313546

sequential_8/conv1d_18/Conv1D f4 [45, 1, 3, 45]
00000000: 0a53 68bc c056 1bbd 9911 653d 78de 25bd
00000010: d82a 243e 5db0 003e b018 febd a98e c53c
00000020: 7e3f 93bd 254c 843d 6b50 af3d c1e1 ff3c
00000030: 0266 29be 29e5 dbbd bd93 74bb 7971 c43d
00000040: 3db8 74bd 74dc ab3b 33e3 d23d efdb 42be
00000050: 2860 02bc 5bd0 7abe b973 1cbe fa09 38be
00000060: 8ee5 343e dae1 a4bb e03b b73c b1a9 91bd
00000070: decd d3bd 79d0 0dbe a2b3 063e 7c52 97bc
00000080: 3670 a3bc 4777 183e 277c 14bc 8381 29be
00000090: 021b a9bd 9b3f 7f3d 70d8 2a3e e021 18bd
000000a0: dce2 89ba 33af fe3c 8d54 91bd 291a a33d
000000b0: 0486 99bc b7c6 e6bd ed32 02be d57f 4e3d
000000c0: 6da9 a9bd aba3 85bd 1e8c 3e3e 1385 133e
000000d0: 19a4 36be 0ad0 05be 1ce2 d23d e57a 903d
000000e0: 86aa 7c3e 21b8 49be d705 163e df9d 393e
000000f0: a6c2 523d 53ec 8dbe 059a 9f3d 60b6 13bd
00000100: 623d 6f3d ac04 a83d df6f b83d 6d12 fcbd
00000110: 4936 7d3e ae26 373e 14da 3c3d c0fa 793c
00000120: 83e1 95bd ac25 be3d 40cd 77bd 66dc 9c3d
00000130: 338e 87bd 8c73 13bd cde1 cbbd 7cfa 8fbc
00000140: af11 4ebb 06a2 efbd cebb b8bc 8da8 6fbd
00000150: 820f 61be 9cd6 1e3e 6549 4a3e c38a a23d
00000160: a4d2 b93e 7604 5abc 5fa2 f2bd b4f4 61bd
00000170: 6535 903d adf8 bfbd ca42 dd3d 30ca 16be
00000180: f883 e23d 044b 843d 40ba 163d b184 8d3d
00000190: 39fe 763d ac0e 2bbd de30 bdbb 5953 65bc
000001a0: f77d d83c 6c9c d03c 584d 9bbc cfbc 333c
000001b0: 77bf 053e 5fb8 243c f4f3 74bc 5a0a 27be
000001c0: 75d0 e0bd 701d 403d 264c 0dbd 3471 073e
000001d0: 74df 073d 78e1 1bbe fff3 3b3d 61f9 0cbe
000001e0: 1564 7abd 9c89 103b 7476 743d 9cac afbd
000001f0: f548 20be b253 adbd 1677 4cbd 6dd9 1f3d
00000200: b559 15bd d8c2 adbd 03d8 073e 9d1e 61bc
00000210: 2287 2cbe e020 67be e72d 333e 75dd 00be
00000220: 0d0d 5fbd 53c4 183e ba6c 153e 7471 5abe
00000230: 4c96 113e 0aeb f2bd d224 c7bd d067 1c3c
00000240: a406 42be bd41 593c 630b 05bb 7eaa 1d3d
00000250: e7f4 fabd 53ae 07be a58e 38bc 92c1 8b3c
00000260: 6c97 393e 8408 c63c fc3c 9b3d f7c3 ac3b
00000270: 7f6c bd3d 51fa 803c 01f3 8bbd f0eb f1bd
00000280: 1478 243e c245 9ebd 0c58 0b3e 7b70 cf3d
00000290: 51e7 64bd 4969 a03d e1b2 683d f18b 033e
000002a0: ee22 983d 4bf4 c03c 122d 83ba f8c1 1a3e
000002b0: b2ff dcbd c458 8839 b274 963d fc9e 843d
000002c0: 01ae 6ebd a5f2 0a3c 1e7b 613d 622d f5bd
000002d0: 3736 913e adfe 39bd c5fc d3bd 3f0d 403e
000002e0: 3f1f f73d acbb 5d3e a2fd e13d 5a0f 593c
000002f0: a190 49bd e3f5 e73a a788 9ebd 025b 1cba
00000300: 14dc 5d3c 8c4d 5a3e 598f 2e3c f835 eabc
00000310: b26f bdbc d1a4 ab3d 417b e53d f875 a93c
00000320: 4e33 383e a261 7fbd e204 12be 7b21 7d3e
00000330: b390 c43b cbf4 08be a402 3e3d 9f91 7d3c
00000340: 9e99 0dbd 3d4e dc3c 2108 aebd ecdc 383e
00000350: 3995 8dbd f250 1fbe 7399 153e ae94 dbbc
00000360: 7ab2 6b3d 26d6 833e df02 883e 4d94 cb3d
00000370: 739b e9bc 2bd9 05be e416 843e 69dd 9dbd
00000380: ea08 97bc 630e 65be 5b0f 90bd 24ac 75bd
00000390: 78c8 f7bc f2e1 3ebe a56d 1fbe 010d b7be
000003a0: 7f44 e7bd ed61 a13e b8c3 d93c d75b c9bd
000003b0: d3a3 0cbe aac7 d33d 37b7 a0bd 6894 98ba
000003c0: b5b8 493c b8ce 0fbe 97d3 60be 1952 9bbd
000003d0: b8bc 90bd fd7b 113e d2f3 75be a937 2abd
000003e0: c3a6 6a3d f331 d53d c253 723c 86b6 f6bd
000003f0: 02a3 9e3e e1cd 01be 7f41 36be 6363 0cbe
-0.014179954 -0.037924528 0.055924986 -0.040495366 0.16031969 0.12567277 -0.124070525 0.024115877
-0.071898445 0.06459836 0.085602604 0.031235578 -0.16542819 -0.10737068 -0.0037319504 0.09591956
-0.059746016 0.005244786 0.10297241 -0.1902921 -0.007957496 -0.24493544 -0.1527852 -0.17972556
0.17665693 -0.0050318064 0.022367418 -0.07112444 -0.103420004 -0.13849057 0.13154462 -0.018471949
-0.019950967 0.1488925 -0.009062803 -0.16553311 -0.082571045 0.06231652 0.16684127 -0.03714168
-0.001051988 0.0310894 -0.07096205 0.07963974 -0.018740661 -0.112683706 -0.12714739 0.05041488
-0.082842685 -0.06525358 0.18608138 0.14406233 -0.17836036 -0.13067642 0.10297033 0.0705469
0.24674425 -0.19699146 0.14650665 0.1812663 0.051455162 -0.27719364 0.07793049 -0.0360626
0.05840815 0.08204016 0.09005713 -0.12308202 0.2472774 0.17885849 0.046106413 0.015257537
-0.073184036 0.09284529 -0.060498476 0.07659225 -0.06618919 -0.035998866 -0.099551775 -0.017575495
-0.0031443646 -0.117008254 -0.02255049 -0.058510352 -0.21978572 0.15511554 0.1975456 0.07936623
0.3629352 -0.013306728 -0.11847376 -0.055165008 0.07041434 -0.09373603 0.10803755 -0.14725566
0.11060327 0.064596206 0.036798716 0.069100745 0.06030104 -0.04176204 -0.0057736477 -0.013996922
0.026427252 0.025465213 -0.018957779 0.010970308 0.1306132 0.010053723 -0.014950741 -0.16312543
-0.1097726 0.046903074 -0.03449645 0.13226777 0.033172086 -0.15222728 0.04588699 -0.13767006
-0.061130602 0.0022054678 0.05968328 -0.085778445 -0.15652831 -0.08463229 -0.049918257 0.039025713
-0.036462504 -0.08484429 0.13265996 -0.013740209 -0.16848424 -0.22571135 0.17497979 -0.12584479
-0.054455806 0.14918642 0.14592257 -0.21332341 0.1421749 -0.118612364 -0.0972382 0.009546235
-0.18947846 0.013260302 -0.0020300976 0.038492672 -0.12253743 -0.13250093 -0.011264478 0.017060075
0.18124169 0.024173982 0.07579991 0.0052723843 0.092492096 0.01574436 -0.06833459 -0.1181258
0.16061431 -0.07728149 0.13607806 0.10128876 -0.055884663 0.078325815 0.056811217 0.12846352
0.07428537 0.023553988 -0.0010007939 0.15113056 -0.107909575 0.00026006077 0.073464766 0.06475636
-0.05827141 0.0084807025 0.055049054 -0.11971547 0.28361675 -0.045408893 -0.10350946 0.18755053
0.120665066 0.21653622 0.11034705 0.013248289 -0.049210194 0.0017697181 -0.07740908 -0.0005964489
0.01354124 0.21318644 0.010654294 -0.028590187 -0.02312455 0.083810456 0.112051494 0.020686135
0.17988321 -0.06234897 -0.14259675 0.24719803 0.005998695 -0.13374631 0.046389237 0.015476613
-0.03457033 0.026892776 -0.08497644 0.18053025 -0.069132276 -0.15558222 0.14609317 -0.026804294
0.057543255 0.2574932 0.2656469 0.099403955 -0.028516507 -0.13071124 0.25798714 -0.07708246
-0.018436868 -0.2236877 -0.07034179 -0.05997862 -0.030246958 -0.18640879 -0.1556917 -0.3575211
-0.112923615 0.31520024 0.026582584 -0.0983197 -0.13734369 0.10340817 -0.078474455 -0.0011640908
0.012312104 -0.140437 -0.21955715 -0.07584018 -0.07067245 0.14207454 -0.24018791 -0.041556988
0.057287943 0.10409918 0.014790477 -0.12046532 0.3098374 -0.12676193 -0.17798422 -0.13709788
