models/model-pi10mins.tflite (tflite, 241516 bytes, 8 tensors)

sequential/conv1d/BiasAdd/ReadVariableOp f4 [56]
00000000: 7f26 8d3c 312d bd3c 18c5 c0bb a24e be3a
00000010: 11c4 d03c c7f4 383c 41b0 f93c e958 123c
00000020: d2e1 d13b bbe6 043b 436f 1cbc ae20 f43b
00000030: bc88 d13a 8d18 1d3d 53ab 013d 003d a63c
00000040: b9e7 fc3c b206 a23c 7ab4 ee3b d5ff ae3c
00000050: 5bbd 8f3c a4e2 77bc 5bca c03b 6fdd 313c
00000060: 8418 223d d8f3 233c 2d0e 7c3c 3a58 7b3c
00000070: e3cd ca3b a08b b23c 4f3c c53c 312e 653c
00000080: f143 5c3c 9b46 19ba fff7 933c 96c6 9b3c
00000090: b91b 14b7 98a0 4b3c 5976 763c a2fd 463a
000000a0: 7b27 d63b 26c9 f4bb 6910 323c 3eb4 843c
000000b0: 1c82 70bc fefa 813c d6c9 cf3c 4f13 213c
000000c0: f2d1 babb 13c5 ae3c ab3b b43b c7f5 5f3c
000000d0: 869e 073d a823 a5ba 8e0e 5c3c cccb b33c
0.01723027 0.023092838 -0.0058828704 0.0014519284 0.025484117 0.011288828 0.030479552 0.008932331
0.0064050937 0.0020279128 -0.009548011 0.007450185 0.0015986185 0.03835349 0.031657528 0.020292759
0.030872213 0.019778583 0.007284698 0.021362225 0.017546346 -0.015129719 0.0058834977 0.010856017
0.03957416 0.010006867 0.015384239 0.015340859 0.0061890944 0.021795094 0.024076609 0.013988064
0.013443933 -0.0005847008 0.01806259 0.019015592 -8.827942e-06 0.012428425 0.015042865 0.0007590895
0.006535468 -0.007470268 0.01086817 0.016199227 -0.014679458 0.015866753 0.025364798 0.009831264
-0.005701297 0.021334207 0.005500277 0.013669438 0.033110164 -0.0012599127 0.0134312045 0.021947764

sequential/conv1d_1/BiasAdd/ReadVariableOp f4 [56]
00000000: 0000 0000 9b76 eb3b 32ec 873c 31c9 5b3b
00000010: 6a62 c03c e20d b6bb 8bb1 a63c f43e 1f3c
00000020: df43 763c 4b61 443b 9748 9dbb 0000 0000
00000030: 0000 0000 e817 053c 0e3f 81bb adfb 9d3c
00000040: 6b19 ef3b b3ee ad3c 0000 0000 da78 0e3c
00000050: 8c66 683c 570a 713c 04f9 c23b ba5f 043a
00000060: 3dbf 10bb 3e25 bbba 4dc5 4bbb a41c 813c
00000070: 25f8 ac3c f2fe ff3b 2830 dfbb 633f 0c3c
00000080: 8c72 313c 08d2 6d3c 1ab0 7e3c 36fd 74bb
00000090: 3fa9 0c3c 6108 113b 6292 263c 671e c03a
000000a0: 81f4 a13c 5915 03ba 0000 0000 fe18 263c
000000b0: a5ed bf3b abee 943b b8d8 8c3c fb11 a63c
000000c0: c172 fdba 19ba f8ba b6c8 103b d29f 863b
000000d0: 61f0 5a3b 0000 0000 fc67 ce3b 05a6 5cbb
0.0 0.0071857697 0.016592119 0.0033536667 0.023484427 -0.005555854 0.020348331 0.009719599
0.01503083 0.0029965218 -0.004799913 0.0 0.0 0.0081233755 -0.0039442843 0.019285047
0.007296731 0.021231985 0.0 0.008695805 0.014184605 0.014711938 0.005950095 0.0005049665
-0.0022086643 -0.0014278067 -0.0031092942 0.015760727 0.021114418 0.0078123743 -0.0068111606 0.008560034
0.010830533 0.014515407 0.015544916 -0.003738237 0.008585273 0.0022130238 0.010166736 0.0014657498
0.019769909 -0.00050004345 0.0 0.010137795 0.005857187 0.004545053 0.017193183 0.020272246
-0.0019336567 -0.001897636 0.002209229 0.0041084075 0.0033407437 0.0 0.006299017 -0.0033668291

sequential/conv1d/Conv1D f4 [56, 1, 3, 10]
00000000: 5328 8e3d 127f 273e 3fea d63c 058f 8fbd
00000010: 08ce 1e3e f990 573d ec85 593d f05c 04bd
00000020: 3161 963d 353c ee3c 6ff0 843c a72b 0e3e
00000030: 882b 0f3d 53eb 81bd ad61 13be 70db 09be
00000040: 48de 3f3d 56e4 00be f7e2 87bd 9ee0 8bbd
00000050: a909 a23d dc45 703d 1e12 21bd e0d0 a53d
00000060: f546 59bd 433e e13d ca32 4cbc b726 3fbb
00000070: 7c00 e6bd 28d4 0b3e 43b4 db3d 4dfc 473e
00000080: 0718 373e a6cb 16be 5da6 aebd 7f04 b93c
00000090: 708d 283e 45a8 303d 2d8e 483d a2aa 85bd
000000a0: ce39 5a3e 7784 3a3e 04f8 313d c87f 213e
000000b0: 31b5 af3d 495d 4f3d ff85 463e b7c2 9d3c
000000c0: 1de5 e5bd b903 283e b372 08be b284 78bc
000000d0: c758 93bd 9e14 1abe 9ede 563d 3309 d1bd
000000e0: 78f5 94bd ceef 13be 38db 9c3d 5704 ef3c
000000f0: cb52 dd3d 54c3 803d aea7 183e 5b80 a7bd
00000100: ee01 a2bd 7bff 20be 227b 1e3e fb4c c7bc
00000110: feba 183b 0694 32be be35 773c 30c5 15be
00000120: 19a0 083d bbea 8f3d 64e8 4abc 5e2e b93d
00000130: c33d d6bd f82f 0cbe 299c 0d3c 95ee 0e3d
00000140: d75e d4bd 2f6e 28be 492a 99bd d320 ef3a
00000150: b4d3 91bd 37b1 733b 6e4c dabd b572 72bd
00000160: 6d7b 2cbc ebc6 d6bd bf4a 193e 63e9 9bbd
00000170: e042 a83d cc4d 073e fb44 d2bd e563 333d
00000180: 91ce 8dbc dc83 1a3e 1efb 243d 2668 9cbd
00000190: 372a 0c3e 48d1 1a3e 5a90 283d 0ecf f2bd
000001a0: 6dc5 16be 3591 40be 0147 e5bc 505c 063d
000001b0: 5e0c 40be df50 623d 70a6 83bc 84b3 073d
000001c0: 08d8 f53c d52d e23c d0dc d33d e030 b63c
000001d0: 92f4 f4bb 348c 183e ed48 8b3c 9000 f038
000001e0: b4bb e0bd 34b4 6d3c 07e9 5a3d 8a68 61bc
000001f0: 1e4b 13be 6c2f e338 7a09 d9bd fe40 dbbd
00000200: 5442 1a3e cf71 d13d a91d 913d 3ac9 523d
00000210: 0fed 99bb fb75 0bbe 7b94 15bb 8d36 343e
00000220: a1af 1e3e 5eee b23d d78e e0bd 5823 b23d
00000230: a204 10be 89e5 dabd ccb0 b4bd 12e8 ddbc
00000240: 160f 9d3d d127 ae3d b1e8 293e ac11 8fbd
00000250: 69f3 913b 925f 903d ea35 d63c 6277 383e
00000260: b7bb d73d 8812 13be 46d4 f03d db2f c13d
00000270: af1a fb3d ea70 223e 92b6 b63d cede 79bc
00000280: 4db2 c63d ca2f cf3d d661 2d3e bcc8 51bc
00000290: 5b60 4e3e cc53 113e 3ebe 123e 0da9 5c3d
000002a0: a771 1bbd 723a bdbd 7947 f53d 978f fa3d
000002b0: 3006 27be 3ee1 bfbc ae4b f1bd 0254 27be
000002c0: 9af7 c23c 8c0a 853c ef48 dcbd 7274 47be
000002d0: 69bf 593d 6fb2 20be 0a3f c3bc a11c 7ebd
000002e0: 6996 05be 00d0 0f3c b31e 60be 21f3 8f3c
000002f0: 8244 f2bd 571d bb3c 9db9 343e e427 523e
00000300: 5769 893c 0979 483e f60f 673a ba03 1e3e
00000310: bf8c 1d3e 2acb dfbc df3a 71bd c4ca 87bd
00000320: 15b2 6fbd ec5d 533d d322 35bd 1170 4c3e
00000330: 5a78 e83d 407e 2a3e db2f 20be e11d aebc
00000340: 812c e0bd df36 14be 9403 c3bd 6d97 d5bd
00000350: 11dd c8b9 faff e33d 3c34 bebd 8281 8c3d
00000360: e209 9bbd 0e70 25bd 8962 8d3d ca24 e8bc
00000370: 261d 213d d1a8 24bd cb15 da3d 4e09 c23c
00000380: b7e5 a03c 93bd f43d da85 ebbd 24c1 c2bd
00000390: cb0a 063b 0705 3b3e 8b31 3d3e 4251 6bbd
000003a0: f423 243d 01aa ccbc f0c2 6f3c 4fee 18be
000003b0: 342d 003e 6212 07be affc b23d 70e5 7cbd
000003c0: aa47 fbbd 05eb 483c fda2 063d db9b 833d
000003d0: ccc5 093e 36a5 0f3e 96ef 95bc ed3d 31be
000003e0: c062 2ebd c438 db3d 86ff bd3d d96c 3a3d
000003f0: 365a 01be 9542 853d 98ac c83d b1ca 253e
0.06941285 0.16357067 0.026234744 -0.07009701 0.15508282 0.05262849 0.053106233 -0.032315195
0.073427565 0.029081443 0.016227929 0.1388384 0.034953624 -0.06343713 -0.14392729 -0.13462615
0.046842843 -0.12587103 -0.06635087 -0.06829952 0.07911999 0.058660373 -0.03932392 0.0809648
-0.053046186 0.109982036 -0.012463281 -0.0029167363 -0.11230561 0.1365515 0.107277416 0.19529839
0.1788026 -0.14726123 -0.08527825 0.022585152 0.16460204 0.043129224 0.048963714 -0.06526686
0.21311113 0.18214594 0.043449417 0.15771401 0.085794814 0.050626073 0.19387053 0.019257886
-0.112253405 0.1640767 -0.13325004 -0.015168356 -0.07194667 -0.15046927 0.052458398 -0.10206833
-0.07273382 -0.14446947 0.07659 0.029176874 0.10806807 0.06287256 0.14907715 -0.08178779
-0.07910524 -0.15722458 0.15476659 -0.0243287 0.0023304815 -0.17439279 0.015088497 -0.14626002
0.033355806 0.07027193 -0.012384508 0.09042047 -0.10460999 -0.13690174 0.0086431885 0.0348955
-0.10369652 -0.16448282 -0.074787684 0.0018244035 -0.07120457 0.0037184486 -0.10659109 -0.059191424
-0.010527474 -0.10487159 0.1496992 -0.07612874 0.082158804 0.13213271 -0.10267063 0.04379644
-0.017310413 0.15089363 0.040278547 -0.07637052 0.13687979 0.15118897 0.04115329 -0.11855899
-0.1472375 -0.18805392 -0.027987959 0.03280288 -0.18754718 0.055252906 -0.016070575 0.033130184
0.030010238 0.027609745 0.10344851 0.022240102 -0.007475444 0.14897233 0.017002547 0.000114441966
-0.109733015 0.014508296 0.05344489 -0.013757834 -0.14384124 0.000108330365 -0.10597511 -0.10705756
0.15064365 0.102267854 0.07085735 0.051461436 -0.004697449 -0.13619225 -0.0022824097 0.17598934
0.15496685 0.08736871 -0.109647445 0.086981475 -0.14064267 -0.106883116 -0.08822784 -0.027088199
0.07668893 0.08503688 0.16592671 -0.069857925 0.0044540656 0.070494786 0.026148755 0.18014291
0.10533851 -0.14362538 0.11759238 0.09432956 0.12260949 0.15863386 0.08921541 -0.015250875
0.09701977 0.10116537 0.16931853 -0.012804206 0.20153944 0.14192122 0.14330384 0.053872157
-0.037950184 -0.09239663 0.11976523 0.12234419 -0.16310954 -0.023422834 -0.11782013 -0.1634064
0.023799706 0.01624038 -0.107560985 -0.19478014 0.05316106 -0.15693067 -0.02383377 -0.06203902
-0.13045658 0.008777618 -0.21886711 0.017571988 -0.11829473 0.022841139 0.17648931 0.2052303
0.016773863 0.19577421 0.0008814329 0.15431109 0.15385722 -0.027318556 -0.058894034 -0.06630471
-0.05851944 0.051603243 -0.044222664 0.19964625 0.1135108 0.16649723 -0.15643255 -0.021254482
-0.109459884 -0.14474057 -0.09522167 -0.10429273 -0.0003831168 0.11132808 -0.09287307 0.06860639
-0.07570244 -0.040390067 0.0690356 -0.028337855 0.03933444 -0.04020006 0.10648688 0.023686077
0.019640787 0.11950221 -0.115001395 -0.09509495 0.002045321 0.18263637 0.1847593 -0.05745054
0.04007335 -0.024983408 0.014633879 -0.14934658 0.12517244 -0.13190606 0.08739602 -0.061742246
-0.12269528 0.012263064 0.03287028 0.064262114 0.1345436 0.14027867 -0.01830272 -0.17308779
-0.042574644 0.107041866 0.09277253 0.04551396 -0.12632069 0.0650684 0.09798545 0.16190602

sequential/conv1d_1/Conv1D f4 [56, 1, 3, 56]
00000000: 2081 41bc aa73 b83d c8f5 d1bc 3cc4 cbbd
00000010: eec4 cabd 5c77 bbbc d4c7 fabc 00b4 48bb
00000020: 0852 b63c 9203 e8bd 802a 283b 24ee f9bc
00000030: ac07 f2bd b603 eb3d 428c 903d 74b2 073d
00000040: 408f 153d 1a76 ef3d 189f e13c 944b bebd
00000050: b679 6bbd a05d 7dbc 408c a1bb c0ea c8bb
00000060: 0ee4 9cbd e8b6 23bd 380e 8a3c d4a2 153d
00000070: 54a5 c2bc 000d dabd 5cc9 fabd c7b1 073e
00000080: f884 89bd 3c6f b4bc a0d9 9bbc 4075 f93b
00000090: 58e6 a3bd 842b 07bd 15d1 8cbd cc2c debd
000000a0: 2c36 8d3d ce39 28bd 5c6e d8bd c4db adbd
000000b0: 8e61 ff3d 5aef fd3d a857 f4bd 4815 3d3d
000000c0: 4e91 b4bd 6436 03bd 68de e83d d050 2d3d
000000d0: d07a 3f3c 6e8b bcbd 10ac 1cbd 9226 993d
000000e0: 2212 cb3d d052 07bc 56fb e23d c067 f43b
000000f0: 387f 01bd 982f 213d c0e4 2d3b b77e 87bd
00000100: ac6e 2ebd 1e2d 863d 5c87 c53d 1894 0cbd
00000110: 32fc cd3d 50ce c1bc dead 1dbd 626b 8abd
00000120: a108 083e 0060 8fb8 2c3a 613d 987d d33d
00000130: f073 b53d 8ca5 a9bc dab6 b43d 1d27 07be
00000140: d273 ed3d e489 b53d 149b 9ebd 38ce 2d3d
00000150: 60a1 bf3b 409e 853b 3cb6 5d3d 5821 f6bd
00000160: e652 62bd 3d87 b7bd d870 ef3c 161e 12bd
00000170: 10e6 993d 0c41 eabd 78f4 b23d b87b fa3c
00000180: 5074 5a3d d62c 9f3d c0eb 53bc 3831 62bd
00000190: 5e94 fcbd f6a5 5abd 0f5f fabd f229 f73d
000001a0: 7650 d2bd 00a2 73ba 545c 5c3d 1834 853d
000001b0: fcce 94bd 89df a5bd 0b05 91bd 40d1 723c
000001c0: d4b3 b3bd e009 a73c c413 59bd c67a 99bd
000001d0: fc35 0b3d 60ea 883d 00e3 3f3a 1d17 023e
000001e0: 2067 e23c 3e59 40bd 6157 c7bd 527b 6fbd
000001f0: 548d 713d 3cca 423d 90dc 6ebc 9437 093d
00000200: 3cbb ce3d 3c19 c4bd cf09 cebd 42a6 08be
00000210: a0ce e7bc ce05 e7bd aaa9 72bd 3990 073e
00000220: 634b ebbd 3cdb 1dbd e3f5 073e 20c9 b53c
00000230: 48df a53d c608 943d 961e 08bd 1677 e53d
00000240: 007e c33c 50cd 1f3d 8801 68bd b2b0 92bd
00000250: 7c8c 30bd 79f3 fbbd b6bf 40bd 10f0 e8bc
00000260: 145b 303d 5461 b4bd 635f bebd cc0e 91bd
00000270: e2e4 edbd 752f 01be 121b a2bd 18cb 0fbd
00000280: 50be ffbc 0197 d3bd 3a1f 8a3d 68cf d03d
00000290: 0847 c73c 9e0b b93d 6ebe b7bd 8017 d4bb
000002a0: a428 ea3c 14b4 2fbc b662 7dbd bf55 7c3d
000002b0: b6cc a53d 85f5 f63c bb77 23bd 431d c4bd
000002c0: 695e 05bd c1d8 193e e4e4 253c 8c17 b23d
000002d0: 84e7 c5bd 9830 7cbd e9ea 053e 1f0f c13d
000002e0: f682 b43c 9013 f43c d02e 3cbd c782 9f3d
000002f0: 0fe4 13bd 6776 ea3d 6c1b 99bd 492a 8a3d
00000300: 512d 143d 0f14 1e3e 3da7 e8bd df3f e43d
00000310: 4661 123e 52ab bf3b b271 f2bc d4ae ff3d
00000320: a48d f4ba 0100 1dbd 0cd9 d03d e22e 893d
00000330: 306c 823d e17e 163c 95a9 923d 368f a0bd
00000340: af7e 493d b9b6 5d3c 95e2 ebbd d041 263d
00000350: fdf1 21bb ec90 843c 4f78 eb3d e8c4 38bd
00000360: ce33 a83d 88a7 b6bc 3ae5 a5bc a247 053e
00000370: 5765 edbd a6ca 1ebd 5b93 233d 4e8e 233c
00000380: 3bfb 9d3d 8d9e 153d 3e86 10bd 50a9 9a3c
00000390: b26f 5bbc b0b2 023c 167f e33d 9d48 f33d
000003a0: 379b 1d3d 300c 62ba d3c2 273d 4531 9a3d
000003b0: 62b7 953d 6ea3 623d 593a c3bd 4f0b 123e
000003c0: 74a8 fa3d 1fd9 c9bd 102a c63d f88f c23d
000003d0: cb6e 0dbc 98a5 4bbd 66e4 bfbd 4a61 84bd
000003e0: 631d 7e3c 3e59 dc3d 2416 063e 7c4a a03d
000003f0: 9cb6 80bc 2c58 04be c165 92bd 0add 1cbe
-0.011810571 0.09006436 -0.025629893 -0.09949538 -0.099008426 -0.022884063 -0.030612864 -0.0030624866
0.022255912 -0.11328806 0.0025660098 -0.030509062 -0.118178695 0.11475317 0.07058002 0.03312917
0.036513567 0.11692448 0.027541682 -0.09291759 -0.05748912 -0.0154642165 -0.004930049 -0.0061315
-0.076606855 -0.039969355 0.016852483 0.036532238 -0.023760475 -0.10647011 -0.122454375 0.1325141
-0.06714815 -0.022025697 -0.01902467 0.0076128542 -0.08002919 -0.033000484 -0.06875817 -0.10848388
0.06895098 -0.04107075 -0.105679244 -0.084891826 0.12469779 0.12399168 -0.119307816 0.046162874
-0.08816777 -0.032034293 0.113705456 0.042313397 0.011686996 -0.092062816 -0.03825003 0.0747806
0.09915568 -0.00825949 0.11083095 0.007458657 -0.031615466 0.03935203 0.002653405 -0.06615966
-0.042586014 0.06551574 0.096449584 -0.03432092 0.10057868 -0.023657948 -0.03849589 -0.06758763
0.13284542 -6.836653e-05 0.054987118 0.103266895 0.08860004 -0.020708822 0.08823939 -0.13198514
0.115943566 0.08864191 -0.077444226 0.042432994 0.005848095 0.0040777028 0.05412887 -0.120180786
-0.05525484 -0.089613415 0.029228613 -0.035673223 0.07514584 -0.11438188 0.08738035 0.030576572
0.05333358 0.07772224 -0.012934625 -0.05522272 -0.12332986 -0.05338093 -0.12225162 0.12068547
-0.10269253 -0.0009293854 0.05379899 0.06504077 -0.07266042 -0.080992766 -0.0708104 0.014820397
-0.08774534 0.020390451 -0.052997366 -0.0749412 0.03398703 0.066853285 0.00073198974 0.1270413
0.027637064 -0.046960108 -0.09733463 -0.058467217 0.05897267 0.047556147 -0.014578953 0.03350027
0.10094306 -0.095751256 -0.100604646 -0.13344672 -0.028296769 -0.11280404 -0.059243836 0.1323861
-0.11488988 -0.038539156 0.13277392 0.02219063 0.08099228 0.07228236 -0.033232294 0.112043545
0.023863792 0.03901416 -0.056642085 -0.07162608 -0.043102726 -0.12302298 -0.04705783 -0.028434783
0.04305561 -0.08807626 -0.09295537 -0.070829004 -0.116159216 -0.1261576 -0.079153195 -0.035105795
-0.031218678 -0.10331536 0.06744237 0.101958096 0.024325863 0.09035419 -0.089718685 -0.006472528
0.028583832 -0.010724086 -0.061861716 0.06160521 0.08095686 0.03014637 -0.039909106 -0.09575894
-0.03256074 0.15024091 0.010125373 0.086958975 -0.09663299 -0.06156978 0.13077892 0.09426712
0.022035103 0.029794484 -0.04594308 0.07788616 -0.036106165 0.11448365 -0.074759334 0.067463465
0.03617603 0.15437339 -0.11360023 0.11144995 0.1429492 0.0058492804 -0.02959523 0.12484518
-0.0018657935 -0.03833008 0.101976484 0.06698395 0.063682914 0.009185524 0.071612515 -0.07839815
0.04919308 0.013532334 -0.115178265 0.040590107 -0.0024710887 0.016182385 0.114975564 -0.04510966
0.08213006 -0.022296682 -0.020250905 0.13015607 -0.11591595 -0.03876748 0.03993545 0.009982659
0.07713934 0.03652816 -0.035284273 0.018879563 -0.013393329 0.007977173 0.11108224 0.11879084
0.038478103 -0.0008623032 0.040957283 0.07528929 0.07310368 0.05533164 -0.09532613 0.14262126
0.12239161 -0.09855866 0.096759915 0.09500116 -0.008632372 -0.04971847 -0.093697354 -0.06463869
0.015509936 0.10759209 0.13094383 0.07826707 -0.015712075 -0.1292426 -0.07148314 -0.15318695

sequential/dense/BiasAdd/ReadVariableOp f4 [784]
00000000: 8f4e bbbb 0000 0000 50f2 e93c 468e 283c
00000010: fa3d abbb 94fb 3cbc 8aef c33b 1d0a 703b
00000020: 34fe 993b f47a b1bb 0000 0000 114c f5bb
00000030: c329 abbb 19ff 813b 2e5f c53c 6672 6f3c
00000040: 0000 0000 bce1 50bc 042e 893c 2643 16bc
00000050: 6cc7 28bc e2d2 6dbc 239b 163c 0000 0000
00000060: b3c4 a03c 99e8 b83a 7908 603c 6f1a ccbb
00000070: 4cc0 3fbc 557a 063c 4ba6 24bc 0000 0000
00000080: 67d6 463a 7419 dd3b 4389 173c 2f65 9f3b
00000090: 0000 0000 248c 4dbc d076 833b 1424 ebbb
000000a0: 0000 0000 43b6 c63c eba5 5cbb b28c 573c
000000b0: 0000 0000 ef02 f0bb c488 003b 4525 023c
000000c0: f9c8 5abc db2a 1dbb fbd6 c43c 0000 0000
000000d0: b8ad fa3b ed93 503c cf9a 683c efdd 26bc
000000e0: b293 e83a 0000 0000 3d53 de3b 7ed5 4dbc
000000f0: 77e7 743b 47a5 c4bb 0000 0000 5f90 c43b
00000100: 0000 0000 8ecd f13b 0000 0000 2b9f c23a
00000110: 400c 2fbc f6a5 913c 776e 1dbc c2ee 203c
00000120: 8f24 773c fb74 8c3c 0000 0000 a844 3e3c
00000130: 29bf 8a3c 5b4a 713c 98e2 5a3c c8c6 263c
00000140: 998a 7d3c 62d8 673c b49a fe3c c97d 31bc
00000150: f322 743c 6fdd a4bb 4523 25bb 2a11 853b
00000160: 0000 0000 97a7 2a3c 237e 11bc 79c3 aabb
00000170: e886 ebbb 0000 0000 51e8 a63b 691a 523c
00000180: 7b07 6cba 1772 42bb 0000 0000 8ea7 b2bb
00000190: c3e6 423a 4d7f 5b3b 3e1c 2c3c c24f 6a3c
000001a0: 70d1 8e3c dbfc c23c 44cb b43b 0000 0000
000001b0: 0000 0000 8d2b a73c 6e99 66bb 0000 0000
000001c0: 38da 483b 0d14 8c3c 0000 0000 327f 903c
000001d0: 80f5 a8b8 a7aa 6c3c f6ef 8fb9 d1bb 52bb
000001e0: 072d b7bb b8cd b33b e259 c93c 5185 803c
000001f0: 0000 0000 0000 0000 8245 a63a 0526 4f3c
00000200: 81a2 433b fd11 1a3c 74cb d23b de89 0b3c
00000210: 9e9a 8ebb f469 313c 0000 0000 36d3 383c
00000220: b855 0b3b e7ed 5bb9 3e5a e73b 0000 0000
00000230: 82b8 593c 467b 873b f9ce 5c39 4c64 653c
00000240: 4c75 aebb bf62 aa3c aa03 39bc 44bd e9ba
00000250: 7293 683a 405d cb3c 5ead 543c ffe5 023b
00000260: 241c 353b f089 633c 4434 01bc 6319 e4bb
00000270: 064a 863c 6667 cb3b 0000 0000 bfc1 983c
00000280: 6843 823b 1dad 9e3b 0000 0000 a080 d2bb
00000290: e0a9 c4bb b8d7 e1ba 065a 663c 0000 0000
000002a0: 06eb 4e3a 8131 973c 8c89 a2bb c532 66bb
000002b0: 2f94 b23b 0000 0000 b88e b63c 05df 903b
000002c0: 5d9a 14ba 9a43 1a3c ee1b c33b 3367 bcbb
000002d0: 963a a53c ee7a 49bc 0000 0000 e35d 3fbc
000002e0: 46a8 2f3c b0fd a2ba ec64 acbb 0000 0000
000002f0: cd9d febb b120 483c 68c5 173c 81b0 803a
00000300: 2f29 843c 0000 0000 5f7f 383b 67e3 433b
00000310: eb5f 8a3b dd71 51bc b9b8 a83c e501 e03c
00000320: 05b3 78bc 0000 0000 0128 503c f7b2 a5bb
00000330: 7eab 293c a1f3 423b 8de0 d93b 40a1 2f3b
00000340: e3b8 e43b fbbc 5d3c 6240 793c f22b b33b
00000350: 0000 0000 f3b4 683c 1205 18bc 0000 0000
00000360: 0000 0000 4308 bdba d543 f93b 482c cc3a
00000370: e025 533c 2ba9 25bc 349d 1dbc 7f98 d23b
00000380: 0184 313c d091 253c 11e2 34bc 2138 c63b
00000390: bf71 633b a3b6 e33a 4d89 8bbb 0000 0000
000003a0: eafc 09bc 9d85 d73b d4b1 883c d7c0 c4bb
000003b0: 7ebe aa3c 0000 0000 9f9d f83b 75bb 7c3c
000003c0: 0000 0000 e7ef 343c 0b3a 503c ae24 5c3c
000003d0: 430c 533c 003c c3bb 0000 0000 7f58 97ba
000003e0: b3ea 913c 5318 a33c 0000 0000 0000 0000
000003f0: dab1 4fbc 0000 0000 8577 213a 0a2d 323c
-0.005716152 0.0 0.028557926 0.010287827 -0.005225894 -0.01153459 0.005979483 0.0036627122
0.004699493 -0.0054162685 0.0 -0.0074858745 -0.0052234842 0.0039671776 0.024093237 0.014614677
0.0 -0.012749132 0.016745575 -0.009171283 -0.010301452 -0.01451561 0.009192261 0.0
0.019625043 0.0014107405 0.013673895 -0.006228737 -0.011703562 0.008207877 -0.010049413 0.0
0.0007585049 0.006747419 0.009249034 0.004864357 0.0 -0.012545619 0.0040119663 -0.0071759317
0.0 0.024256831 -0.003366823 0.013156103 0.0 -0.0073245685 0.0019612769 0.007943456
-0.01335358 -0.0023981843 0.024028292 0.0 0.0076501034 0.012730581 0.0141970655 -0.010184749
0.0017744212 0.0 0.006784825 -0.012563108 0.003736941 -0.006001148 0.0 0.0059986557
0.0 0.0073792404 0.0 0.0014848461 -0.010684073 0.017779332 -0.009608856 0.009822549
0.0150844 0.017145624 0.0 0.011613049 0.016936855 0.0147272 0.013359688 0.010179229
0.015474939 0.014150711 0.031079628 -0.010833212 0.014900911 -0.0050312798 -0.0025198024 0.004060884
0.0 0.010415933 -0.008880171 -0.0052112904 -0.007187713 0.0 0.0050936122 0.0128236795
-0.00090038 -0.0029670054 0.0 -0.005452103 0.0007434899 0.0033492625 0.01050478 0.014301242
0.017433852 0.023802212 0.005517395 0.0 0.0 0.020406509 -0.0035186666 0.0
0.0030647647 0.017099405 0.0 0.017638776 -8.056592e-05 0.014444984 -0.0002745387 -0.0032155404
-0.0055900845 0.00548717 0.024578992 0.01568857 0.0 0.0 0.001268551 0.012643342
0.0029851499 0.009403703 0.006432945 0.008516757 -0.004351928 0.010828484 0.0 0.011280825
0.002126081 -0.00020974093 0.0070603183 0.0 0.013288619 0.0041345684 0.00021057938 0.014000963
-0.0053240415 0.020799039 -0.0112923775 -0.0017832895 0.0008872069 0.024824739 0.012980787 0.0019973514
0.0027635181 0.013887867 -0.007885996 -0.006961034 0.016392719 0.0062073944 0.0 0.018647073
0.0039753206 0.004842414 0.0 -0.0064240247 -0.006001696 -0.0017230427 0.014059549 0.0
0.00078932976 0.018456222 -0.0049602445 -0.0035125476 0.005449794 0.0 0.02228485 0.0044211172
-0.0005668754 0.0094155315 0.005954257 -0.005749607 0.020169538 -0.012297375 0.0 -0.011680099
0.010721272 -0.0012435224 -0.0052610543 0.0 -0.007770276 0.0122148255 0.009263374 0.0009818227
0.01613292 0.0 0.002815209 0.002989018 0.00422286 -0.012783495 0.020595895 0.027344653
-0.0151794 0.0 0.01270485 -0.0050567347 0.010355828 0.0029747265 0.006649083 0.0026798993
0.006980048 0.013533826 0.015213104 0.005467885 0.0 0.014203298 -0.009278553 0.0
0.0 -0.0014422018 0.007606963 0.0015577162 0.012887448 -0.010111134 -0.00962 0.0064268704
0.010834695 0.010105565 -0.011040227 0.0060491716 0.003470525 0.0017373156 -0.004258311 0.0
-0.008422116 0.0065772072 0.016686358 -0.0060044336 0.020842787 0.0 0.0075871493 0.015425553
0.0 0.011043525 0.012709151 0.0134364795 0.012881341 -0.0059580803 0.0 -0.001154676
0.017812109 0.01990906 0.0 0.0 -0.01267668 0.0 0.00061594724 0.010874996

sequential/dense_1/BiasAdd/ReadVariableOp f4 [4]
00000000: 0691 bfb8 11d0 b0bb 29b9 e13b 70c2 2db8
-9.1346024e-05 -0.005395897 0.006888528 -4.14275e-05

sequential/dense/MatMul f4 [784, 56]
00000000: 2d7b 29bd 21b0 253c 4d7d c73a 9c93 82bc
00000010: 0b08 1b3d e42d 5cbd 96d3 63bd 0f1b 863d
00000020: c1d4 8abd 5af6 773b 844a b13c 0899 79bc
00000030: 145f 643d cd8a 6fbd d0ff 6dbd 03f0 8b3d
00000040: f55f 7c3d fcb9 a3bc 20f2 943b da42 d93c
00000050: 1340 c5bc a442 16bd 59b9 46bd 3772 4f3d
00000060: f287 5bbd c75a f5bc 1cdb 743c 7eb1 a3bc
00000070: d8a9 03bd de40 63bd 4443 55bd 72c4 1c3d
00000080: b779 233d 6296 633d cb0a 883d bc58 8abd
00000090: 7dba 3cbd fa99 1dbd 77c9 a0bd d00c 9b39
000000a0: 28ab 123d fd22 adbd aa87 a1bd 2387 22bd
000000b0: 07cd 2c3c f10e 4dbd 0ff1 b83c 3734 753d
000000c0: ff67 103d fa31 bbbc 9b05 9b3d 710c 013d
000000d0: 8af2 b1bd 3c2c 283d c8b6 b3bd 06cb 8bbd
000000e0: 101f 353d e0e9 9fbd 84cf ae3c 48b1 09bc
000000f0: 0b8f 09bd 2430 23bd 40c6 53bb e0b3 86bd
00000100: 90fe 733d c48b 81bd 1dc5 53bd 10b2 603d
00000110: 945c a23d 54d9 7cbd aaf0 153d b009 09bc
00000120: fc7e c43c b84c 913d 64c9 4f3d 0641 61bd
00000130: 56dd a7bd 134b 8fbd 9062 403d 6a2b 113d
00000140: 9c98 bfbc dfe7 2ebd 90b9 013c ecbe ff3c
00000150: a00b 083d f76b 37bd 240c 133d 78fb 0bbc
00000160: a80e 7dbd 94d1 ce3c 259a a3bd ff50 91bd
00000170: 3106 8cbd 1000 033c 0a9d c3bc c426 873d
00000180: a064 a73d baa7 843d 2399 8abd 7051 a73b
00000190: 6e74 a3bd 5439 443d 0870 243c 986e 793d
000001a0: f87e 52bd 5e8c abbd 003b 48bb 55dc 5cbd
000001b0: 5c36 6ebd d460 6dbd c477 a7bc 566f e8bc
000001c0: 0c08 02bd 89dd 80bd 5fdc 373d 854b 573c
000001d0: eef9 003e 4072 3a3c 3c5a e63d 36ef f23b
000001e0: a2bc ba3c b721 9abd 3475 b8bc 3cd2 903d
000001f0: 6274 a93d 2009 99bd f35e 54bc 915b 423d
00000200: 7288 ad3d a80c bc3d 9c64 d8bc 111e 5bbd
00000210: 8390 a93d 0fe4 8e3b 4973 d9bc 16fc 01bd
00000220: 3ab6 c4bd 5e0b 02bd 6d44 213d 750e a0bd
00000230: cebd 883d a77e aabc 48a6 083b 410c efbd
00000240: 3212 27bd 407b 553c 756d 223d 2edb 38bc
00000250: 3c57 04bc 6b70 903d 57d2 bcbc ea86 453d
00000260: 623e 433c 27c4 06bd 0947 89bd 4165 ce3d
00000270: fbaa 12bc c388 1bbd 5e53 cf3d 1da3 cb3d
00000280: 2a52 f2bb 7837 453d 385a bb3d e6f3 4f3d
00000290: 1c86 933d 882d 073c 8e60 db3c 4b2d 6b3d
000002a0: 3317 2ebd 599f a0bd 15b4 d0bc d1da 9f3d
000002b0: ac1d 983d e576 833d 68b4 8a3d e2b6 71bc
000002c0: 1f20 d13c 1507 043e e8c3 56bc 3415 6a3d
000002d0: 81cc 19bd 3a5e cb3d a304 0dbd c4cb 823c
000002e0: b0da febc 0de7 6fbd a077 d0bb 0600 51bd
000002f0: 0648 943d ec79 2dbd a562 4e3d 3cc8 753d
00000300: 1257 d73b cd63 263d c8fd dc3d 1451 063d
00000310: bdb9 b73d db0a 703c fbc2 ac3d c06d 5e3d
00000320: 4ad3 1ebc cc98 3cbd 45b7 633d 51cd 16bc
00000330: d2a2 03bd 67ae 313c 35a5 cb3d 6111 b6bc
00000340: 7d42 c6bd c99f fbbc f27e 80bd f95b 5f3d
00000350: f0eb 943d 7daa d33d 4b52 bebd 6b6e aa3c
00000360: 5777 de3d fb76 7a3d bffd bc3c 0939 943c
00000370: 1245 8c3d bc42 5e3d f347 acbc 8b5f a23d
00000380: 1016 a5bd 10f8 50bd 1265 e03c 02ae fc3d
00000390: 5313 69bc e070 64bc bcbd 3f3d 1091 dc3d
000003a0: b634 43bd 7c02 983d 0901 103c 94d2 febc
000003b0: fae3 033d 6e2f 9b3d 7fb2 bbbd 7636 153d
000003c0: 6ef2 2a3d 82e4 823e 7c41 793d 2d7d 89bc
000003d0: 5950 343e 3c28 babd af92 a03c 342a 71bb
000003e0: 97a2 9ebc c1eb 653d 27d4 783d c9d3 b93d
000003f0: 12ed 1fbc 78e6 353e 2444 ffbc a8a8 be3d
-0.041377235 0.010112793 0.0015219838 -0.015939526 0.037849467 -0.053754702 -0.055621706 0.0654813
-0.06778861 0.0037836046 0.021641977 -0.015234239 0.055754736 -0.05848198 -0.05810529 0.06832888
0.06161495 -0.019986145 0.004545465 0.026521135 -0.024078405 -0.036684647 -0.048516605 0.050646033
-0.053596444 -0.029950513 0.014944818 -0.019982096 -0.032144397 -0.055481784 -0.052066103 0.038273282
0.039911 0.055563338 0.066426836 -0.06755206 -0.046076287 -0.03847692 -0.07850926 0.0002957345
0.03580776 -0.08453939 -0.07887204 -0.039679658 0.010546929 -0.050063077 0.022575883 0.05986425
0.03525543 -0.02285098 0.075694285 0.031506006 -0.08688839 0.04105781 -0.08775097 -0.06825833
0.044219077 -0.0780828 0.021339186 -0.008404084 -0.033583682 -0.039840832 -0.003231421 -0.06577277
0.05956894 -0.06325486 -0.051701654 0.054857314 0.07927814 -0.061730698 0.03660647 -0.008364126
0.023986332 0.07094711 0.05072917 -0.05499365 -0.08196513 -0.06996741 0.046968997 0.035441794
-0.0233882 -0.0427016 0.007917777 0.031218968 0.03321421 -0.044780698 0.03590025 -0.008543842
-0.061781555 0.025246419 -0.07988385 -0.07095527 -0.068371184 0.00799562 -0.023878593 0.06599191
0.081734896 0.06477304 -0.0676749 0.0051061437 -0.079811916 0.047906235 0.010036476 0.060896486
-0.051390618 -0.08376382 -0.0030552745 -0.053921062 -0.05815731 -0.05795367 -0.02044285 -0.028373402
-0.031745955 -0.062922545 0.044887897 0.013140564 0.1259534 0.011379778 0.112476796 0.00741377
0.022795025 -0.07525962 -0.022516824 0.07071349 0.082741514 -0.074724436 -0.012962091 0.047450606
0.084732905 0.091821015 -0.026415162 -0.05349547 0.082795165 0.004360683 -0.02654423 -0.03173455
-0.096050695 -0.03174912 0.039371897 -0.078152575 0.06676827 -0.020812346 0.0020851064 -0.11672259
-0.040788837 0.013029873 0.039655168 -0.011282725 -0.008077439 0.07052692 -0.023049517 0.048224367
0.011916729 -0.03290191 -0.06703002 0.100779064 -0.008951898 -0.037972223 0.10123323 0.09943221
-0.0073950486 0.048148602 0.09148067 0.05076971 0.07203314 0.008250602 0.02677944 0.05741624
-0.042502593 -0.07842893 -0.025476495 0.07805408 0.074275345 0.06419162 0.06772691 -0.014753075
0.025528012 0.12893327 -0.013108231 0.057149127 -0.037548546 0.09930082 -0.03442825 0.015966304
-0.031110138 -0.058569957 -0.0063619167 -0.051025413 0.072403 -0.042352602 0.050387044 0.06000541
0.006571659 0.04062252 0.107905924 0.032792166 0.08970974 0.014651026 0.08435627 0.054303885
-0.00969393 -0.046044156 0.0555947 -0.009204225 -0.0321377 0.010844803 0.0994362 -0.022225084
-0.096806504 -0.03071584 -0.06274213 0.05453107 0.07271564 0.103352524 -0.0929304 0.020804605
0.10862606 0.061148625 0.023070214 0.018093603 0.068491116 0.05426286 -0.021030402 0.079283796
-0.08060849 -0.05101782 0.027391944 0.12337877 -0.014225799 -0.013942927 0.046811804 0.10769856
-0.04765769 0.07422349 0.008789309 -0.03110627 0.032199837 0.07577406 -0.09164905 0.03642889
0.041735105 0.25564963 0.060853466 -0.016783321 0.17608775 -0.09089705 0.019601194 -0.0036798837
-0.019364638 0.056133036 0.0607492 0.09073598 -0.009761112 0.17763698 -0.031160422 0.093095124

sequential/dense_1/MatMul f4 [4, 784]
00000000: 8ee0 9abd 0c6c b6bc 0b15 bc3b 5d7e c4bd
00000010: 1755 3fbd aa43 cf3c ae72 943d a90c 3c3d
00000020: 0924 6d3b 3c29 ffbc 0c1a 87bd 8751 773d
00000030: 01bd ef3c c78f dfbc 8317 d73d ae90 283d
00000040: 6811 283d 0d44 a43d 7858 723d 604d 8b3d
00000050: 08a0 6cbd cc5d 133c dec2 b73c 94aa 813d
00000060: 6915 e63b a621 05bd ceb6 c4bd 8593 933c
00000070: 7ce5 863d ae2d c53d 1546 7b3d dc24 a9bd
00000080: 3324 e6bc bf43 0e3d 2342 103d d55f 383a
00000090: 7e08 933d 4f88 653d 168d aebd 6118 adbc
000000a0: d0e3 ab3c d939 123d a746 04be 1d6e 923c
000000b0: 2e78 aa3d 9a3a f9bc 3632 a2bd 94a5 06be
000000c0: fd6a 45bd b0f4 b6bc 1c92 a03d 209d 263c
000000d0: ca94 00be fce1 41bd 997d 9b3c 79fc aabd
000000e0: 33a7 9fbd 6006 93bd 484c 5a3c b024 b43c
000000f0: 4fe6 cabd 097c 0fbd ca95 26bd 996a 66bd
00000100: 708a 453d 57c2 b03d d033 10bc 0031 debd
00000110: 9e9e 373d 808a c63d f06b b2bb 25d3 1bbd
00000120: b8bb e73c 5ba5 983d f81e a03d b4b8 6bbd
00000130: d30c ed3d fff1 563d 5ea3 b8bd 8398 d03d
00000140: a227 ea3d d844 af3d 7675 853d ef68 503c
00000150: ae9e 1b3b e681 94bd e744 cabc 9055 42bd
00000160: 006e 7a3a 29ae d93d 3cac 513c 99fe e2bd
00000170: 4479 55bb 703e ea3c 778a bd3c ba79 703d
00000180: ee62 873c 8559 9cbc 7cc7 043d 1813 1f3d
00000190: 9d86 a2bd 84b8 953d 8bb4 c5bd ceef df3d
000001a0: 46b7 6fbd 5021 b9bd 2811 79bd 2b5c b2bd
000001b0: f4e2 403d 61cb 6c3d 3004 e8bd ce02 863d
000001c0: f382 753d de97 013e 946d d43c 296a c13d
000001d0: ae8f 703c 9586 f5bd 00d0 873c 3bb6 3c3d
000001e0: 0fff 01bc 882e 43bc 159f fcbd a71c d03d
000001f0: f808 2a3d 6afc 963d 544f c5bc 9283 223c
00000200: d9fc 89bd 1a8c fdbd 7647 ecbd 9806 f2bd
00000210: b0c0 8fbd 9015 f1bd 148a 883d 4e6b bcbd
00000220: 8849 80bb 6854 bfbd dafc 97bc 9422 853c
00000230: c319 53bd c838 4c3b 1391 69bb 3c96 03be
00000240: c27d 78bc 1473 ec3d 23f7 eb3c 1e89 813d
00000250: 5f4f d63c f939 8abd 6d97 2f3c 2cf2 503d
00000260: 835f 56bd f621 d2bd 7f54 163d b76f 5dbd
00000270: 0916 7b3d c908 2c3d e868 04bc b6b7 5abd
00000280: 5d82 e4bd b7b8 463c 8410 903c 4ed6 c8bd
00000290: eb07 17bc 7297 6a3d 233a ba3b f07a 2bbc
000002a0: 1d4e 903d 5fad abbd 0c00 9cbd 5cf2 22bc
000002b0: e529 0b3e d218 2cbd 4bc0 f83d bd28 aa3d
000002c0: df1b d8bd 588e a8bd 7e0f 8fbd 3bfd b03a
000002d0: 9b9d b83d fc78 693c 04fd a1bc 4a0a 4fbd
000002e0: 4584 fe3d a071 633d 9990 a4bc 2838 4c3d
000002f0: 74e2 2f3d e697 e2bd bb79 0ebc 75d2 673d
00000300: a2ab e23d 0832 ae3d da13 76bd d56c 663d
00000310: ca10 c6bd 23c2 03bd 433f b73d 4274 24bd
00000320: 72ef 883d 70e3 86bd 4581 4fbd 312e 4d3b
00000330: 063b b83c b159 47bd 1323 f8bd 7f40 99bd
00000340: 23bd 19bd 197e e93d 6b1c 55bd 74a2 24bd
00000350: 67be 54bd 189f ecbd 08a0 223d b72d b1bd
00000360: 724e 9e3d 8e18 94bd 9697 76bd 45ee 223d
00000370: 4133 0dbe 9ef0 e7bb 9df3 a23d d8cc 99bd
00000380: cf51 0b3d 3f90 12bd ba52 d3bb f36d 72bd
00000390: 4027 adbd bb4c 1b3d 6a4d 99bd 54de 9b3d
000003a0: 4400 a63c 4fe4 dbbd 9f9e 05be 5353 bbbd
000003b0: e565 f53d 1333 17bd cea3 bf3d 7a26 a63d
000003c0: 4087 6dbb 3d53 b73d 1825 aa3d df67 0dbe
000003d0: 207d 963d 8af2 183d 30f6 c7bc 6c7b 6f3c
000003e0: f962 14bd 3181 58bd 0866 17bc 9a73 6dbd
000003f0: ca08 eb3c 9c7c dc3c e2c1 d1bd b127 cabd
-0.07562362 -0.022268318 0.005739813 -0.095944144 -0.046712007 0.02530082 0.07248436 0.04591051
0.0036184809 -0.031147592 -0.06596765 0.060380485 0.029264929 -0.027290238 0.105025314 0.041153602
0.041032225 0.08020792 0.0591664 0.068018675 -0.057769805 0.008994531 0.022431787 0.06331363
0.0070215953 -0.032502793 -0.0960518 0.018014679 0.065867394 0.09627853 0.061346132 -0.082589835
-0.028093433 0.034732576 0.035219323 0.0007033323 0.07179354 0.056038197 -0.08523004 -0.021129789
0.020982653 0.0356997 -0.12917577 0.017874772 0.08323704 -0.030423451 -0.07919733 -0.131491
-0.048197735 -0.022333473 0.07840368 0.010169297 -0.12556759 -0.047334656 0.018980788 -0.083489366
-0.077955626 -0.0717895 0.013323851 0.02199015 -0.09907209 -0.0350304 -0.040670194 -0.056254003
0.048227727 0.086308174 -0.008801416 -0.1084919 0.044829004 0.096943855 -0.005444996 -0.03804316
0.028287753 0.07453414 0.07818407 -0.057549194 0.11574712 0.05247688 -0.09015535 0.10185339
0.114333406 0.08558053 0.065165445 0.012720331 0.0023745704 -0.07251339 -0.024691058 -0.04744488
0.00095531344 0.106289215 0.0127974115 -0.11083717 -0.00325735 0.028594226 0.023137314 0.058709837
0.016526666 -0.019085655 0.032416806 0.03883657 -0.07935832 0.07310584 -0.096535765 0.10934411
-0.058524393 -0.09039557 -0.060807377 -0.08708986 0.04709144 0.057811145 -0.11328924 0.06543504
0.059939336 0.12655589 0.025931157 0.094440766 0.014682693 -0.1198856 0.016578674 0.046072226
-0.007934346 -0.011912949 -0.1233503 0.10161715 0.04151246 0.07372363 -0.024085678 0.009919064
-0.0673768 -0.12380238 -0.115370676 -0.11817664 -0.07019174 -0.11771691 0.06666961 -0.09200154
-0.0039150156 -0.09342271 -0.018553186 0.01625184 -0.05153824 0.0031161774 -0.003563945 -0.12850279
-0.015166702 0.11545387 0.028804367 0.06324981 0.026160894 -0.06749339 0.010717255 0.051012203
-0.05233718 -0.10260384 0.036701676 -0.054061618 0.06130031 0.042000566 -0.008081652 -0.053397857
-0.11157677 0.012129 0.017586 -0.098065004 -0.009218196 0.057273336 0.0056832 -0.010466322
0.07046149 -0.08382677 -0.076171964 -0.009945478 0.135902 -0.042015858 0.12146052 0.083085515
-0.10552191 -0.08230275 -0.06985377 0.0013503203 0.09014436 0.014250036 -0.019773968 -0.05054692
0.12427572 0.055528283 -0.02008848 0.049858242 0.042940572 -0.110641286 -0.008696015 0.05659719
0.110678926 0.085056365 -0.060077526 0.056256134 -0.09671171 -0.032167565 0.08947613 -0.040149935
0.066862956 -0.06586349 -0.05066039 0.003130805 0.022489082 -0.04866952 -0.12116065 -0.07483005
-0.03753389 0.11401004 -0.052029055 -0.04019399 -0.051939394 -0.11553782 0.0397034 -0.086512975
0.07729806 -0.07231246 -0.060203157 0.039778013 -0.13789083 -0.0070782444 0.07956622 -0.07509774
0.034013566 -0.035782095 -0.0064490708 -0.059186887 -0.08454752 0.037914973 -0.07485469 0.07610765
0.020263799 -0.10736906 -0.1304879 -0.09146752 0.119823255 -0.036913943 0.09357415 0.081128076
-0.0036243945 0.08951423 0.08307856 -0.13809155 0.073480844 0.03734068 -0.024409384 0.014616828
-0.0362272 -0.05285758 -0.009240635 -0.057971574 0.028690714 0.026914887 -0.10242058 -0.09870852
